SecPPIS/predict/model/model_epoch_10.pth (torch, 223014 bytes, 12 tensors)

embedding.weight f4 [8, 32]
0	0x3c5f60d1	0.013633923
1	0xbf7246d3	-0.9463932
2	0xbeb3ccaf	-0.351171
3	0x3f9e87fb	1.2385248
4	0xbe051635	-0.12996753
5	0x3ff4ec78	1.9134665
6	0xbdf48ff2	-0.11941518
7	0x4003c827	2.0590913
8	0xbf6b11f1	-0.9182425
9	0xbf306d45	-0.6891673
10	0x3eb234d0	0.34805918
11	0x3ff9c60e	1.9513566
12	0xc0121f02	-2.2831426
13	0xbda38c29	-0.07985718
14	0xbdadc88a	-0.084855154
15	0xbecf882b	-0.40533575
16	0x3f9aa34f	1.2081088
17	0xbfe7dc8b	-1.8114179
18	0x3eb5067f	0.3535652
19	0xbfb741b8	-1.4316931
20	0x3feb9444	1.8404622
21	0xbf028b06	-0.5099338
22	0x3e40c582	0.18825343
23	0xbdaa7c98	-0.083245456
24	0xbf3e26d0	-0.74277973
25	0x3f9f07ed	1.2424294
26	0xbe88a782	-0.26690298
27	0xbd04a03d	-0.032379378
28	0x3e9943aa	0.29934436
29	0x3fc35d5d	1.5262867
30	0x3f7d57ff	0.98962396
31	0xbf07497a	-0.5284649
32	0x3faa9fb8	1.3329992
33	0x3f23782a	0.6385523
34	0xbf80f2bb	-1.0074075
35	0x3fad4388	1.3536234
36	0xbf56052d	-0.8360165
37	0x3dddd0be	0.1083083
38	0xbef1090b	-0.47077212
39	0x3f814717	1.009982
40	0xbf8e3118	-1.1108732
41	0x3f5ac0fc	0.8545072
42	0x3ed601f0	0.41798353
43	0x3ff70a91	1.93001
44	0x3f2660c8	0.64991426
45	0x3efcdd12	0.49387413
46	0x3deeda2f	0.11662709
47	0x3f9293cb	1.1451353
48	0x3f27742b	0.65411633
49	0xbffda8f3	-1.9817184
50	0x3f2610e4	0.64869523
51	0xbf9562a0	-1.1670723
52	0xbefe4a13	-0.4966589
53	0x3dc4118e	0.09573661
54	0xbf2fb759	-0.6863914
55	0x3e77eccd	0.24211426
56	0x3a79f6ed	0.0009535391
57	0x3acc3fc0	0.0015582964
58	0xbf840115	-1.031283
59	0xbef02f5a	-0.46911126
60	0xbf172462	-0.5903989
61	0xbed442b3	-0.41457137
62	0xc01c601a	-2.4433656
63	0x3ec5de86	0.38646334
64	0xbd7fc4ad	-0.062443424
65	0xbfca08e9	-1.5783969
66	0x3f940ce8	1.1566439
67	0x3f947f27	1.1601304
68	0xbfbf1add	-1.4930073
69	0x3fab3b32	1.337744
70	0xbddfcbe3	-0.1092756
71	0xbf1ead12	-0.61982834
72	0x3fa18a25	1.2620283
73	0x3ef2deff	0.47435758
74	0xbc9c8c5e	-0.019109901
75	0xbfb3ee10	-1.4057026
76	0x3fd57706	1.6676948
77	0x3eb22d08	0.3479998
78	0x3ef03da2	0.46922022
79	0xbf9c8e4d	-1.2230927
80	0x3e0f140a	0.13972488
81	0xbfc52761	-1.5402642
82	0xbf4f1a35	-0.80899364
83	0xbf47f0f9	-0.7810207
84	0xbf4c4d18	-0.79805136
85	0xc0087acf	-2.1324956
86	0x3e13ddda	0.14440098
87	0xbfc01921	-1.5007669
88	0xbfe012ae	-1.75057
89	0x3f410209	0.7539373
90	0xbe2b0734	-0.16701967
91	0x3ed50eb3	0.41612777
92	0x3dae694c	0.085161775
93	0x3f533e01	0.82516485
94	0x3d9a17c9	0.07524068
95	0xbe88d2c0	-0.2672329
96	0x3fb32267	1.3994874
97	0xbc47de52	-0.012199001
98	0x3e46cb74	0.19413549
99	0x3f89887f	1.074478
100	0xbf78fb4b	-0.9725844
101	0xbf1faadf	-0.62370104
102	0x3f1e8bc6	0.6193203
103	0xbea7c1e1	-0.32765105
104	0xbe17c94d	-0.14822884
105	0xbea6b50e	-0.3256001
106	0xbea46f27	-0.32116053
107	0x3e612d43	0.21989922
108	0x3f60952d	0.87727624
109	0xbf8b5b72	-1.0887282
110	0xbebd700c	-0.36999547
111	0xbf18d503	-0.5970003
112	0xbf284c39	-0.65741307
113	0xbf5a5c8a	-0.85297453
114	0x3fac920e	1.3482072
115	0x3e3ce348	0.18446076
116	0x3f482dee	0.78195083
117	0x3f517716	0.81822336
118	0xbe678599	-0.22609557
119	0x4044b1d7	3.0733545
120	0xbe846f15	-0.25866
121	0x3fe5f0a5	1.7964064
122	0x3fac4a68	1.3460207
123	0x3fba49f0	1.4553814
124	0xbf8cab6b	-1.0989813
125	0xc0311c76	-2.767362
126	0xbf785514	-0.9700482
127	0x3fb9f8c8	1.4529047
128	0x3ee6213b	0.44947228
129	0xbfb57da1	-1.4178964
130	0x3f3cc183	0.73732775
131	0x3fb184e7	1.3868684
132	0xbf02a90d	-0.510392
133	0xbf0911f5	-0.53543025
134	0xbf444b46	-0.7667736
135	0x3f837fc8	1.0273371
136	0x3f631e19	0.887178
137	0x3f278f67	0.6545319
138	0x3ea89975	0.32929578
139	0xbf9e9171	-1.2388135
140	0xbe3d9b16	-0.18516192
141	0x3f590e8f	0.8478784
142	0xc007ef04	-2.1239634
143	0xbfe0171a	-1.750705
144	0x4009ae9d	2.1512825
145	0x3e8cb284	0.27479947
146	0x3ff130b3	1.8842987
147	0xbf8853a4	-1.0650525
148	0xbff5cc37	-1.9202946
149	0xbf033a6a	-0.5126101
150	0xbfa067ea	-1.2531712
151	0xbf8dfb95	-1.1092402
152	0x3f17fea5	0.5937293
153	0xbfc60b92	-1.5472281
154	0xbfdc2ba8	-1.7200823
155	0x3fd49025	1.660649
156	0xbf0f1826	-0.5589622
157	0x40024a2f	2.0357778
158	0xbf7e4d6d	-0.9933689
159	0xbe1f8fd5	-0.15582211
160	0x3f4b0101	0.79298407
161	0x3d30284d	0.043007184
162	0x3d821c40	0.063530445
163	0x3d8a210e	0.06744586
164	0x3e13c164	0.14429241
165	0x3ff78d41	1.9339982
166	0x3f97b273	1.1851333
167	0xbea16979	-0.31525782
168	0x3e8137f7	0.2523801
169	0x3f4b1135	0.7932313
170	0xbff24c43	-1.8929523
171	0x3dca7826	0.09886198
172	0xbf5ae432	-0.8550445
173	0xbfe9418e	-1.8223131
174	0x3fdc7520	1.7223244
175	0x3ebba8bc	0.36652172
176	0xbf074c0f	-0.5285043
177	0x4027c70d	2.621524
178	0x3f71e73e	0.9449347
179	0x3ec777db	0.3895863
180	0x3d04c570	0.032414854
181	0x3ec19249	0.3780692
182	0x3e94070c	0.28911626
183	0xbed6d9af	-0.41962954
184	0xbfbd58e0	-1.4792747
185	0x3efccffd	0.49377432
186	0x3ec46016	0.38354558
187	0x3f945213	1.1587547
188	0xbe1c7fd5	-0.15283139
189	0x3e7ae90c	0.24502963
190	0x3f265f35	0.64989024
191	0x3e2211c8	0.15827096
192	0xbc9f446d	-0.019441808
193	0x4026a18d	2.6036103
194	0xbf986629	-1.1906177
195	0xbed309b3	-0.41218337
196	0xbeca8bdc	-0.3955983
197	0x3ef57cfb	0.47946915
198	0x3e58751b	0.21138422
199	0x3fb65d42	1.424721
200	0x3f24bdb1	0.64351946
201	0xbf67b471	-0.90509707
202	0xbe640423	-0.22267203
203	0x3d3a0a85	0.04542019
204	0x3ec53806	0.38519305
205	0x3f8e02a0	1.1094551
206	0xbf92b89a	-1.1462586
207	0x402e1d2e	2.720531
208	0x3efc62ee	0.49294227
209	0xbfd1e245	-1.6397177
210	0x3e5ccffb	0.21563713
211	0x3f401c30	0.7504301
212	0x3f89a925	1.0754744
213	0x3fa9479e	1.3224981
214	0xbff71925	-1.9304549
215	0xbfa91ae9	-1.3211337
216	0xbf46db8b	-0.77678746
217	0x3ec6e809	0.38848904
218	0xbfcce9fa	-1.6008904
219	0xbe9b5698	-0.30339503
220	0xbfa50745	-1.2892843
221	0x3dce1530	0.10062635
222	0xbefdba2c	-0.495561
223	0xbf337ffa	-0.7011715
224	0x3e3f46cc	0.1867935
225	0x3dbee53f	0.09321069
226	0x3d63abf1	0.055583898
227	0xbf478846	-0.7794231
228	0xbf9da0cc	-1.2314696
229	0x3e3042f8	0.17213047
230	0xbdff3be0	-0.12462592
231	0xbfbcf460	-1.4762077
232	0xbfb79bfa	-1.4344475
233	0xbf6e97bd	-0.93200284
234	0xbfa2be1d	-1.2714268
235	0x3cb92b64	0.022603698
236	0x3f67ea5e	0.9059199
237	0x3e842ced	0.25815526
238	0xc0090fbb	-2.141585
239	0xbd833509	-0.064066
240	0xbe78555d	-0.24251314
241	0x3ef4fc38	0.47848678
242	0xbd788cb1	-0.06068105
243	0xbffc0e54	-1.9691873
244	0xbefd20c5	-0.49439064
245	0xbdcd44b9	-0.100228734
246	0xbfa48da1	-1.2855722
247	0x3d142a38	0.036173075
248	0xbf85f0db	-1.0464128
249	0x3f5da283	0.865761
250	0x3fb2b82e	1.3962457
251	0x3e93f467	0.28897402
252	0xbf6c081b	-0.9219987
253	0xbdbaeec4	-0.09127572
254	0xbe5d0354	-0.21583301
255	0x3f3353a0	0.70049477

lstm.weight_ih_l0 f4 [256, 32]
0	0xbe043f64	-0.12914807
1	0x3d84949e	0.06473659
2	0xbd415dab	-0.04720847
3	0xbc7a4f50	-0.015277699
4	0xbc26232b	-0.010140221
5	0x3de869f9	0.11348338
6	0xbdb73168	-0.0894497
7	0xbd705fcf	-0.05868512
8	0xbdad5ad8	-0.08464593
9	0xbb9c5905	-0.004771354
10	0x3da324b9	0.07965989
11	0xbc10e9d0	-0.008844808
12	0x3ce7c300	0.028291225
13	0x3b73da29	0.003720889
14	0x3d6c1b31	0.05764312
15	0xbd7cd682	-0.061728008
16	0x3d68fcc7	0.056881692
17	0xba0c1fa4	-0.0005345291
18	0xbd857707	-0.06516843
19	0x3d3287ae	0.043586425
20	0xbc5e2492	-0.013558524
21	0x3daa76e6	0.08323459
22	0x3da0603f	0.078308575
23	0xbdb0f684	-0.08640769
24	0x3d6e95d3	0.058248352
25	0x3db86d74	0.090052515
26	0x3da37992	0.07982172
27	0xbda93e51	-0.08263839
28	0xbdc0e6b4	-0.09419003
29	0xbd5000da	-0.050782062
30	0x3e0b2a61	0.13590385
31	0x3da55b29	0.08074028
32	0xbc42d4cc	-0.011891555
33	0x3dd73d7b	0.10509773
34	0x3c2220fb	0.0098955585
35	0x3df85bb4	0.12126866
36	0xbcfe4fee	-0.031043973
37	0x3dcbb85a	0.09947272
38	0x3c984911	0.018589528
39	0x3e031ff5	0.1280516
40	0xbdd14984	-0.102191
41	0x3d01a03e	0.03164696
42	0xbd59538a	-0.053058185
43	0xbdcb0d65	-0.09914664
44	0x3d21c7ee	0.03949731
45	0x3d6724ea	0.05643169
46	0x3d57d072	0.052689023
47	0xbd835295	-0.06412236
48	0xbc8c27bd	-0.017108792
49	0xbce1d81a	-0.027568866
50	0xbd505e2e	-0.050871067
51	0xbae40c98	-0.0017398773
52	0x3df77396	0.12082593
53	0xbd9ff738	-0.07810825
54	0x3da01024	0.078155786
55	0x3dfb73b4	0.12277928
56	0x3d43b275	0.04777761
57	0xbd904bb2	-0.07045688
58	0x3df9a1dc	0.12189075
59	0x3dd5c0d6	0.10437171
60	0xbdd10185	-0.10205368
61	0xbdfab444	-0.12241414
62	0xbbf362c8	-0.007427547
63	0x3dbffebd	0.09374759
64	0x3dd22d7d	0.102625825
65	0xbe0a48d5	-0.13504346
66	0xbd4ded26	-0.05027499
67	0xbdd3847e	-0.10328005
68	0x3dcd0c3d	0.100121
69	0xbd7e7773	-0.062125634
70	0x3d5f6181	0.054536346
71	0x3cedb432	0.029016588
72	0xbda7dc82	-0.081963554
73	0x3cb8f317	0.022576852
74	0x3b90ed1c	0.004422797
75	0xbd553be4	-0.05205907
76	0x3d69190f	0.056908663
77	0xbe1292da	-0.14313832
78	0x3d14e0e2	0.036347277
79	0xbd8dff6f	-0.06933486
80	0x3dd5cf5a	0.1043994
81	0xbd7d9caa	-0.061916985
82	0x3dfa29bf	0.12214994
83	0xbc0fe95d	-0.0087836655
84	0xbdb8a11b	-0.090151034
85	0x3d29fb46	0.0414994
86	0xbc8c8da7	-0.017157389
87	0x3dbf4562	0.093394056
88	0xbc89fbf5	-0.016843775
89	0xbdd7b9cb	-0.10533484
90	0xbd8d6cc7	-0.06905513
91	0x3c8c62a5	0.017136881
92	0xbdcd5810	-0.10026562
93	0x3c70c950	0.014696434
94	0x3decd1b7	0.115634374
95	0xbcd3bb26	-0.025846075
96	0xbe197056	-0.14984259
97	0xbdcb5e58	-0.09930104
98	0xbdce62cd	-0.100774385
99	0x3d41a4e9	0.04727641
100	0x3de21e88	0.110409796
101	0xbd46f116	-0.04856976
102	0x3d0bd7f9	0.034141514
103	0xbdb4a3c1	-0.08820296
104	0x3a7e778e	0.0009707146
105	0xbdd000c7	-0.10156398
106	0xbdb3f5df	-0.087871306
107	0x3d14d467	0.036335375
108	0x3d182beb	0.03715126
109	0x3d9d6445	0.076851405
110	0x3d29f525	0.041493554
111	0x3d0d7eb0	0.034544647
112	0xbdaa338c	-0.08310613
113	0x3d97c7f3	0.07411184
114	0xbd085ece	-0.033293538
115	0xbe09c5cd	-0.13454361
116	0xbdd6d558	-0.10489911
117	0x3c80b680	0.015712023
118	0xbdccd5ba	-0.100017026
119	0xbd401dee	-0.046903543
120	0x3d8bfea8	0.06835681
121	0x3cbd926a	0.023141105
122	0x3db60b89	0.08888919
123	0x3dbd91bb	0.092563115
124	0xbd720a8f	-0.0590921
125	0x3e06ecf1	0.13176323
126	0x3d9b35c0	0.075786114
127	0x3d88c633	0.066784285
128	0x3dfcce67	0.123440556
129	0xbdd803a9	-0.10547573
130	0x3cbc5397	0.022989077
131	0xbd24a076	-0.04019209
132	0xbdcae5cf	-0.09907114
133	0xbdf436fe	-0.119245514
134	0x3d7a63c4	0.0611303
135	0xbdc5d00f	-0.09658825
136	0xbdf99c4c	-0.121880144
137	0xbd4291d8	-0.04750237
138	0x3d96ce9a	0.07363625
139	0x3e0324cc	0.12807006
140	0x3d178654	0.03699334
141	0x3d9747c8	0.07386738
142	0xbddc1740	-0.10746622
143	0xbd02c1fa	-0.03192327
144	0xbca6a982	-0.0203445
145	0x3d393933	0.045220565
146	0xbcbb6122	-0.022873465
147	0xbe02ae5b	-0.12761824
148	0xbc491e86	-0.012275344
149	0xbd924b80	-0.07143307
150	0xbd8de32e	-0.06928097
151	0xbd628cb2	-0.05530996
152	0x3cbbfcc7	0.022947682
153	0x3db94171	0.09045685
154	0x3a4aa1d2	0.00077298016
155	0xbdd99475	-0.10624019
156	0x3d695b7d	0.056972016
157	0xbdc14111	-0.094362386
158	0xbc6016de	-0.013677327
159	0xbd0cd9af	-0.034387287
160	0xbd7327c0	-0.05936408
161	0x3da0665d	0.07832024
162	0xbcd26faf	-0.02568802
163	0x3d6c4561	0.057683352
164	0x3cc2c9bb	0.023777833
165	0xbd50c636	-0.05097028
166	0x3d996436	0.07489817
167	0xbdf9423e	-0.12170838
168	0xba8c4b7a	-0.0010703646
169	0x3e03eb8a	0.1288282
170	0xbd4a5d48	-0.049405366
171	0xbdbfe12c	-0.0936912
172	0x3dc5d24c	0.096592516
173	0x3c21a644	0.009866301
174	0xbd95bb81	-0.07311154
175	0xbd0dca65	-0.034616847
176	0x3d7e56c3	0.06209446
177	0x3cf08d68	0.029364303
178	0xbce2c24c	-0.027680539
179	0x3d7afbc8	0.061275274
180	0xbdfbf043	-0.12301686
181	0xbd366410	-0.04452902
182	0x3cd8309d	0.026390368
183	0x3de0a760	0.10969424
184	0x3c40ea88	0.011774667
185	0x3dacaa7d	0.084309556
186	0x3d0dd0f0	0.034623086
187	0x3db330f0	0.087495685
188	0xbd477271	-0.048693124
189	0x3d9bf9d9	0.07616014
190	0xbcf47ce7	-0.029844714
191	0x3b6a5de2	0.0035761525
192	0xbddcd38f	-0.10782539
193	0xbd978862	-0.0739906
194	0xbd875529	-0.0660804
195	0x3e0919b2	0.13388708
196	0x3cbe1b36	0.023206335
197	0xbd9ceff8	-0.07662958
198	0xbdb3b685	-0.08775047
199	0x3d227f3d	0.039672125
200	0xbd81aa71	-0.06331337
201	0x3dd937a4	0.10606316
202	0x3dba1700	0.09086418
203	0xbdc0614a	-0.093935564
204	0xbd9e210a	-0.077211455
205	0xbcb2ae05	-0.021811495
206	0xbdaf07de	-0.085464224
207	0x3d761848	0.06008175
208	0x3c5a8dc5	0.013339465
209	0xbd2a3aa1	-0.04155982
210	0xbd8d0a6f	-0.06886756
211	0x3d8f4301	0.06995202
212	0x3c325629	0.0108848
213	0xbdc09146	-0.09402709
214	0x3deb1ff9	0.11480708
215	0x3e031154	0.12799579
216	0xbdb9834a	-0.090582445
217	0x3d7e355e	0.062062614
218	0xbe006a96	-0.1254066
219	0xbaeb97fd	-0.0017974373
220	0x3dae418b	0.08508595
221	0x376672d0	1.37358e-05
222	0xbb96dc5a	-0.0046039047
223	0xbda3cd58	-0.079981506
224	0x3cf0b360	0.029382408
225	0x3ca730ee	0.020409074
226	0x3dd3490c	0.10316667
227	0x3d951422	0.07279231
228	0x3cd0bdf6	0.025481205
229	0x3dc5aefa	0.09652515
230	0xbdb52903	-0.08845713
231	0xbd9496e6	-0.07255344
232	0x3dae29f6	0.08504097
233	0x3c124b53	0.0089290915
234	0x3c1881d4	0.009308297
235	0xbbb61bb7	-0.005557503
236	0x3dc52534	0.096262366
237	0xbe027265	-0.1273895
238	0x3bda64c2	0.0066648433
239	0x3baea5c6	0.0053298203
240	0x3da5f889	0.08104045
241	0x3db1feed	0.08691201
242	0x3d3543d5	0.044254143
243	0xbd235b4a	-0.039881982
244	0x3c48199d	0.012213138
245	0xbcd0ce07	-0.025488866
246	0xbd1b0e4c	-0.03785543
247	0xbd201678	-0.039083928
248	0xbd69aaf2	-0.05704779
249	0x3d60015f	0.054688808
250	0x3e0296d8	0.12752855
251	0xbd0ae4bf	-0.033909556
252	0xbba050af	-0.0048924307
253	0xbdef038f	-0.116706006
254	0xbdb097c6	-0.086226985
255	0xbdb117ce	-0.086471185

lstm.weight_hh_l0 f4 [256, 64]
0	0xbc3ed628	-0.0116477385
1	0x3ca6b7e0	0.02035135
2	0xbda4bc21	-0.08043695
3	0xbdec8fae	-0.11550842
4	0x3dbe2171	0.09283722
5	0x3cf6b672	0.030116294
6	0xbdcdb679	-0.100445695
7	0x3d9e9e39	0.07745022
8	0x3da37d65	0.079829015
9	0xbd9b61a9	-0.075869866
10	0xbd45cebd	-0.048292864
11	0x3d7136ba	0.058890082
12	0x3bc333cf	0.005957104
13	0xbdd85d33	-0.10564651
14	0xbc0bf3b1	-0.008541987
15	0xbc91bd12	-0.017790351
16	0xbd54cddc	-0.051954135
17	0x3baeb421	0.0053315316
18	0x3d328e30	0.04359263
19	0x3daf8e12	0.0857202
20	0xbdea0010	-0.11425793
21	0x3d23ab19	0.039958093
22	0x3c2d8014	0.010589618
23	0x3cf83a11	0.030301126
24	0x3da41f11	0.08013738
25	0x3c8b1c4e	0.01698127
26	0xbdc3be02	-0.095577255
27	0x3dd6602b	0.10467561
28	0xbd408f8f	-0.04701191
29	0xbdc9302b	-0.098236404
30	0x3e0a4d33	0.13506012
31	0x3d0f097c	0.034921154
32	0xbdec7990	-0.11546624
33	0x3c57b699	0.013166093
34	0xbd047ab5	-0.032343585
35	0x3e08c389	0.1335584
36	0x3d818a1f	0.06325173
37	0xbd975aa5	-0.07390336
38	0x3d43d2b8	0.04780838
39	0x3e0131ec	0.126167
40	0x3d579a0f	0.052637156
41	0xbb931b15	-0.0044893124
42	0x3d079e03	0.033109676
43	0x3bbec8b7	0.005822267
44	0x3d906439	0.07050366
45	0x3d70f8a4	0.058830872
46	0xbcb9882f	-0.022647945
47	0xbcf316d8	-0.029673979
48	0xbd1dda88	-0.038538486
49	0x3e1c7e40	0.15282536
50	0xbd4319b6	-0.04763194
51	0x3d23f273	0.04002614
52	0xbd9a7422	-0.07541682
53	0x3d54161b	0.051778894
54	0xbdd343d6	-0.10315673
55	0x3ddf80db	0.10913249
56	0xbc6954f6	-0.014241448
57	0x3daddb66	0.084891126
58	0xbd9aee8f	-0.07565033
59	0x3daaf413	0.08347335
60	0xbc387093	-0.011257309
61	0x3daf7dc8	0.08568913
62	0xbcc207dd	-0.02368539
63	0xbd148b61	-0.036265735
64	0x3df687b7	0.12037604
65	0x3d8dde43	0.06927159
66	0xbdd34b81	-0.103171356
67	0x3cf39e1c	0.029738478
68	0x3deccecb	0.1156288
69	0x3dcad225	0.09903363
70	0xbddf01d1	-0.10889018
71	0xbd4f9bb9	-0.050685618
72	0xbda9acc9	-0.08284909
73	0xbdc047f8	-0.09388727
74	0x3d6136d2	0.05498392
75	0xbd8b1ef8	-0.06793016
76	0x3dc52ae8	0.09627324
77	0xbdb08b44	-0.08620313
78	0xbdc23bc9	-0.09484059
79	0xbd8b554b	-0.06803378
80	0xbdcff9d7	-0.10155075
81	0x3d8f2a00	0.06990433
82	0xbda59ca7	-0.0808652
83	0xbd9cbe4b	-0.07653483
84	0x3c1ed7ab	0.009694974
85	0xbdd84ccd	-0.105615236
86	0x3c9795ad	0.018503988
87	0x3da33a4c	0.079701036
88	0x3da3872a	0.07984765
89	0xbd10b7ce	-0.03533154
90	0xbbc5544b	-0.0060220114
91	0xbc8c9615	-0.017161408
92	0x3cd417fa	0.02589034
93	0x3e0f82a2	0.14014676
94	0xbc96c08a	-0.018402357
95	0xbd46ec4d	-0.048565198
96	0xbdc6a1b1	-0.09698809
97	0xbdc37ec8	-0.09545666
98	0x3d76b011	0.060226504
99	0xbd9ac36b	-0.07556804
100	0x3d23f9f5	0.0400333
101	0x3df8b3f4	0.12143698
102	0xbe014a16	-0.12625918
103	0x3d4d20ec	0.050080225
104	0x3c3ce163	0.011528346
105	0x3d294276	0.041323148
106	0x3d91a253	0.07111039
107	0x3d410057	0.047119465
108	0x3dbbea6e	0.09175573
109	0xbd6f55a5	-0.058431286
110	0x3d60f1a1	0.054917935
111	0xb92f5681	-0.00016721526
112	0xbcd4117b	-0.025887242
113	0xbc60626c	-0.013695341
114	0x3e035345	0.12824734
115	0x3c874a2c	0.01651486
116	0x3c92ddd9	0.01792805
117	0xbe013ae8	-0.12620127
118	0x3d8a8f45	0.06765608
119	0x3d89f4a0	0.06736112
120	0xbda15fa9	-0.07879574
121	0xbcdde73e	-0.027087804
122	0x3b838b87	0.0040144357
123	0xbc14063f	-0.009034692
124	0xbe04e363	-0.12977366
125	0xbd7a17a1	-0.06105769
126	0xbdc432df	-0.095800154
127	0xbd2c6914	-0.042092398
128	0x3cff24f8	0.031145558
129	0x3dc02d3a	0.09383626
130	0x3e04cc9c	0.12968677
131	0xbbe7baba	-0.00707182
132	0x3cba55af	0.022745935
133	0x3da6d404	0.081459075
134	0xbdc6ab57	-0.09700649
135	0x3e0b64bc	0.13612646
136	0x3c81350f	0.01577237
137	0xbcf12ed7	-0.02944128
138	0xbd37a445	-0.044834394
139	0x3d399075	0.04530378
140	0xbd7a4bab	-0.06110732
141	0x3d630b36	0.055430613
142	0xbdca3540	-0.09873438
143	0x3caa17b7	0.020763261
144	0xbe0881a0	-0.13330698
145	0xbc87b5bf	-0.016566155
146	0xbdf08ebd	-0.11745975
147	0x3c253f38	0.010085873
148	0xbd76c16b	-0.06024305
149	0x39f0d3f0	0.00045934273
150	0x3dd745e2	0.10511376
151	0x3d089bfe	0.03335189
152	0x3de1acd2	0.11019291
153	0x3c7a025c	0.015259352
154	0xbd630d0e	-0.05543237
155	0x3c032110	0.008003488
156	0xbdc45bdc	-0.09587833
157	0xbd16d376	-0.03682276
158	0x3d86ff7f	0.06591701
159	0x3d84f1d5	0.06491438
160	0xbcc0c819	-0.023532914
161	0xbe02672d	-0.12734671
162	0x3d80a233	0.06280937
163	0xbd48f303	-0.04905988
164	0xbc1b6b31	-0.009486006
165	0x3d7dbdce	0.06194859
166	0xbe025253	-0.12726717
167	0x3c1d8bd0	0.009615853
168	0x3cbc6502	0.022997383
169	0xbda37b48	-0.079824984
170	0x3da5583d	0.08073471
171	0xbdd33280	-0.103123665
172	0x3c69f68e	0.014279975
173	0x3dcb4afc	0.099264115
174	0xbc6688de	-0.014070718
175	0x3b831d68	0.004001308
176	0x3ce7ccc3	0.02829588
177	0xbd203c36	-0.03911992
178	0x3dee001f	0.11621117
179	0x3da56626	0.08076124
180	0xbd3081bf	-0.043092486
181	0x3bcd27a8	0.006260831
182	0x3cc6791e	0.024227675
183	0xbbbb69ea	-0.005719413
184	0xbd5fe20e	-0.054658942
185	0xbdf1cd66	-0.11806755
186	0xbc5fd10e	-0.013660682
187	0x3e03fe53	0.12889986
188	0x3d9a41ba	0.075320676
189	0xbde7c0de	-0.11316083
190	0x3d8ccb3d	0.06874702
191	0x3daec70f	0.08534061
192	0xbd2255c5	-0.039632577
193	0xbdfebab9	-0.12437958
194	0x3db43391	0.08798898
195	0x3d55d810	0.052208006
196	0xbd2d7edd	-0.042357314
197	0xbd9d1c34	-0.07671395
198	0x3d68af27	0.056807663
199	0xbd80e5ad	-0.06293807
200	0x3d0d2c26	0.03446593
201	0x3da42a00	0.08015823
202	0xbd904aaa	-0.07045491
203	0xbcf629ff	-0.030049322
204	0x3d70b013	0.058761667
205	0x3bf0fa57	0.0073540616
206	0x3dbfff45	0.09374861
207	0x3e12afe3	0.14324908
208	0x3bf6fc8f	0.0075374315
209	0x3d1ddae8	0.038538843
210	0xbba9f0d7	-0.005186181
211	0x3dc38999	0.09547729
212	0xbdb4b44e	-0.08823453
213	0xbd99c82c	-0.07508883
214	0xbd39d900	-0.045372963
215	0xbca2f6da	-0.019893099
216	0x3d8700b0	0.06591928
217	0xbd343774	-0.043998197
218	0x3c0df594	0.008664507
219	0xbdd9402d	-0.10607944
220	0x3d90e327	0.07074576
221	0xbd8c50bc	-0.06851336
222	0xbd6c05b1	-0.057622615
223	0xbc84d0e8	-0.016212896
224	0x3d7d53ad	0.061847378
225	0x3dccadb1	0.099940665
226	0xbd4ab8d3	-0.04949267
227	0xbdc5dad9	-0.096608825
228	0x3d35b8a2	0.044365533
229	0x3de0473a	0.109510854
230	0x3d76f655	0.060293514
231	0xbd70f83c	-0.058830485
232	0xbe034947	-0.12820922
233	0xbcb66bc9	-0.022268193
234	0x3d86fb44	0.06590894
235	0xbd880319	-0.06641216
236	0xbddf7bb8	-0.10912269
237	0xbcdd59d7	-0.027020378
238	0xbe013526	-0.12617931
239	0xbda39cca	-0.079888895
240	0xbdab376d	-0.08360181
241	0x3df0ee53	0.11764207
242	0xbcac92e2	-0.021066133
243	0x3ddc6b09	0.10762603
244	0x3dcd6a34	0.10030022
245	0xbd9ca906	-0.07649426
246	0x3dd820c9	0.10553128
247	0x3d5f1cdb	0.054470878
248	0xbdece8aa	-0.11567815
249	0x3d5325d7	0.05154976
250	0x3cf80179	0.03027414
251	0xbd4265bf	-0.047460314
252	0xbd0e6348	-0.03476265
253	0x3d7e578b	0.062095206
254	0x3be3a90d	0.0069476427
255	0x3ccea939	0.025227176

lstm.bias_ih_l0 f4 [256]
0	0x3c62a3f9	0.013833039
1	0xbd3549c1	-0.04425979
2	0x3dabf891	0.0839702
3	0xbd6c898d	-0.057748366
4	0x3d17be70	0.03704685
5	0xbd3b95e5	-0.045797247
6	0xbd60e66c	-0.054907247
7	0x3dc7d93b	0.0975823
8	0x3c39405d	0.011306849
9	0xbd443db1	-0.047910396
10	0x3d4def1a	0.050276853
11	0xbb8be8d4	-0.0042696986
12	0x3d0e5a2f	0.034753975
13	0xbd153707	-0.03642943
14	0x3d1dc60d	0.038518954
15	0xbd0ba72a	-0.034094967
16	0xbc917f79	-0.017760979
17	0xbdd10fc6	-0.10208087
18	0x3d93cb79	0.07216544
19	0xbde1b382	-0.110205665
20	0x3d48812a	0.048951305
21	0xbda6cfa3	-0.08145072
22	0x3cbe5831	0.023235412
23	0x3e025fba	0.1273183
24	0x3ca20022	0.019775454
25	0xbd74f585	-0.05980446
26	0x3d564389	0.0523105
27	0x3df23f44	0.11828473
28	0x3d8a04b5	0.06739179
29	0x3ca9e19f	0.020737467
30	0xbd7882fb	-0.060671788
31	0xbd3a1782	-0.045432575
32	0xbd051fa0	-0.032500863
33	0xbc6228e6	-0.013803696
34	0x3af9965e	0.0019042005
35	0xbdeb863f	-0.11500215
36	0xbdd0b995	-0.10191647
37	0xbdea6888	-0.11445719
38	0x3db31034	0.08743325
39	0x3e04877d	0.1294231
40	0x3d0d66d5	0.034521896
41	0x3d8629f0	0.06550968
42	0xbdd7e096	-0.10540883
43	0xbdb6a42b	-0.08918031
44	0x3b79110c	0.0038004545
45	0x3d82b164	0.06381491
46	0x3d14e04a	0.03634671
47	0xbd8e2fe6	-0.0694273
48	0x3c8a49a8	0.016880825
49	0xbcce62f6	-0.025193673
50	0x3cd642cb	0.026154896
51	0xbc01dcc9	-0.007926174
52	0x3b98ebae	0.004666767
53	0xbcac4804	-0.021030433
54	0x3d2aab6a	0.04166738
55	0xbdd19963	-0.10234334
56	0xbd587925	-0.052849907
57	0xbb19483e	-0.0023389007
58	0x3cfe83a0	0.031068623
59	0x3cf945f5	0.030428866
60	0x3d7ca8dd	0.061684478
61	0xbd993bf5	-0.07482139
62	0xbccbcc17	-0.024877591
63	0xbdd5664a	-0.10419901
64	0xbd9266c1	-0.07148505
65	0x3da795d6	0.08182876
66	0x3e0e3adb	0.13889639
67	0xbd668371	-0.056277696
68	0xbd5503d9	-0.052005623
69	0x3e005aa7	0.12534581
70	0x3df262cb	0.118352495
71	0x3de6f7e6	0.112777516
72	0x3dda1570	0.1064862
73	0x3df37074	0.11886683
74	0x3d07e889	0.033180747
75	0x3d95f9eb	0.07323059
76	0x3cf5012c	0.029907785
77	0x3c9cddd0	0.019148737
78	0xbd3cd671	-0.046102945
79	0xbd35fe47	-0.04443195
80	0xbd443ec1	-0.04791141
81	0xba55c21e	-0.0008154231
82	0x3de210be	0.110383496
83	0xbd625a47	-0.055261876
84	0x3dceda2e	0.10100208
85	0x3c888faf	0.016670076
86	0x3cdcae31	0.02693853
87	0x3d880f06	0.066434905
88	0x3cdc0356	0.02685706
89	0xbd94d938	-0.07267994
90	0x397acf11	0.00023918996
91	0x3dd1cbe2	0.10243966
92	0x3d93c424	0.07215145
93	0xbe04c27d	-0.12964816
94	0x3d864d05	0.06557659
95	0x3cb4d401	0.022073748
96	0x3c20857d	0.009797451
97	0x3dccf43c	0.100075215
98	0x3dc70cdf	0.09719252
99	0xbdeabc8e	-0.11461745
100	0xbad2f4b7	-0.0016094659
101	0xbdc61663	-0.09672239
102	0x3bda1228	0.0066549964
103	0xbd6e6f78	-0.058211774
104	0x3d77db70	0.060512006
105	0x3d64bbd8	0.055843204
106	0xbd3663fe	-0.044528954
107	0x3dc4d368	0.09610635
108	0xbc73717d	-0.014858601
109	0x3bff4df0	0.0077912733
110	0x3db12663	0.086499
111	0x3c3a76c7	0.011380858
112	0x3d43a390	0.047763407
113	0x3c4778a2	0.012174757
114	0x3d56dcd2	0.052456684
115	0x3dcc6757	0.09980648
116	0x3d7eddbf	0.062223192
117	0x3c916976	0.017750483
118	0x3d89cdce	0.06728707
119	0xbd6b40e8	-0.057434946
120	0x3de96c91	0.113976605
121	0xbdb386b9	-0.08765931
122	0xbd423e36	-0.04742261
123	0x3be8b4da	0.0071016373
124	0xbd5c7a3b	-0.053827506
125	0x3c1c8940	0.009554207
126	0x3d508ed1	0.05091745
127	0x3dea95cc	0.11454353
128	0x3c419f57	0.011817775
129	0x3df8e909	0.12153823
130	0x3cd71570	0.02625534
131	0x3dcc03d1	0.099616654
132	0xbc4e5102	-0.012592556
133	0x3d81fc42	0.063469425
134	0x3dc178dc	0.0944688
135	0x3da55276	0.08072369
136	0x3c4198de	0.0118162315
137	0x3dbf8dc4	0.093532115
138	0x3b50e07e	0.003187209
139	0x3cc144f0	0.023592442
140	0x3db1ee0c	0.08687982
141	0xbdeea023	-0.116516374
142	0xbdc4ed92	-0.096156254
143	0xbe113124	-0.14178902
144	0x3c16b721	0.009198935
145	0xbe1b5875	-0.15170462
146	0xbda59cee	-0.080865726
147	0x3dc02b2a	0.09383233
148	0xbd452cf1	-0.048138563
149	0x3d5aff0c	0.053465888
150	0xbd1828b4	-0.037148193
151	0x3c7fccfb	0.015612836
152	0x3d8f5049	0.06997735
153	0xbde9bd55	-0.11413065
154	0x3bb8497e	0.0056239953
155	0x3d896d87	0.06710344
156	0xbbcba730	-0.0062149987
157	0xbc6df0a8	-0.014522709
158	0x3db7b892	0.08970751
159	0x3d558f98	0.052138895
160	0x3cba1c17	0.022718472
161	0xbd9995d7	-0.07499283
162	0xbe016117	-0.12634693
163	0xbe00788a	-0.12545982
164	0x3d2eb64c	0.04265432
165	0x3dbd1c98	0.092339694
166	0xbdb3f492	-0.087868825
167	0x3c85f3c0	0.01635158
168	0xbdd8d9f3	-0.105884455
169	0xbc1d8de9	-0.009616354
170	0x3e00addc	0.12566322
171	0xbddfec11	-0.10933698
172	0xbdeb5528	-0.11490852
173	0x3da561f0	0.08075321
174	0xbd5ea3f6	-0.054355584
175	0x3d18415b	0.037171703
176	0xbdcd6b29	-0.10030205
177	0xbc89c512	-0.016817603
178	0x3ddc036e	0.10742842
179	0xbbb58cb5	-0.005540455
180	0x3c0d17f0	0.008611664
181	0x3dcd15aa	0.10013898
182	0xbd950885	-0.072770156
183	0xbddb7b39	-0.10716862
184	0xbdab31f0	-0.08359134
185	0xbdbb9513	-0.09159293
186	0x3dba8f29	0.09109337
187	0xbcb9d2d7	-0.022683544
188	0xbd6f85e4	-0.058477297
189	0x3d4f6555	0.050633747
190	0xbd802a1c	-0.06258032
191	0x3de24a3e	0.11049317
192	0xbdb8a603	-0.09016039
193	0xbd8e72bd	-0.06955478
194	0xbd92a8c4	-0.07161096
195	0x3df6aac4	0.1204429
196	0x3d88c7fd	0.0667877
197	0xbc85511c	-0.016274028
198	0xbbf933d8	-0.007605057
199	0x3d835bec	0.06414017
200	0xbc5c6615	-0.013452073
201	0x3d856702	0.06513788
202	0x3b928a35	0.004472042
203	0xbbd4b846	-0.0064916937
204	0x3d8bc19c	0.068240374
205	0x3d7186e5	0.058966536
206	0xbb222430	-0.0024740808
207	0xbdd6cb8c	-0.10488042
208	0xbcd341f6	-0.025788289
209	0x3de73b85	0.11290649
210	0xbd8636b9	-0.06553406
211	0x3dc318ef	0.0952624
212	0xbd07ff2e	-0.033202343
213	0xbd5cc5dc	-0.05389963
214	0x3d8b61d1	0.068057664
215	0x3e01e220	0.12683916
216	0x3d6952c3	0.056963693
217	0x3dd72a21	0.10506082
218	0xbdcfa61f	-0.10139107
219	0x3dabc318	0.083868206
220	0xbde77efb	-0.113035165
221	0x3dcb0dc0	0.09914732
222	0xbb0b3647	-0.0021242069
223	0x3d782e2b	0.060590904
224	0xbd408764	-0.04700412
225	0x3df5d152	0.12002815
226	0xbd89deb0	-0.067319274
227	0x3d21e478	0.039524525
228	0x3d2610fc	0.04054354
229	0x3cc9613f	0.024582503
230	0x3bbd536f	0.0057777683
231	0x3e004a3a	0.12528315
232	0x3df13667	0.117779545
233	0xbcdc3ebd	-0.026885385
234	0xbdacfec3	-0.084470294
235	0xbd444206	-0.047914527
236	0xbcaee447	-0.021349085
237	0xbd98d73e	-0.07462929
238	0x3de77a97	0.11302679
239	0x3dad6603	0.08466723
240	0xbd446cb5	-0.047955234
241	0xbd85042a	-0.06494935
242	0xbcacaba3	-0.021077937
243	0xbd122be2	-0.03568638
244	0xbcfbd96f	-0.030743329
245	0x3c00f351	0.007870511
246	0x3dd50e7d	0.10403154
247	0x3da33050	0.07968199
248	0x3cf948e5	0.030430267
249	0x3dc8e3a4	0.09809044
250	0x3d981188	0.07425219
251	0xbdcbda0a	-0.09953697
252	0x3e0c518f	0.13702987
253	0xbd962031	-0.07330359
254	0xbdd786b9	-0.10523743
255	0x3dbba93a	0.09163137

lstm.bias_hh_l0 f4 [256]
0	0x3de93019	0.11386127
1	0xbdbdd568	-0.0926922
2	0x3d000838	0.031257838
3	0x3c936f10	0.017997295
4	0xbd9118a3	-0.07084777
5	0xbdd60856	-0.10450809
6	0x3de1fece	0.11034928
7	0x3dee1404	0.116249114
8	0xbd475ce1	-0.04867256
9	0x3e01a686	0.1266118
10	0xbdf69847	-0.12040763
11	0x3de29405	0.11063389
12	0xbd55f59f	-0.052236196
13	0xbdc053f8	-0.09391016
14	0x3d493add	0.049128402
15	0x3cc0df04	0.023543842
16	0x3bc8f113	0.006132254
17	0xbd339bb6	-0.04384967
18	0xbbb91b05	-0.005648973
19	0xbdfbfc99	-0.123040386
20	0x3da384eb	0.079843365
21	0x3cf141b1	0.02945027
22	0x3de094c9	0.109658785
23	0x3d9cac0c	0.07650003
24	0x3cb3fd02	0.02197123
25	0xbd81a090	-0.06329453
26	0xbc21d834	-0.009878207
27	0x3dfc6850	0.123245835
28	0x3dd0f361	0.10202671
29	0xbd26d33c	-0.040728793
30	0x3c22c3f2	0.009934412
31	0xbda2b400	-0.079444885
32	0x3d3bd2b4	0.04585524
33	0x3c6eb4f8	0.0145695135
34	0xbdd08355	-0.101812996
35	0x3ccf333e	0.025292989
36	0xbc6a81f6	-0.014313212
37	0x3d0dce86	0.034620784
38	0x3def1cff	0.116754524
39	0x3d19e732	0.037574
40	0xbdb167e2	-0.08662392
41	0x3d904b44	0.07045606
42	0xbdf6d44c	-0.12052211
43	0x3dab0b95	0.083518185
44	0x3caa2241	0.020768287
45	0x3d69545b	0.056965213
46	0xbd847853	-0.064682625
47	0xbc5f8b93	-0.013644117
48	0x3d6be136	0.057587825
49	0xbe08d87a	-0.1336383
50	0x3da4fba9	0.08055813
51	0x3dd86ac4	0.10567239
52	0x3cbf0faf	0.023322908
53	0x3e05a5a1	0.13051464
54	0x3d7665cc	0.060155675
55	0xbd4ea95e	-0.05045449
56	0xbc856f95	-0.016288558
57	0x3de6bc68	0.112664044
58	0x3c493f98	0.012283228
59	0xbdc73b17	-0.09728067
60	0x3d031956	0.032006584
61	0xbba7c4e9	-0.005119909
62	0x3c9aaa7a	0.018880118
63	0xbd3a23b6	-0.045444213
64	0xbd06dcdb	-0.032925468
65	0xba420579	-0.0007401328
66	0xbddb76b7	-0.107160024
67	0x3e03a5f0	0.12856269
68	0xbda6dd37	-0.08147662
69	0x3dcb49b6	0.099261686
70	0xbb36208c	-0.0027790396
71	0x3c0afc6f	0.008483036
72	0x3df00c80	0.11721134
73	0x3dfb2a03	0.122638725
74	0x3d677de6	0.05651655
75	0x3d8e33b6	0.06943457
76	0x3e0a2998	0.1349243
77	0xbdb3be39	-0.087765165
78	0x3deda517	0.11603754
79	0xbdde1e95	-0.10845677
80	0xbbe0a873	-0.006856018
81	0x3e002f57	0.12518059
82	0xbae52f55	-0.001748542
83	0x3d66dc60	0.05636251
84	0x3d950126	0.0727561
85	0x3e1e1fea	0.15441862
86	0x3db6e7f3	0.089309596
87	0x3dd7eac5	0.105428256
88	0x3d3dcedf	0.046339866
89	0x3dde1e88	0.10845667
90	0xbceaad02	-0.02864695
91	0x3deac2c6	0.11462931
92	0xbccb7971	-0.024838181
93	0xbde90029	-0.11376984
94	0xbcacd26a	-0.021096427
95	0xbdd5e760	-0.10444522
96	0x3dd4da35	0.10393182
97	0xbcc46078	-0.023971781
98	0x3d9a4f15	0.07534615
99	0x3c35db18	0.011099599
100	0xbdd7af29	-0.10531456
101	0xbce9860d	-0.028506303
102	0xbdc67a49	-0.09691293
103	0x3da3e658	0.08002919
104	0x39869496	0.00025669177
105	0x3def9400	0.11698151
106	0x3c626748	0.0138185695
107	0xbdb1fc76	-0.08690731
108	0x3c7c3d8f	0.015395536
109	0x3ddb455d	0.10706589
110	0xbd092adc	-0.03348814
111	0x3e0c3d8b	0.13695352
112	0x3cd5e878	0.026111826
113	0xbd87de1d	-0.066341616
114	0x3e0808ea	0.1328465
115	0xbd6c2ac4	-0.057657972
116	0x3d1d29a2	0.038369782
117	0x3d9f284c	0.07771358
118	0x3dd23651	0.10264266
119	0xbd540f28	-0.051772267
120	0x3c9cf04f	0.019157557
121	0xbcab6946	-0.020924222
122	0xbd7b5900	-0.061364174
123	0xbd1b812d	-0.03796499
124	0x3e0dc851	0.13845946
125	0x3d4e03fa	0.05029676
126	0x3dc64ac4	0.09682229
127	0x3d7e5cb0	0.062100112
128	0xbc789beb	-0.0151738925
129	0xb9fec4d2	-0.00048593298
130	0xbcf2c771	-0.029636117
131	0xbcf2e4a7	-0.029650046
132	0xbccf989e	-0.025341328
133	0x3d45ae9e	0.04826223
134	0x3b2fba7b	0.0026814032
135	0x3cd761a2	0.026291672
136	0xbdcbfe38	-0.09960598
137	0x3df11c1c	0.117729396
138	0x3df3a348	0.11896378
139	0xbcc82e6a	-0.024436194
140	0xbd1c3c9a	-0.03814373
141	0xbd296041	-0.04135156
142	0x3d09cdba	0.03364346
143	0x3dc6a48d	0.09699354
144	0xbd824eef	-0.06362712
145	0x3dbb2825	0.09138516
146	0x3d0fe578	0.035130948
147	0xbe046241	-0.12928106
148	0xbc9ca5a8	-0.01912196
149	0x3d9bd56d	0.07609067
150	0xbd3bafe7	-0.04582205
151	0x3dcef669	0.10105593
152	0xbb69eb8c	-0.0035693375
153	0x3d975fbb	0.07391306
154	0xbd546c0c	-0.051860854
155	0x3de7a155	0.113100685
156	0x3de247fd	0.11048887
157	0x3d8263cf	0.06366693
158	0xbc583755	-0.013196786
159	0x3d29419a	0.04132233
160	0x3d547553	0.0518697
161	0x3c5eec3c	0.013606127
162	0xbc8ed348	-0.017434731
163	0x3daa9646	0.08329444
164	0x3dc6e74c	0.09712085
165	0x3def835e	0.11694978
166	0x3d5f2699	0.05448017
167	0xbdb0c11d	-0.086305834
168	0x3cfeadf2	0.031088803
169	0xbe120d0d	-0.14262791
170	0x3e0a62d2	0.1351426
171	0xbdd9188b	-0.10600384
172	0xbdca2d6e	-0.09871946
173	0x3daad5b6	0.083415434
174	0xbce264f9	-0.027636038
175	0x3d438d3b	0.04774211
176	0x3ddc8da1	0.10769201
177	0xbd9fcb67	-0.07802468
178	0xbd68798c	-0.05675654
179	0xbd664a65	-0.056223292
180	0xbce1b94c	-0.027554177
181	0xbd0bd13c	-0.03413509
182	0xbdab2483	-0.083565734
183	0x3d652c26	0.055950306
184	0xbdfa3dfe	-0.12218855
185	0xbdd0d7d9	-0.1019742
186	0x3ca93270	0.020653933
187	0x3de42c0e	0.11141215
188	0xbd74ba42	-0.05974794
189	0x3d94c3cc	0.07263908
190	0xbd78cfc5	-0.06074502
191	0xbd7ba3ba	-0.06143544
192	0xbd2a2d42	-0.041547067
193	0x3da6fc00	0.08153534
194	0x3dbf2a90	0.0933429
195	0x3d388b35	0.045054633
196	0x3db027ed	0.08601365
197	0xbd2cf6cc	-0.04222755
198	0xbcab50d0	-0.020912558
199	0xbd91da24	-0.07121685
200	0x3d472e25	0.04862799
201	0xbd93330c	-0.07187471
202	0xbd6615c8	-0.056173116
203	0xbb1163d2	-0.0022184742
204	0xbdbe72fb	-0.092992745
205	0xbc97b9bd	-0.018521184
206	0xbd9dc6fc	-0.07703969
207	0xbc855eff	-0.01628065
208	0x3de9749d	0.11399195
209	0x3daec74b	0.08534106
210	0xbd88723c	-0.066624135
211	0x3e1130e9	0.14178814
212	0x3dc62617	0.09675234
213	0x3e034290	0.1281836
214	0xbde40a91	-0.11134828
215	0x3cf15946	0.029461514
216	0x3da505e4	0.08057764
217	0xbb132edd	-0.0022458353
218	0xbd15cd5f	-0.03657281
219	0xbdc39ddc	-0.09551594
220	0xbd8baae9	-0.06819708
221	0x3dad576a	0.084639385
222	0xbc4da184	-0.012550715
223	0xbcedd25f	-0.029030977
224	0x3e0ce01d	0.13757367
225	0xbd4bf53c	-0.04979442
226	0x3df48613	0.11939635
227	0xbd607cd0	-0.05480653
228	0x3d22706c	0.039657995
229	0x3de9337e	0.113867745
230	0xbc6f4676	-0.014604202
231	0x3c9a01a3	0.018799609
232	0xbd4d9dcc	-0.050199315
233	0x3df0b8aa	0.11753972
234	0x3dac236d	0.084051944
235	0x3d71da4e	0.059046082
236	0xbda0793f	-0.07835626
237	0xbc305068	-0.010761358
238	0xbdb721dd	-0.08942006
239	0xbdcc4285	-0.09973625
240	0x3ca18146	0.019714963
241	0xbde6175d	-0.11234925
242	0x3cb723a6	0.022355866
243	0xbdc287b3	-0.09498539
244	0xbd6b95fc	-0.057516083
245	0x3cee27aa	0.029071648
246	0x3d6c7afe	0.057734482
247	0xbcfa6b69	-0.030568795
248	0x3d3c6c92	0.04600198
249	0xbdc371ae	-0.09543167
250	0x3df1bd6f	0.1180371
251	0x3ca908b6	0.020634037
252	0xbd82b762	-0.06382634
253	0xbc7519bd	-0.01495975
254	0x3cedcd95	0.029028693
255	0xbd4b980f	-0.04970556

lstm.weight_ih_l0_reverse f4 [256, 32]
0	0xbd1b4d9c	-0.03791581
1	0x3dd3c370	0.10340011
2	0xbe0a553b	-0.13509075
3	0xbda6792a	-0.08128579
4	0xbd5aa8e1	-0.05338371
5	0xbde5efb4	-0.1122736
6	0xbd160c8c	-0.03663306
7	0x3d8552f1	0.065099604
8	0xbd19064f	-0.037359532
9	0x3dd19884	0.10234168
10	0xbc9a867b	-0.018862953
11	0x3be14002	0.0068740854
12	0xbdd27bda	-0.10277529
13	0xbd80dfc9	-0.06292684
14	0x3d0a2d03	0.033734333
15	0x3d700540	0.058598757
16	0x3c5a7e33	0.013335752
17	0x3c33a8ef	0.01096557
18	0x3dd5ff7d	0.10449121
19	0xbd9e7dd5	-0.07738844
20	0xbdcd7f62	-0.10034062
21	0xbdead612	-0.11466612
22	0x3ccddef1	0.02513072
23	0x3d10d601	0.03536034
24	0x3a73dbcb	0.0009302466
25	0x3e061949	0.13095583
26	0x3db3921f	0.08768105
27	0xbc38c2ff	-0.011276959
28	0xbda04492	-0.07825579
29	0x3d8d7e7f	0.06908893
30	0x3cb2fa10	0.021847755
31	0x3d0840fc	0.0332651
32	0xbd007250	-0.031359017
33	0x3d87928d	0.06619749
34	0xbdf37b92	-0.118888035
35	0xbca1e081	-0.019760372
36	0xbc2db84a	-0.01060302
37	0xbda34f53	-0.07974114
38	0x3dcd4194	0.10022274
39	0xbdd06f2d	-0.10177455
40	0x3cc94585	0.024569282
41	0xba4ee67d	-0.0007892622
42	0xbdf6fdfc	-0.120601624
43	0x3dc1f99f	0.094714396
44	0x3cc06fef	0.023490874
45	0xbdcd197a	-0.10014625
46	0x3e0ca217	0.13733707
47	0x3c9d3a9b	0.019192984
48	0x3dc9305d	0.09823678
49	0x3d9f81d3	0.07788434
50	0xbc3585be	-0.01107925
51	0x3d0ca67b	0.034338456
52	0xbd91d45c	-0.071205825
53	0x3df1aa6c	0.118000835
54	0xbd228015	-0.03967293
55	0xbc6af27d	-0.01434004
56	0xbde7ebc0	-0.113242626
57	0xbdf1e1bd	-0.11810634
58	0x3c80caef	0.015721766
59	0xbc9ff993	-0.019528186
60	0x3ca0106e	0.019539084
61	0x3dda4e25	0.10659436
62	0xbcd4cc00	-0.025976181
63	0x3cd50e1a	0.0260077
64	0x3d55bdbe	0.052182905
65	0x3d9b5fd1	0.07586635
66	0xbb7fe9f8	-0.0039049368
67	0xbda19c85	-0.07891182
68	0xbd4093ea	-0.04701606
69	0xbde69f74	-0.11260882
70	0xbbde61ed	-0.006786576
71	0x3ddf88e3	0.10914781
72	0x3d65ca01	0.05610085
73	0xbd057653	-0.032583546
74	0xbdf52598	-0.11970061
75	0xbd467a40	-0.04845643
76	0x3d67515a	0.056474067
77	0xbc2774bc	-0.010220703
78	0xbe1becd5	-0.15227063
79	0xbdcca6a1	-0.099927194
80	0xbc0d2515	-0.008614798
81	0x3d7e9851	0.06215698
82	0xbce6b652	-0.028163109
83	0x3bec4e48	0.0072114803
84	0xbd7dea77	-0.06199118
85	0xbd974903	-0.07386973
86	0x3ca41282	0.020028356
87	0xbe0ae2f2	-0.13563135
88	0xbc9a4a44	-0.01883424
89	0xbd094d07	-0.033520725
90	0x3dd22018	0.10260028
91	0xbdefd8e3	-0.1171129
92	0x3b78cf06	0.0037965192
93	0x3dcee774	0.1010274
94	0x3d4556ba	0.048178412
95	0xbd064d8b	-0.032788794
96	0x3d949b46	0.072561786
97	0x3da9712a	0.082735375
98	0xbd7bd33f	-0.061480757
99	0x3c6be5d7	0.01439806
100	0xbdedfa36	-0.116199896
101	0x3dc67ecf	0.096921556
102	0xbd99b654	-0.075054795
103	0xbd329a2c	-0.04360406
104	0xbc944d85	-0.01810337
105	0xbd152704	-0.03641416
106	0xbaa30081	-0.0012436063
107	0xbc7d6966	-0.0154670235
108	0x3ced3f3e	0.02896082
109	0xbe2783c6	-0.16358861
110	0xbd95ead6	-0.07320182
111	0xbcd889e8	-0.026432946
112	0x3bf95161	0.007608578
113	0x3dd9ccea	0.106347874
114	0x3e0ad1b6	0.13556561
115	0xbddbeea9	-0.1073888
116	0x3d4447fb	0.04792021
117	0xbbf91f98	-0.007602643
118	0xbd0f7aa5	-0.035029072
119	0xbd634dee	-0.05549424
120	0xbdd9ec4f	-0.106407754
121	0xbcee634b	-0.029100081
122	0x3dbe06a0	0.09278607
123	0x3e03d7dc	0.12875313
124	0xbd372a45	-0.044718046
125	0x3df7df82	0.121031776
126	0x3da3086c	0.07960591
127	0xbc0b1baf	-0.008490487
128	0x3d96c6be	0.07362126
129	0x3d676c62	0.056499846
130	0xbbcc7226	-0.0062391935
131	0x3e0267b1	0.12734868
132	0xbda5d423	-0.080971025
133	0x3d92f68d	0.07175932
134	0xbd80f133	-0.06296005
135	0x3d13655c	0.035985336
136	0x3cbb851f	0.022890626
137	0xbd33c971	-0.04389328
138	0x3bfe43a6	0.007759529
139	0xbda9c97c	-0.08290383
140	0x3d9aa41a	0.07550831
141	0x3bc97bf1	0.006148808
142	0xbd59f512	-0.053212233
143	0x3d53a311	0.051669184
144	0x3a84bdb1	0.0010127333
145	0xbd865048	-0.06558281
146	0xbc69319f	-0.014233022
147	0x3d90d9ed	0.07072816
148	0x3de96ca6	0.11397676
149	0x3d257470	0.040394247
150	0xbd0fee87	-0.035139587
151	0xbdc048dc	-0.09388897
152	0x3d5b7db3	0.053586673
153	0x3da594b9	0.08085007
154	0xbcdc63a3	-0.02690298
155	0x3d546c19	0.051860902
156	0xbd4f05f3	-0.050542783
157	0x3df2f9e0	0.11864066
158	0x3dc37667	0.09544068
159	0xbdbc8231	-0.092045195
160	0x3dff15dc	0.12455341
161	0x3d921e61	0.071347006
162	0xbdfae558	-0.12250775
163	0x3d173f24	0.03692545
164	0x3b8d367a	0.0043094726
165	0xbdaf7902	-0.08568002
166	0x3de550a2	0.1119702
167	0x3d513ec8	0.051085263
168	0x3d541f9f	0.05178797
169	0xbe01cb44	-0.12675196
170	0x3d6021c5	0.054719705
171	0x3dcc812d	0.09985576
172	0xbdad109f	-0.08450436
173	0xbcec929f	-0.028878508
174	0xbddd9f85	-0.108214416
175	0xbd98fc42	-0.07469989
176	0xbd4a987c	-0.049461827
177	0x3db7cf72	0.08975114
178	0x3ccf79e2	0.025326673
179	0xbdce2e41	-0.10067416
180	0x3be6b4c9	0.0070405942
181	0x3d0e1420	0.03468716
182	0x3d608210	0.054811537
183	0xbd265105	-0.04060461
184	0xbdd9983a	-0.10624738
185	0xbd1f0e42	-0.038831957
186	0x3cd0e4d5	0.02549974
187	0x3c044b56	0.008074602
188	0xbd5e074c	-0.054206178
189	0x3dd4a4a0	0.10382962
190	0xbda4fd7d	-0.080561616
191	0xbdb95f85	-0.09051422
192	0x3d1bbb3b	0.038020354
193	0x3d8c72cb	0.068578325
194	0xbd9f6edc	-0.077848166
195	0x3d08c8dc	0.03339468
196	0x3dadfb64	0.084952146
197	0xbd9b4bf0	-0.07582843
198	0x3ddc8a84	0.10768607
199	0x3ccbc0ea	0.024872262
200	0xbd9c7814	-0.076400906
201	0xbd8faf87	-0.07015901
202	0xbddea5d0	-0.1087147
203	0x3de53b97	0.111930065
204	0xbd1f79d9	-0.038934562
205	0xbd4bafc9	-0.04972819
206	0x3d2408a4	0.040047303
207	0x3df7a498	0.12091941
208	0xbdd6e658	-0.10493153
209	0xbd89f1ae	-0.0673555
210	0xbd0b53e0	-0.034015536
211	0xbd2ff15e	-0.042954795
212	0x3d358d11	0.044323985
213	0x3df83f76	0.12121479
214	0xbe11d41c	-0.1424107
215	0x3daaad6e	0.0833386
216	0xbdfc871f	-0.1233046
217	0x3d194a56	0.037424408
218	0xbdeda424	-0.11603573
219	0x3a63be1e	0.00086876925
220	0xbe15a4f5	-0.14613707
221	0xbcf259f9	-0.029583918
222	0x3d471698	0.04860553
223	0xbd68d644	-0.056844965
224	0x3cb14136	0.02163754
225	0xbdc1e9e2	-0.09468438
226	0xbdb7c120	-0.089723825
227	0x3defe8e1	0.1171434
228	0x3c701cd4	0.014655311
229	0x3be2b87b	0.0069189644
230	0x3e01098a	0.12601295
231	0xbd91b919	-0.07115383
232	0xbdfec5c6	-0.12440066
233	0xbd5627af	-0.05228394
234	0x3da27c21	0.07933832
235	0xbdd70920	-0.10499787
236	0xbdf2f0f0	-0.118623614
237	0xbd892c0e	-0.06697856
238	0xbd47f0cd	-0.04881363
239	0x3ddf4c2c	0.109032005
240	0xbdf1d3ff	-0.11808013
241	0xbddff8cb	-0.10936125
242	0xbdd8bbfc	-0.1058273
243	0xbd62549b	-0.055256467
244	0x3d5e6c21	0.05430234
245	0xbc9d1256	-0.019173782
246	0x3c250fbf	0.010074555
247	0xbc8d2482	-0.017229322
248	0x3d4a4ff6	0.049392663
249	0x3d8a86c1	0.067639835
250	0x3daf3357	0.08554714
251	0xbbb31ad5	-0.005465845
252	0x3db2d554	0.08732095
253	0xbdb9b8f4	-0.0906848
254	0x3dd9efd5	0.106414475
255	0xbda13e54	-0.07873216

lstm.weight_hh_l0_reverse f4 [256, 64]
0	0x3db9eced	0.09078393
1	0xbdbf0b9e	-0.09328388
2	0x3d9c8b84	0.07643798
3	0x3cb376be	0.021907207
4	0x3cd10e8a	0.025519628
5	0x3d186867	0.03720894
6	0x3cff7c4a	0.031187195
7	0x3dd5ae37	0.104336195
8	0x3a7d7a44	0.0009669403
9	0xbcd96bd3	-0.026540672
10	0x3dfb602c	0.12274203
11	0x3c74d1d1	0.014942602
12	0x3e158d43	0.14604668
13	0xbd93d7a9	-0.07218868
14	0xbc915fb8	-0.017745838
15	0xbd1e117a	-0.038590886
16	0xbe03a2e6	-0.1285511
17	0x3ca7be6d	0.020476544
18	0x3dc34e11	0.09536374
19	0x3e043b9b	0.12913363
20	0xbdc4217c	-0.09576699
21	0xbddc0651	-0.10743392
22	0x3e0ed75c	0.1394934
23	0x3cb43646	0.021998536
24	0xbd315254	-0.043291405
25	0x3c15896a	0.009127
26	0x3d62d1fe	0.055376045
27	0x3dbf6e72	0.09347238
28	0x3d7f0d75	0.062268693
29	0x3d24d191	0.04023892
30	0xbd0916dd	-0.03346907
31	0x3d069662	0.03285826
32	0xbda7a538	-0.0818581
33	0x3b9d78ab	0.0048056445
34	0x3e0c6216	0.13709292
35	0x3c956618	0.018237159
36	0xbe19a189	-0.15003027
37	0xbdaed7f7	-0.08537286
38	0xbdfd1593	-0.123576306
39	0xbd7093dd	-0.058734763
40	0x3d69e0cf	0.05709916
41	0xbd2d1532	-0.04225654
42	0x3ba93f13	0.0051649897
43	0xbdfd4a76	-0.12367718
44	0xbd8cfcf9	-0.06884188
45	0xbdd56a6d	-0.1042069
46	0xbdc7ccbf	-0.09755849
47	0x3b996102	0.0046807537
48	0x3cba3bc9	0.022733586
49	0xbd856b42	-0.065145984
50	0xbc98ea0f	-0.018666295
51	0x3daaee14	0.08346191
52	0x3dca3c69	0.098748036
53	0x3ca4eb8a	0.020131845
54	0x3e0604b5	0.13087733
55	0x3d29fa57	0.04149851
56	0x3c42371c	0.011853959
57	0x3c62245a	0.013802612
58	0x3d594a3a	0.053049304
59	0xbc1565fa	-0.009118551
60	0xbdcc2f44	-0.09969953
61	0x3ddd6a98	0.10811347
62	0xbd7f85e6	-0.062383555
63	0xba9dfce9	-0.0012053523
64	0x3d04dd30	0.032437503
65	0xbd8e5619	-0.069500156
66	0xbd87e790	-0.06635964
67	0x3ca3a311	0.019975217
68	0x3d75e8d6	0.060036503
69	0x3afbff05	0.0019225782
70	0xbd9ac154	-0.07556406
71	0x3c7b5578	0.015340202
72	0xbad73205	-0.0016418105
73	0xbd15f454	-0.036609963
74	0x3e050249	0.12989153
75	0xbd44ba64	-0.04802932
76	0xbdc6612f	-0.09686505
77	0xbd142f91	-0.036178175
78	0xbdb3db6b	-0.08782085
79	0x3df5bc92	0.119988576
80	0x3c81b292	0.01583222
81	0xbddc4ca3	-0.10756805
82	0x3d93499a	0.07191773
83	0xbda56ad8	-0.080770195
84	0x3dc869b3	0.097857855
85	0x3d67a182	0.05655051
86	0x3da6ee33	0.08150902
87	0x3dd7f517	0.10544794
88	0xbdce3ce2	-0.10070206
89	0x3d073e2e	0.033018284
90	0x3df7faa2	0.12108351
91	0x3d9b84a7	0.07593661
92	0xbd99ce3e	-0.07510041
93	0xbd99869a	-0.07496376
94	0xbdbe4fba	-0.092925504
95	0x3cb57c6e	0.02215406
96	0x3d7345e5	0.05939283
97	0x3d3bab19	0.04581747
98	0xbd718d76	-0.0589728
99	0x3defd23b	0.1171002
100	0xbde59aa3	-0.11211135
101	0x3ddeaa7f	0.10872363
102	0xbd9a045a	-0.07520361
103	0x3de0133e	0.1094117
104	0x3d207c32	0.039180942
105	0x3d6a2205	0.05716135
106	0xbded7cc9	-0.115960665
107	0x3c51b5f2	0.012799727
108	0x3d91fa50	0.071278214
109	0x3dc99420	0.09842706
110	0xbd2e6ec7	-0.042586114
111	0xbd2aee82	-0.041731365
112	0xbcc239ed	-0.023709262
113	0xbd6b3e6e	-0.057432584
114	0xbd86dcd7	-0.065850906
115	0xbd8f7e33	-0.070064925
116	0xbdd6a9da	-0.10481615
117	0x3c917383	0.017755276
118	0x3d7f97de	0.06240069
119	0x3c3cc197	0.011520765
120	0xbd206dc7	-0.03916719
121	0xbd427f4b	-0.047484677
122	0x3d74dfbb	0.05978368
123	0xbd65c84d	-0.056099225
124	0x3d246084	0.040131107
125	0x3d186317	0.037203874
126	0xbaf9f7fe	-0.00190711
127	0x3de123c1	0.10993148
128	0x3bb7293f	0.0055896337
129	0xbd6d31c7	-0.0579088
130	0xbdd40e0a	-0.1035424
131	0x3db5c52f	0.088755004
132	0x3e0a2102	0.13489154
133	0x3cd5764c	0.026057385
134	0xbcd5dfd3	-0.026107704
135	0xbdcd6d4a	-0.10030611
136	0xbddc5a1b	-0.10759374
137	0x3da023d0	0.07819331
138	0x3cc6f5bf	0.024287103
139	0x3c9521cf	0.018204598
140	0xbd02fb32	-0.03197784
141	0xbe2a0177	-0.16602121
142	0xbd807b23	-0.062734865
143	0x3d89eacf	0.06734239
144	0xbdd49a1c	-0.103809565
145	0x3d0bddf1	0.034147207
146	0x3ddfd91d	0.10930083
147	0x3c4f8075	0.012664904
148	0xbc9fdb1b	-0.019513657
149	0xbe0c7ca4	-0.13719422
150	0xbd0dc368	-0.034610182
151	0xbdcb804e	-0.099365816
152	0xbd1e43d9	-0.038638923
153	0xbd0a9b4d	-0.033839513
154	0x3d7c6f0f	0.06162935
155	0x3d0f2ca9	0.0349547
156	0xbda56b55	-0.080771126
157	0x3d5432e0	0.05180633
158	0xbe134122	-0.14380315
159	0xbdfd9ba2	-0.123832
160	0xbc92f1a0	-0.017937481
161	0xbde27b9e	-0.11058734
162	0x3c3e4a5a	0.0116144065
163	0x3dfd9ba8	0.12383205
164	0xbd13ee75	-0.036116082
165	0x3d793d4a	0.060849465
166	0xbdc2f807	-0.09519964
167	0x3dd50f93	0.10403361
168	0x3dcfc37f	0.1014471
169	0xbd295357	-0.041339245
170	0xbd350e2b	-0.044202965
171	0xbe1966c2	-0.14980605
172	0x3d22658d	0.039647628
173	0x3cc73c39	0.024320709
174	0xbd5e9dbf	-0.054349657
175	0x3e0c90f6	0.13727173
176	0xbd35a2e5	-0.0443448
177	0xbdde4f47	-0.10854965
178	0x3d8b0361	0.06787754
179	0xbd22beee	-0.039732866
180	0x3de028d2	0.10945286
181	0x3d266dfa	0.040632226
182	0x3d742243	0.059602987
183	0x3da9a96b	0.08284267
184	0xbdc01aba	-0.09380098
185	0x3d8dd2e0	0.06924987
186	0xbd840c01	-0.06447602
187	0xbc4b5d92	-0.012412446
188	0x3e062e85	0.13103683
189	0x3d72ecad	0.059307743
190	0xbd93bdc1	-0.07213927
191	0x3bce8e1f	0.0063035632
192	0x3ce28f55	0.027656237
193	0xbbe9960b	-0.007128482
194	0xbcf95c6b	-0.030439576
195	0x3c609f67	0.0137098795
196	0x3e03828a	0.12842765
197	0xbd12a5e9	-0.035802756
198	0x3d0af7bc	0.033927664
199	0xbd078a66	-0.03309097
200	0x3d788710	0.06067568
201	0x3d474ddd	0.04865824
202	0x3be9cc1d	0.007134928
203	0xbdcad45e	-0.09903787
204	0xbcbc0537	-0.022951705
205	0xbdc449f1	-0.09584416
206	0x3dbb2422	0.09137751
207	0x3b1133ce	0.0022156122
208	0xbddcdf22	-0.10784747
209	0x3d04b7a9	0.032401714
210	0xbd078baa	-0.03309218
211	0xbdd04b80	-0.101706505
212	0xbdeabc12	-0.11461653
213	0x3dcabb27	0.09898978
214	0x3da9931b	0.08280011
215	0xbdce048f	-0.10059463
216	0x3deb6b8a	0.11495121
217	0xbdedb137	-0.11606067
218	0x3ce123e1	0.027482929
219	0xbd5f0b59	-0.05445418
220	0x3d23b94d	0.03997164
221	0xbd3c3b65	-0.04595508
222	0xbe110280	-0.1416111
223	0x3d9b04ac	0.075692505
224	0xbbc1f8ac	-0.0059195366
225	0x3db013c2	0.085975185
226	0x3dcd7d36	0.10033648
227	0x3dc65895	0.096848644
228	0x3c5bfdef	0.013427242
229	0xbdc0fc9a	-0.0942318
230	0x3daaee92	0.08346285
231	0x3dd80b64	0.105490476
232	0x3d5baf46	0.05363395
233	0xbdbde105	-0.09271435
234	0x3d8a3dc4	0.06750062
235	0x3dc45e04	0.095882446
236	0x3db5a0d1	0.08868564
237	0xbde64f74	-0.11245623
238	0xbda9ca73	-0.08290567
239	0x3d05c095	0.032654364
240	0xbda0465d	-0.07825921
241	0xbdea0ff6	-0.114288256
242	0xbdd9ca06	-0.10634236
243	0x3d39fdef	0.045408186
244	0x3dda4a92	0.106587544
245	0xbd860a6b	-0.06544956
246	0xbdd7c28f	-0.10535156
247	0xbc89ca2f	-0.016820041
248	0xbcc47daf	-0.023985712
249	0xbd167ef7	-0.036742177
250	0x3c84c036	0.016204935
251	0xbd38945e	-0.04506337
252	0xbd8a0f23	-0.06741168
253	0xbc227db3	-0.009917664
254	0x3e103010	0.14080834
255	0xbcb30c67	-0.0218565
