SecPPIS/output/model_epoch_2.pth (torch, 222997 bytes, 12 tensors)

embedding.weight f4 [8, 32]
00000000: 1b2a ccbc fe73 77bf fdae b2be b303 9f3f
00000010: c577 ecbd e021 f53f c24d f9bd 8c0e 0440
00000020: dc9b 69bf 6ce4 30bf c67d b13e cf1b fa3f
00000030: 5266 12c0 35a9 a9bd c2c2 99bd 3fb0 d0be
00000040: 4510 9d3f bfe6 e7bf 14df b03e 2641 b7bf
00000050: 9cdf ec3f 5506 03bf 525c 413e 6026 b4bd
00000060: 1416 3ebf 9ef7 9e3f a44d 85be 8988 6bbd
00000070: a259 9a3e 953f c53f 1c2c 7e3f 9e26 07bf
00000080: 581c a73f 8951 1f3f f626 82bf cf4e ae3f
00000090: 0b96 56bf fae7 023e 0157 f9be 3540 833f
000000a0: 74fc 8fbf 9ab7 553f 24d3 d73e 2bfa f83f
000000b0: c6bf 223f 4abd f33e f594 cb3d ad64 903f
000000c0: fa46 2b3f 01be febf 4e1d 293f 1af5 96bf
000000d0: 10c9 f7be 5701 a23d 0ca2 2bbf c268 6a3e
000000e0: faf1 89bc c98f 8b3c de16 86bf d0e7 fbbe
000000f0: eb0b 13bf 97c1 ccbe 8852 1bc0 999a bd3e
00000100: c0d1 ddbd a475 cfbf e1a8 8f3f 5eaf 983f
00000110: a566 bcbf ed6c b03f 3747 16be 16ee 14bf
00000120: 2ce8 9c3f e1db df3e 6283 b73c 3b20 afbf
00000130: 255e d03f b80f 9c3e dc9c e43e 86db a1bf
00000140: 8a24 353e 1989 c9bf bc3a 47bf b069 51bf
00000150: 4a9b 42bf a813 0bc0 0a69 403e 2c4b c5bf
00000160: 336c e4bf 90ac 493f 0734 52be c549 bc3e
00000170: f2d4 033e 8752 5d3f b30d ec3d 6898 9ebe
00000180: a56a ae3f 5c1a 2ebd d238 363e 6c77 8b3f
00000190: 8877 7abf 7eb6 18bf 98e6 173f a51c 99be
000001a0: baa0 28be 4254 b4be a2d9 97be c954 7a3e
000001b0: 8cb4 593f f205 8fbf bc5f babe 7834 20bf
000001c0: aa27 22bf 9a05 5fbf c7c5 ae3f af89 263e
000001d0: 6cc7 4d3f 7ff4 4a3f 73bb 48be 174b 4240
000001e0: 59ab 8fbe 0a88 e83f 2b8d a83f 005c b53f
000001f0: 8ed7 88bf f063 2fc0 e1b7 71bf 9a72 b63f
00000200: 9e4b d43e 5b0b babf cb33 373f ba1f b43f
00000210: ba1c febe fb69 01bf 6712 4bbf 923b 873f
00000220: 532d 5c3f b289 203f 1001 b73e d820 9bbf
00000230: 5533 5bbe f08f 503f 259e 08c0 15ee e3bf
00000240: d24f 0b40 743c 803e 7d92 f33f 2f92 8bbf
00000250: c56d f2bf c49a 0abf 5962 9cbf 72b1 91bf
00000260: 6b46 113f 09d2 c2bf 1039 dfbf b19e cf3f
00000270: 194a 07bf 6b1f 0440 5b14 77bf d3a4 3fbe
00000280: 5472 4a3f 4d1b 213d 2ff0 773d c494 913d
00000290: ebe7 053e 05d2 f73f 3aa2 963f 68ea 9ebe
000002a0: 4fc3 7d3e f0f7 493f ed3c f2bf 25df d13d
000002b0: 616c 5bbf b911 eabf 764b db3f 30bb b93e
000002c0: 5c4d 07bf 92b3 2740 7be9 723f 9aa4 c53e
000002d0: 1637 103d 5d04 bf3e 321e 953e 73fc d8be
000002e0: 3615 bebf 060a 003f 9b38 c23e 6e28 933f
000002f0: 6b06 19be aecd 7d3e f186 273f e67c 1f3e
00000300: bd10 71bd 4590 2440 9378 9bbf f437 c5be
00000310: d381 c0be 9014 033f b2ac 3b3e cdb1 ba3f
00000320: a064 1e3f 61a0 6fbf 85b3 45be 902e 9c3d
00000330: 61da b43e 1787 893f ad14 93bf 30f3 2b40
00000340: a586 063f 9015 d5bf d8d3 763e cbab 383f
00000350: e68f 8d3f b14b a53f 978b f2bf 6993 adbf
00000360: 85bf 4ebf d5fb d43e ceb4 d0bf a671 afbe
00000370: f295 a0bf f39e 073e 6938 edbe e327 3cbf
00000380: 53e3 0f3e 2e6d 5f3d e6b0 eb3c 5941 40bf
00000390: 6866 9cbf 1dd2 563e cb6f 22be f96a b8bf
000003a0: 63a9 bbbf 428c 77bf 3088 9dbf 92cc 6a3d
000003b0: 3c40 5e3f aece 5f3e 8918 09c0 5e4c d2bd
000003c0: 493f 56be 6d8a e53e a249 0cbd ef17 00c0
000003d0: 3416 ecbe dae6 0bbe 8048 9fbf 49d1 aebb
000003e0: 8730 8abf a040 653f 8f44 ae3f 86bc 753e
000003f0: 2487 61bf 40be 5bbd 6858 36be 6a42 293f
-0.024922421 -0.96661365 -0.3489913 1.2423004 -0.11546282 1.9150963 -0.12173034 2.0633879
-0.9125345 -0.69098544 0.3466627 1.9539737 -2.2874951 -0.08284227 -0.0750785 -0.40759465
1.227059 -1.8117293 0.34545195 -1.4316757 1.850574 -0.51181537 0.18882874 -0.08796382
-0.7425244 1.2419317 -0.26035798 -0.057503257 0.3014651 1.5410029 0.99286056 -0.527933
1.3055525 0.6223379 -1.016814 1.36178 -0.838227 0.12783805 -0.4869919 1.025397
-1.1248918 0.8348328 0.42153275 1.9451345 0.63573873 0.47605354 0.09940521 1.1280724
0.66905177 -1.9901735 0.6606034 -1.1793549 -0.48395586 0.07910412 -0.6704414 0.22891524
-0.016839016 0.017036336 -1.0475729 -0.49200296 -0.5744006 -0.39991447 -2.4269123 0.3703201
-0.10831022 -1.6207776 1.1223413 1.1928518 -1.4718825 1.3783242 -0.14675604 -0.5817579
1.2258353 0.43722442 0.022401515 -1.3681711 1.6278731 0.30480742 0.44650924 -1.2645118
0.1768972 -1.5744964 -0.77823997 -0.8180189 -0.760182 -2.1730747 0.18790069 -1.5413566
-1.784552 0.78778934 -0.2052766 0.36775032 0.12874201 0.8645405 0.115260504 -0.30975652
1.3626295 -0.042505607 0.17795113 1.089582 -0.9783864 -0.5965346 0.59336233 -0.29904667
-0.16467562 -0.35220534 -0.29658228 0.24446405 0.8504112 -1.1173689 -0.36401165 -0.6258006
-0.6334177 -0.8711792 1.3654107 0.1626346 0.8038242 0.7927932 -0.19602756 3.0358331
-0.28060415 1.8166516 1.3168081 1.4168701 -1.0690782 -2.7404747 -0.944212 1.4253724
0.4146394 -1.4534715 0.71563405 1.4072182 -0.49631292 -0.5055234 -0.79324955 1.0565054
0.8600666 0.62710106 0.35742998 -1.2119398 -0.214063 0.8146963 -2.1346524 -1.7807032
2.1767468 0.25046122 1.902908 -1.0903987 -1.8939749 -0.54142404 -1.2217513 -1.1382277
0.56748074 -1.5220348 -1.7439289 1.6220304 -0.5284744 2.0644176 -0.96515435 -0.18715219
0.790807 0.039332677 0.06053179 0.07108453 0.13076751 1.9360968 1.1768258 -0.31038213
0.24781536 0.7889395 -1.8924843 0.102476396 -0.8571225 -1.8286659 1.7132404 0.36275625
-0.52852416 2.620335 0.9488751 0.38602144 0.035208784 0.37308016 0.291246 -0.42380103
-1.4850223 0.50015295 0.37933812 1.1496713 -0.14943855 0.24785492 0.6544028 0.15574989
-0.058853853 2.5713055 -1.2146171 -0.3851925 -0.37599048 0.5120325 0.18327597 1.458551
0.6187229 -0.93604094 -0.19306763 0.076260686 0.3532286 1.0744351 -1.1490685 2.686718
0.525492 -1.6647205 0.2410425 0.72137135 1.1059539 1.2913724 -1.894885 -1.3560611
-0.80760986 0.41598383 -1.6305177 -0.34266394 -1.254576 0.13244228 -0.463321 -0.7349836
0.14051561 0.05454748 0.028770875 -0.7509971 -1.2218752 0.2097859 -0.15862958 -1.4407645
-1.4661068 -0.9669839 -1.2307186 0.057324 0.86816764 0.21856186 -2.1421225 -0.10268472
-0.20922579 0.44832173 -0.03424991 -2.0014608 -0.4611069 -0.13662282 -1.2444 -0.0053350073
-1.0796059 0.89551735 1.3614672 0.23997697 -0.88096833 -0.053648233 -0.17807162 0.66116965

lstm.weight_ih_l0 f4 [256, 32]
00000000: aa18 dcbd fcc0 933d 6d78 36bd f584 a8bc
00000010: 2461 bcbc 0d6a df3d 6c2c 93bd 7f70 84bd
00000020: 166b a8bd 9274 8cbb f760 8a3d abe0 53bc
00000030: 475c 0c3d 973d 4abb 5d83 4a3d 7567 58bd
00000040: 493a 4a3d bc91 3c3b 270a 8ebd be3c 443d
00000050: 4edd 85bc 0837 bc3d 5d8b 873d 52b5 84bd
00000060: 9d37 703d 2b7f b83d 5bc1 cb3d 44a5 8ebd
00000070: f6a8 ddbd eec2 74bd 8002 063e 809d b93d
00000080: 9781 37bd 9a21 bb3d e17c 3c3c 55d4 023e
00000090: 2f13 003c a294 da3d 6c34 edba 1b97 0a3e
000000a0: 6813 d9bd 5a04 0b3d 838d 0fbd f780 bebd
000000b0: 602e f63c 18c5 583d 21dc d53d 9b8c a8bd
000000c0: 24fa 13bc 3ebd febc 5039 7bbd 1791 e7bb
000000d0: ad52 003e 3f4b c3bd 376c de3d 45a4 ba3d
000000e0: 489d 463d 7eaf 92bd 1a37 d63d 8015 933d
000000f0: db2b 9cbd a13c e1bd 9ddf 913b f1f7 a13d
00000100: 529c e03d e659 05be 46f1 59bd f7e8 d1bd
00000110: 7038 d33d 4e79 7ebd f204 723d 596a fc3c
00000120: 6e33 9cbd f388 bf3c 82da 073c be5e 59bd
00000130: ae93 6b3d da8c 00be 2f7d 5f3d 13eb 6abd
00000140: 0a73 d73d eca2 82bd e5f3 fe3d 677d a8bb
00000150: 072d b7bd 29ca 3a3d b759 e3bc 8fd8 a33d
00000160: 26f8 8bbc 1d20 d9bd 9c99 a2bd dafc 963c
00000170: 6d98 d7bd 234b 6c3c 1ab9 e83d 18bd f1bc
00000180: 0a17 06be a441 c7bd 76d4 d3bd 63d4 483d
00000190: 0b28 d33d e586 47bd dcdb 113d 7208 b3bd
000001a0: ca9e 0c3b 6478 cebd 74aa b0bd f696 153d
000001b0: 2d36 1c3d f9f9 a23d a113 253d 67df 1e3d
000001c0: 0c7c a9bd 14e0 933d 6ab6 ecbc 9328 09be
000001d0: ac8e d6bd 0169 913c ed01 debd f7a3 1abd
000001e0: 142f 8a3d 024e c43c 797b a73d 0704 d93d
000001f0: 7185 86bd da54 053e 1c9e 943d e0df 8a3d
00000200: ca39 da3d a739 e4bd 8ea8 1d3c 86b6 fabc
00000210: da39 82bd a807 e2bd d65e 353d 9fc1 adbd
00000220: bc0d 00be 73b2 3bbd 7cc4 bc3d cf7b 0c3e
00000230: a65e dd3c 70b9 ca3d 5d7a 80bd 4fdb bfbc
00000240: f894 12bc e6f0 113d 289e aebc 0fc8 07be
00000250: f2ac a5bb 3fee a7bd 13f2 65bd f816 a0bd
00000260: 8a7a ae3c b4f8 b73d 98bd aabc 9091 04be
00000270: 3e61 983d 7aac a7bd 5e2e ecbb c0f6 4ebd
00000280: 8b6c b9bd 7a99 963d 526a 97bc ad7d 353d
00000290: 2e37 6c3d e46c 2cbd daa7 453d 6164 efbd
000002a0: bd78 543c 2b31 fe3d 7b1a 27bd 502d cfbd
000002b0: 2adf b23d fb02 4c3d b4a7 97bd c92e e4bc
000002c0: 2b78 943d dbe2 153d b5ce 75bd f562 803d
000002d0: 0d37 febd 5aa0 88bd 0ee6 1c3d a68b 953d
000002e0: 55b6 0d3c 6408 883d 9960 be3a 96d1 463d
000002f0: df6a 98bc 0169 cb3d 133f 27bc c819 c6bc
00000300: d222 b4bd d5bd 93bd 45f2 97bd 104a 0b3e
00000310: a8f2 f73a ccac 97bd 8649 cfbd 41c3 293d
00000320: eef9 8dbd 81dd d43d 777f b03d ae41 babd
00000330: 7e83 9dbd b6e2 893b 406f dcbd 286a 903d
00000340: ce41 8e3c 1713 3abd 0ec4 83bd eee0 813d
00000350: ef57 283c 8dd0 c6bd 34e7 b33d 8882 e63d
00000360: 2319 c6bd a05f 823d 1715 0abe a7ce 26bc
00000370: 65a7 943d 1821 613b 70d2 1ebc 827a a6bd
00000380: d3a8 2e3d ffec cf3c 0893 b83d 6fb3 9c3d
00000390: 42df 3a3c 6cc7 cc3d 9600 c9bd 8c17 8abd
000003a0: 5e53 a83d 78b0 ae3b c839 4b3c a262 d0ba
000003b0: 86d8 c13d d5c1 b3bd 1a6f 92bc c121 bf3c
000003c0: 43b9 b03d f409 a53d eac5 533d ea8d 31bd
000003d0: 620c 783c 2b54 babc ced0 84bd 5538 6cbd
000003e0: 3054 80bd 3e59 6b3d f413 da3d 1b68 3ebd
000003f0: ff4f 8abc 8131 e8bd 8b89 b7bd b707 bcbd
-0.10746892 0.07214543 -0.04454844 -0.020571211 -0.022995539 0.109088995 -0.07186207 -0.064667694
-0.0822355 -0.004286357 0.06756776 -0.012931983 0.03426769 -0.0030859464 0.049441684 -0.05283304
0.04937199 0.0028773388 -0.0693553 0.04790949 -0.016340878 0.09190184 0.06618378 -0.064798966
0.058646787 0.0900863 0.09948989 -0.06965116 -0.10823242 -0.059756212 0.13086891 0.09063244
-0.04480132 0.09137268 0.011504383 0.1277631 0.007817074 0.10672881 -0.0018097288 0.13534205
-0.105994046 0.033939697 -0.035047065 -0.09301942 0.03005141 0.05292234 0.10442377 -0.08229943
-0.009031806 -0.031096097 -0.061333954 -0.0070668566 0.12531538 -0.095358364 0.10860484 0.09113363
0.04848984 -0.07162379 0.104597285 0.07181835 -0.07625552 -0.10997892 0.0044517056 0.07908619
0.10967316 -0.13022575 -0.053208612 -0.10249513 0.10313499 -0.062127404 0.059086747 0.03081243
-0.07626997 0.023380732 0.008291842 -0.05306887 0.057513885 -0.1255373 0.054562744 -0.05735309
0.10519989 -0.06378731 0.12448863 -0.0051419022 -0.08944135 0.04560295 -0.02775274 0.0800029
-0.0170861 -0.10601828 -0.07939455 0.018431116 -0.1052712 0.014422211 0.1136343 -0.029509112
-0.13094726 -0.09729317 -0.10343258 0.049030673 0.10310372 -0.04871263 0.035610065 -0.08741845
0.002145695 -0.100815564 -0.08626261 0.03652092 0.038137604 0.07957835 0.040301923 0.03878727
-0.08275613 0.07220474 -0.028895576 -0.13394384 -0.10476431 0.017750265 -0.10840211 -0.037754025
0.06747261 0.023962978 0.081778474 0.10596471 -0.06568421 0.1302065 0.072567195 0.06780982
0.10655554 -0.11143809 0.009622706 -0.030604612 -0.063586906 -0.110366166 0.044279896 -0.08484196
-0.12505239 -0.04582448 0.09217164 0.13719104 0.027022671 0.09898651 -0.06273339 -0.023420004
-0.00894665 0.03563013 -0.02131565 -0.1325991 -0.005056017 -0.08199739 -0.056139063 -0.07816881
0.021298666 0.08982983 -0.020842358 -0.12946153 0.074404225 -0.08187194 -0.007207676 -0.050528288
-0.09053906 0.07353492 -0.018483315 0.044309307 0.05766981 -0.042096034 0.04825578 -0.11689068
0.012968239 0.12411722 -0.040796738 -0.101160645 0.087339714 0.04980753 -0.07405034 -0.02785434
0.07249483 0.0365933 -0.060011584 0.062688746 -0.12412844 -0.0667121 0.038305335 0.073020265
0.008649428 0.066422254 0.0014524638 0.04853972 -0.018605648 0.09932137 -0.010207909 -0.024182215
-0.08795704 -0.07213942 -0.07419256 0.13602471 0.0018916922 -0.07406005 -0.10121445 0.041445974
-0.06932436 0.10393811 0.08618062 -0.09094559 -0.07691096 0.0042079343 -0.10763407 0.07051498
0.017365362 -0.04542836 -0.06433879 0.0634173 0.010274871 -0.09707747 0.08784333 0.112553656
-0.09672763 0.06365895 -0.13484608 -0.010181106 0.072584905 0.0034352 -0.009693727 -0.08128835
0.042641472 0.025381563 0.09012419 0.07651412 0.011405768 0.09998974 -0.09814565 -0.067427725
0.08219026 0.0053310953 0.012403913 -0.0015898535 0.09465127 -0.08777205 -0.017875243 0.023331525
0.08629086 0.08058539 0.051702417 -0.04334823 0.015139671 -0.022745213 -0.06485139 -0.05767091
-0.062660575 0.057458155 0.10648337 -0.046486 -0.016883848 -0.11337567 -0.08961781 -0.09181159

lstm.weight_hh_l0 f4 [256, 64]
00000000: ab90 a3bc 1ebe 1c3d 4fc5 c0bd 3605 cfbd
00000010: 9ede 983d a44c d6ba f8ec b7bd 0ca9 8e3d
00000020: c689 ba3d a65c aebd 35f3 73bd cb5e 333d
00000030: fd89 823c e1a9 c4bd c80c c5bc b893 02bd
00000040: 2c2f 15bd 0e80 a4bc 4063 523d a59b 803d
00000050: 4ae3 debd c018 a33d 7df5 07bb ba07 303d
00000060: f615 8d3d b313 f03c ef3d aebd 8518 c53d
00000070: 56b6 f3bc 51aa c9bd 130d 043e 2f6f d63c
00000080: bb2f d7bd ddc5 e83c ed01 4ebd 5314 f93d
00000090: 6c09 913d 1b26 b1bd 1783 833d 2143 e93d
000000a0: 257a 853d 4d0d 26bd 8948 c33c 9415 853c
000000b0: 473b 9c3d 5330 553d c6b5 53bc 2dce 1abd
000000c0: b68f bdbc ecf4 073e 4cbb 65bd 2f18 3d3d
000000d0: 6ed1 7dbd 1691 913d 5e23 babd fbda e53d
000000e0: 546c 5bba 6a5e a23d 49ba b6bd 1920 913d
000000f0: d2db b53b e7eb a93d 0067 5636 d25f e5bc
00000100: 78bd f03d e1ca a23d 6d91 e2bd ff35 203d
00000110: 9ec8 d73d 9682 b33d e719 d8bd 748a 5ebd
00000120: abdc 9cbd e321 c9bd 8859 423d 9665 9ebd
00000130: 9087 cc3d dc54 a4bd 29d4 d9bd 684b a1bd
00000140: 9852 bbbd 86ed 773d e81b 9ebd e4ce c9bd
00000150: 4cb0 4c3c 819d 91bd ac01 583c 3f2f ae3d
00000160: d720 943d 03db dabc 7226 42ba 7ca0 babc
00000170: 4ae0 be3c 8902 063e b1c6 b2bc 72d5 42bd
00000180: 85d1 bbbd 810e aebd 6bae 503d 9225 a4bd
00000190: 67a6 283d 3eb0 e83d 6f29 eabd 995a 323d
000001a0: d2f7 a13c 608e cf3c 5d97 853d 0a59 553d
000001b0: c48c bd3d 4869 73bd 9932 6a3d b02c ccbb
000001c0: dab7 7fbc 2c50 7abc c396 fb3d 249c 8d3c
000001d0: dc01 cc3c 3c86 efbd ba08 993d 39f9 7c3d
000001e0: 021a 93bd ad96 eabc 5d21 38bb 2453 82bc
000001f0: 56b4 f9bd 8c1a 7cbd f8b8 aabd aeb2 1bbd
00000200: 0cd5 f53c 9936 d93d c00c f93d 39d2 033b
00000210: a373 3b3c bcdc 7a3d 9f1b bcbd 2bde 073e
00000220: 948a b03c da42 07bd e613 53bd ee76 123d
00000230: 6af1 6fbd fcbc 6e3d beab e1bd f014 0a3c
00000240: ebe8 efbd f5bb 16bd 5769 ebbd ecc5 05bc
00000250: c2ba 76bd 428d 1f3d b709 c93d b99d 283d
00000260: c6c7 d13d 003e 883c 20cf 4bbd fd72 6b3b
00000270: d025 b0bd aa97 1abd 54cd 863d 916f 7e3d
00000280: ae9f 8bbc 9668 ebbd 23d7 543d 24b6 6cbd
00000290: 9dc8 fbbb b7a4 5e3d 7454 eebd b233 173b
000002a0: 73b6 f73c a58e e2bd 6127 b63d 1540 c4bd
000002b0: ef0f 623c 5051 cd3d ca31 43bc 60ab 6ab9
000002c0: 023c 0f3d 8a78 4fbd 2811 e43d 9b1b a33d
000002d0: c0eb 16bd 6d7b bb3c 69eb 053d b74f 61bc
000002e0: b109 3cbd 8c37 e7bd 182e bebc de84 f83d
000002f0: c610 b23d 04ce e5bd 7940 b13d 7d87 b23d
00000300: d7c7 07bd e396 f2bd 77d0 ae3d 88aa 653d
00000310: b3a5 46bd 7e6e babd c1d6 6e3d 4610 81bd
00000320: 06d7 153d 9a45 a43d c895 94bd 8da4 0bbd
00000330: e8f8 673d 44d9 9f3b ecb1 b13d 6aae 063e
00000340: 8ba8 c33c def6 d53c f982 bfbb bb4a bd3d
00000350: d6ee bcbd 0ddf 3abd 81c4 45bd cc54 96bc
00000360: db3d 7f3d 5b5e 4fbd 08d4 383c 0951 dbbd
00000370: 83d7 8d3d 52b9 91bd ee1d 5cbd 1703 49bc
00000380: ef0a 843d afaa dc3d 07a5 4abd 1c3f d7bd
00000390: da93 273d af99 de3d dd3b 893d 8cf0 7dbd
000003a0: e80f 00be 58af 2dbd cb8c a33d ca99 83bd
000003b0: ee15 e8bd ce02 a3bc 9497 03be 85e8 a4bd
000003c0: 96ff a8bd a0b9 de3d cc37 bcbc 13f1 cc3d
000003d0: ca5d d23d de19 91bd aee7 e13d a2a2 273d
000003e0: 2e7e e5bd dc6c 7c3d 84bd cc3c 15b8 51bd
000003f0: 2546 07bd 6b4d 873d 8ad4 bc3c 8912 ae3c
-0.019966444 0.038267247 -0.09412634 -0.10108416 0.07464336 -0.0016349745 -0.08980745 0.06965837
0.091083094 -0.08513765 -0.059558112 0.043791573 0.015934939 -0.09602714 -0.024053946 -0.031879157
-0.03642194 -0.020080592 0.051364183 0.06279687 -0.10883196 0.07963705 -0.0020745688 0.04297612
0.06888954 0.029306268 -0.08507907 0.09623817 -0.02975003 -0.098469384 0.12895612 0.026176063
-0.10507151 0.028414661 -0.050294805 0.1216208 0.07081875 -0.08649846 0.06421488 0.11389757
0.06517438 -0.04054003 0.023838298 0.01624564 0.07628494 0.05204804 -0.012921756 -0.03779428
-0.023139816 0.13277024 -0.056086823 0.04616564 -0.061967306 0.07107751 -0.09088777 0.11223408
-0.0008370329 0.07928164 -0.0892225 0.070862 0.0055498863 0.08296948 3.1948439e-06 -0.027999792
0.11754888 0.07948852 -0.11062894 0.039113995 0.105363116 0.08765142 -0.105518155 -0.054331258
-0.076592766 -0.098209165 0.047448665 -0.0773422 0.09986794 -0.08023998 -0.106361695 -0.07875711
-0.09146613 0.060529254 -0.077201664 -0.098539144 0.012493204 -0.071101196 0.013183992 0.08505105
0.07232826 -0.026715761 -0.00074062415 -0.022781603 0.023300309 0.13086905 -0.02182326 -0.04756684
-0.09170822 -0.0849886 0.050947588 -0.080149785 0.04117432 0.113617405 -0.11433684 0.043543432
0.01977149 0.025336444 0.06523011 0.052086867 0.092553645 -0.059426576 0.05717716 -0.006230913
-0.0156077985 -0.0152779035 0.12284615 0.017286368 0.02490323 -0.11695525 0.074723676 0.061761115
-0.07182695 -0.028636301 -0.0028096058 -0.015908785 -0.121925995 -0.061548755 -0.08336061 -0.0380122
0.030008815 0.10606117 0.12160635 0.0020114316 0.011441144 0.061245665 -0.09184956 0.13268344
0.021550454 -0.03302274 -0.05153265 0.03575795 -0.05857984 0.0582857 -0.11019085 0.008427843
-0.117143475 -0.036800344 -0.11494701 -0.008164864 -0.0602367 0.038953073 0.09816306 0.04116604
0.10243182 0.016631126 -0.049758077 0.0035926693 -0.08600962 -0.037742294 0.06582132 0.062118117
-0.017043915 -0.114945576 0.051962983 -0.05779089 -0.007683827 0.054356303 -0.11637202 0.0023071584
0.030238366 -0.110623635 0.0889423 -0.09582535 0.013797744 0.10025275 -0.011913726 -0.00022379821
0.034969337 -0.050652064 0.11136085 0.0796425 -0.036845922 0.022886002 0.032695208 -0.013751916
-0.04590768 -0.112898916 -0.023215339 0.121347174 0.086946055 -0.11220935 0.08654875 0.087172486
-0.033149567 -0.118451856 0.08535855 0.056070834 -0.048497867 -0.09103106 0.058310274 -0.06301932
0.036582015 0.08021088 -0.07255131 -0.034092475 0.05663386 0.004878195 0.08676514 0.13152471
0.023884078 0.026118692 -0.0058444706 0.09242769 -0.09225242 -0.045622874 -0.048283104 -0.018350981
0.06231485 -0.050627094 0.011281021 -0.107088156 0.06925871 -0.07115425 -0.05373948 -0.012268803
0.06447398 0.10774743 -0.04947379 -0.10510084 0.040912487 0.108691566 0.06700871 -0.06199698
-0.12506068 -0.04240355 0.079858385 -0.06425817 -0.11332308 -0.019898798 -0.12850791 -0.08052162
-0.08251874 0.10875249 -0.022975825 0.10006919 0.10271795 -0.07085012 0.110305175 0.040926583
-0.112057075 0.061627254 0.024992712 -0.051200945 -0.03302588 0.06606563 0.023050565 0.021249073

lstm.bias_ih_l0 f4 [256]
00000000: f69f 3e3c 5c86 3fbd 630e ad3d a05b 65bd
00000010: 481a 273d ab72 71bd af94 45bd c2d3 d53d
00000020: d669 5b3c 8673 38bd 3135 723d 2c50 b6bb
00000030: d7bd 053d e8f0 fdbc feb4 193d 7e10 f5bc
00000040: 7963 a9bc dba8 00be 8547 ab3d ea9a f3bd
00000050: e824 403d 608f ecbd 1bed db3c 6ee7 033e
00000060: 10bd cd3c 1e25 6abd 6d98 823d adf8 fd3d
00000070: 16a5 513d 1bca e93c f4d0 86bd a4b7 32bd
00000080: 4e45 e5bc 1d0e 88bc 06e0 3f3b 3ba5 e3bd
00000090: 0549 cabd f9e6 e4bd 7864 bc3d 14d4 023e
000000a0: a9e3 343d 21c6 5f3d 891a d7bd 3ee5 9dbd
000000b0: e0b6 103c 2616 923d 58ae 1f3d 81d8 8bbd
000000c0: 3316 563c a5e8 a9bc 1d1a d63c aeba debb
000000d0: 2c25 6f3c 7344 5dbd 0c4d 2a3d f932 bbbd
000000e0: 6834 4dbd cb8b c2ba 67e9 0a3d 854d 063d
000000f0: 98dd 6a3d 05d3 8ebd 05ea debc b769 d1bd
00000100: cc61 9cbd 2ce6 833d c7a2 083e 6795 79bd
00000110: d3c4 59bd 7498 c23d 3861 f23d c8e1 ea3d
00000120: 5dc0 d63d 2bf2 ed3d 1141 0e3d b6b4 863d
00000130: d914 e33c 347f 913c b07e 62bd 61a3 26bd
00000140: 4bad 3fbd fe05 d7bc c5ec ec3d 3d9e c3bd
00000150: 0cbd c83d 9fe4 e4bc 20fd d53c c7c1 7f3d
00000160: a963 ed3c 6df8 97bd 1c4a 833b 2d2d d93d
00000170: 699b 783d ad7e fcbd 3e06 723d 2a3f 803c
00000180: 052b 193c 4cf6 a43d 50fb ab3d f732 e2bd
00000190: f20e 50bb 6c7f d0bd 1e0e a23b 6c99 76bd
000001a0: 8243 783d c803 1e3d 74e3 77bd af5f cd3d
000001b0: 58c1 6dbc b7aa 1d3c 6bb1 ae3d bba7 363c
000001c0: 6002 363d 03c8 853c e960 533d 3f41 cd3d
000001d0: 3983 823d 0ada bdbc e300 863d 62b0 8bbd
000001e0: 6dac e23d 84d2 b4bd e668 53bd b14f b03b
000001f0: 1dd0 a0bd 24fe 7f3c f8f2 463d d102 f43d
00000200: ba1e 413c 7578 d83d e11a c53c 644e 9a3d
00000210: 6240 e03b e16e a53d 78e4 af3d 07b0 da3d
00000220: 3f30 0b3c 6847 bd3d 76db 813c 83fd 0c3d
00000230: 05c8 af3d ddb9 eabd f8ca 8ebd 8393 04be
00000240: 057c d4bb 4399 02be 07d4 c2bd d251 db3d
00000250: 9f70 35bd 2d13 0d3d f126 6cbc 8aa1 3b3c
00000260: 91ab b23d f9a3 f4bd b25f 39bc 0f76 9a3d
00000270: 088d 5ebc f4f2 13bc e19d ab3d 4e7a 763d
00000280: c7a8 253c e11c d1bd 61f2 f0bd eee4 e7bd
00000290: f88f 373d abc8 cb3d e987 cfbd b047 8e3c
000002a0: 6229 f9bd 85e7 523c a05c ec3d bd4b 09be
000002b0: d664 eebd 4de1 b93d d537 6fbd 4901 233d
000002c0: cf97 d8bd 0e55 b9ba 0d21 e13d 14a4 01bc
000002d0: 09d5 1aba c376 973d ecfe aebd df41 d3bd
000002e0: d401 c3bd c467 c3bd 3e9f e03d d363 28bc
000002f0: e951 98bd e972 6b3d 7cf2 bdbd 5958 bf3d
00000300: 760e bbbd b5fb adbd 02ca 9abd 9cc2 e43d
00000310: 281d 7b3d 415f 1fbd 29d2 59bc e28f 6f3d
00000320: 6369 9abc fb7d 823d 90ee 21ba c22f 7abc
00000330: baee 7c3d aa1e 6a3d 666b 42bc 4c52 d2bd
00000340: 2be2 d0bc 6a5d c43d 8eee 85bd 09fd 8d3d
00000350: fe41 20bd ef4d c3bd 7847 913d 5986 f93d
00000360: 7552 4d3d 2e6f d53d 8ca7 d9bd 9887 a93d
00000370: 7c51 edbd 0cbc d83d b005 39bc e763 733d
00000380: aca3 55bd 8cf8 eb3d 96c9 92bd 5bad 323d
00000390: db34 203d ee3d 9c3c ae53 423b e3a0 003e
000003a0: fc90 e63d 5418 2abd df88 c3bd d0f7 3ebd
000003b0: 1e14 c5bc a819 9dbd 0aa5 e83d 93c4 a13d
000003c0: 0578 5cbd 6745 78bd 49fd c5bc 6c49 1cbd
000003d0: c42c 08bd def9 e3bc 101c c93d a2a0 ab3d
000003e0: 39b3 ff3c ebf4 c63d 82c3 8b3d d746 d1bd
000003f0: a66d fb3d 4a00 8dbd dc31 dabd 1c64 cc3d
0.011634817 -0.046758994 0.0845001 -0.055995584 0.040796548 -0.058947247 -0.0482375 0.1044078
0.0133919325 -0.045032047 0.05913276 -0.0055637565 0.03265175 -0.030998662 0.037526123 -0.02991509
-0.020677315 -0.12564413 0.08363251 -0.11894782 0.046910197 -0.11550784 0.02684646 0.12881252
0.025114566 -0.057164304 0.06376729 0.12400947 0.05118283 0.028538754 -0.065828234 -0.043632165
-0.027987149 -0.016608292 0.0029277815 -0.111154996 -0.098772086 -0.11176867 0.091988504 0.12776214
0.044162426 0.05463231 -0.10503108 -0.0770974 0.008832663 0.07133131 0.038984627 -0.06828404
0.013066816 -0.020740816 0.026135499 -0.0067971563 0.014596265 -0.054020356 0.041577384 -0.09140582
-0.050098807 -0.0014842687 0.033913996 0.032788772 0.057340235 -0.069738425 -0.027211199 -0.10225242
-0.07635841 0.06440386 0.13343345 -0.060933497 -0.05316622 0.095017344 0.11834949 0.114688456
0.10485909 0.116184555 0.03473002 0.065774366 0.027719902 0.01776085 -0.0552966 -0.040683154
-0.046796124 -0.026247974 0.11568598 -0.09551666 0.09801683 -0.027941046 0.026121676 0.06244066
0.028978186 -0.0742043 0.0040066373 0.1060432 0.060695086 -0.12328849 0.059087984 0.015655119
0.009348636 0.0805479 0.083975434 -0.11044877 -0.003174719 -0.10180554 0.0049455306 -0.06020491
0.060611255 0.038577825 -0.06051965 0.10028016 -0.014511429 0.009623221 0.085299335 0.0111483885
0.04443586 0.016330725 0.051606093 0.1002221 0.06372685 -0.023175258 0.06543138 -0.06820752
0.11068044 -0.08829215 -0.05161371 0.0053805937 -0.078521945 0.015624557 0.048571557 0.119146
0.011787111 0.1056985 0.024060668 0.07534483 0.0068436125 0.08077789 0.08588499 0.10678106
0.0084953895 0.09242135 0.015851717 0.034421455 0.085830726 -0.11461232 -0.06972307 -0.12946896
-0.006484511 -0.12753777 -0.09513097 0.10708965 -0.044296857 0.034442116 -0.014413581 0.011452088
0.0872413 -0.11945338 -0.011314319 0.07542049 -0.013583429 -0.0090300925 0.083797224 0.060175233
0.01011104 -0.10210586 -0.1176498 -0.11322962 0.044815034 0.09950384 -0.10133345 0.017368168
-0.12166096 0.012872581 0.11541104 -0.13407798 -0.11640327 0.09076176 -0.058402855 0.039796147
-0.1057583 -0.0014139728 0.10992632 -0.007912654 -0.00059063785 0.07395699 -0.08544716 -0.10315298
-0.09521833 -0.09541276 0.10967873 -0.010277706 -0.07437498 0.057482634 -0.09274766 0.09343023
-0.091336176 -0.08495275 -0.07558061 0.11169931 0.061307102 -0.0389092 -0.013294735 0.058486827
-0.01884908 0.06371685 -0.0006177211 -0.015270175 0.061751105 0.05715815 -0.011866426 -0.10269603
-0.02549847 0.0958813 -0.06539641 0.06933028 -0.039125435 -0.09536349 0.0709371 0.12183828
0.050127465 0.104215965 -0.1062766 0.082778156 -0.115878075 0.10582742 -0.01129286 0.059421446
-0.052158043 0.11522016 -0.07167356 0.043622356 0.039112907 0.0190725 0.0029651928 0.12561373
0.11258122 -0.041527107 -0.095475905 -0.04662305 -0.024057444 -0.07670909 0.11359604 0.07898822
-0.053825397 -0.060613062 -0.024168627 -0.038155958 -0.033245817 -0.027829107 0.098198056 0.08380248
0.03121339 0.09714683 0.068243995 -0.1021859 0.12276773 -0.06884821 -0.10654041 0.09980032

lstm.bias_hh_l0 f4 [256]
00000000: 99af e43d b7f3 c2bd db33 023d e4ca a13c
00000010: b66a 89bd bcf6 f0bd ada7 ef3d 860e fc3d
00000020: 83d2 3ebd 1299 043e 3875 e4bd 8eed df3d
00000030: f791 5ebd af34 b5bd ce29 453d d91c e33c
00000040: 38c2 523b cd0f 8abd 8ca5 be3b 01f2 06be
00000050: cf56 9f3d 02f5 96bb 08fa e73d 73bb 9f3d
00000060: f0b9 df3c ba70 78bd c2e8 ce3a dd10 043e
00000070: 3ac1 af3d fbde 06bd 6f90 9c3b 1104 9fbd
00000080: aa4f 4e3d a6c1 403c ad6a cebd 51b7 ee3c
00000090: 67fd 36bc 9ed1 183d 4471 f83d 8419 133d
000000a0: 76a9 9dbd c708 743d 3f0e f6bd 82ca c33d
000000b0: 905b d33c ef0e 843d 9822 7ebd 65d0 4cbc
000000c0: ef41 5c3d 2e49 04be 7cf1 a43d b2ba da3d
000000d0: ac33 083d 0bbb c73d 7007 763d 85dc 21bd
000000e0: 38cc 5dbc 7d7c e83d eddd 773c d165 c2bd
000000f0: 219c e23c a005 1bb8 8b8c 873c 922a 32bd
00000100: f1d2 1abd d5ce 94bc e0a6 e6bd e7c2 fd3d
00000110: b13d a9bd dc2c 8d3d af52 36bb 7a4b 2a3c
00000120: 6db7 ec3d b7ab f53d 6fd6 6d3d 03dd 7d3d
00000130: 10ec 073e e195 b6bd f7d0 da3d 2371 d6bd
00000140: b31c bcbb b148 cc3d 32e9 683b 5ff4 833c
00000150: 04e4 8e3d c4e2 e03d aa3b b53d a3bc cf3d
00000160: 087f 463d 53ff da3d 19d0 cbbc 1124 f23d
00000170: 93a9 14bd ddf9 dbbd f6f9 e1bc 970c e3bd
00000180: e1ee d33d 202c 32bd 0b7b 7e3d c427 7a3c
00000190: cbe3 dabd 1195 09bd 8afa c9bd 5ad1 9f3d
000001a0: c09e ba39 f937 cc3d 275a 0ebb 2f70 a9bd
000001b0: ddf6 803c d505 df3d ca14 0ebd 9c00 0c3e
000001c0: 1fa6 ba3c 5cb6 7ebd f229 073e ec76 6abd
000001d0: 5052 233d d7ae 163d 6669 ce3d 8217 80bd
000001e0: beef 813c 7198 b0bc d841 86bd d48d 22bd
000001f0: a1fd e83d 31e1 663d d77c c13d 5f9b 883d
00000200: 891c 79bc 68bd 85bc 0061 02bd 27dd 5cbd
00000210: 1c80 c1bb f349 863d dd68 c1bb f56b 563d
00000220: 4acb d2bd c0d5 ee3d 91c9 063e a8f0 5ebc
00000230: a488 20bd ad93 21bd ee12 763d d3df df3d
00000240: 8f6d a2bd 8ba6 ec3d 84ee aa3c dc9d edbd
00000250: 065a 7abc f9be 693d e121 bdbc fe70 c63d
00000260: 665f 603c 1b79 8c3d 96e6 8cbd dda9 f83d
00000270: c930 d33d 84a3 8d3d 6086 9cbc 4e2c 4a3d
00000280: 7bd1 203d 1e4c 5dbc 3228 0fbc 6ea2 c33d
00000290: 2454 cb3d 732f fe3d eeff 273d 1bac aebd
000002a0: 6fe0 7a3c 700b f6bd 8cc6 ff3d fbe1 05be
000002b0: 1c3d cdbd 1355 bf3d 5ac6 01bd 294d 4e3d
000002c0: fb60 d13d 763f 80bd 4c3e 5ebd d201 70bd
000002d0: f98d 16bd 0c0f 77bd ea1a c5bd da9e 753d
000002e0: ef06 09be 8aaa d8bd 62b9 203d 4994 fd3d
000002f0: 17ec 9abd 8fca a23d 4230 babd c1c3 a0bd
00000300: 26fe 2ebd 0873 873d 5209 b73d e4ba 143d
00000310: 83ee a43d bed6 84bd edec d9bc 206e 9dbd
00000320: fa12 313d 131c 96bd c6ee 7abd 942c 34bc
00000330: 3abd cbbd 388a a6bc 4703 b1bd 01f4 66bc
00000340: 8a0c ea3d 30e9 8b3d 102a 88bd eb45 ed3d
00000350: ae04 ba3d 1f9a b13d ea24 debd a061 c83c
00000360: bc05 973d eb8c 4abb 3dd0 29bd 5cd9 c5bd
00000370: 6a7d 91bd b605 bb3d cfec b1bc da66 f7bc
00000380: 0a99 073e d4a6 5fbd 2e9b eb3d edb3 4fbd
00000390: 4b94 1c3d a8ea dd3d a2ad 8ebc cdb6 9c3c
000003a0: a5e8 62bd 2dbc d23d 5199 953d 8424 773d
000003b0: 3405 a6bd b563 52bc 6af7 b5bd f5e3 d7bd
000003c0: 5cd5 623c e735 ddbd 00d2 9d3c 7396 c7bd
000003d0: 03d6 75bd 752f d9bb 2696 543d 1aaa d8bc
000003e0: bca1 3f3d 6760 c5bd 696f e53d 8355 933c
000003f0: ceec 9fbd 841a 2cbc 0321 e33c 4f22 2abd
0.11166305 -0.09519141 0.031787734 0.019750066 -0.067098066 -0.11765811 0.117019035 0.123074576
-0.04658748 0.12949017 -0.1115517 0.10933982 -0.05433842 -0.08847939 0.04813557 0.027723717
0.003215922 -0.06741295 0.0058180746 -0.13178255 0.07780229 -0.004606844 0.113269866 0.07799425
0.027310342 -0.06065438 0.001578592 0.12897058 0.08581777 -0.032927494 0.00477796 -0.077644475
0.050368942 0.011764919 -0.100789405 0.029140146 -0.011168814 0.03730928 0.12130979 0.035913005
-0.07698338 0.059578683 -0.12014436 0.0956011 0.025800496 0.06448161 -0.06204471 -0.012500857
0.053773817 -0.12918541 0.08053872 0.106801406 0.033252403 0.097524725 0.060065687 -0.039516944
-0.013537459 0.11351869 0.015128595 -0.09492076 0.027662339 -3.696012e-05 0.016546508 -0.04349763
-0.037798826 -0.018165031 -0.11262298 0.1239069 -0.0826372 0.06893322 -0.002782028 0.010393972
0.11558423 0.11995643 0.058065828 0.06197835 0.13273644 -0.08915306 0.10684388 -0.10470798
-0.005740726 0.09974802 0.0035539386 0.016107736 0.06977084 0.10980752 0.08849271 0.101434015
0.04846099 0.106932305 -0.024879502 0.11823285 -0.03629453 -0.10741017 -0.027585011 -0.11086386
0.10348297 -0.043499112 0.06212906 0.01526827 -0.10687979 -0.033589426 -0.0986224 0.078036025
0.00035594963 0.099716134 -0.0021721215 -0.082733504 0.015742714 0.10889784 -0.034687795 0.13672107
0.02278429 -0.06218563 0.13199595 -0.05724232 0.03987342 0.036787834 0.10078697 -0.06254484
0.015861388 -0.021557065 -0.065555274 -0.03968604 0.11376501 0.056367103 0.094476394 0.0667026
-0.015204557 -0.016325668 -0.031830788 -0.053921845 -0.0059051644 0.065570734 -0.0059023933 0.05234905
-0.102926806 0.11661863 0.13162829 -0.013607182 -0.03919281 -0.039447475 0.060076647 0.10931363
-0.07931053 0.11555203 0.020865686 -0.11602375 -0.015280252 0.05706689 -0.023087444 0.0968952
0.01369462 0.068590365 -0.06879918 0.12141774 0.103120394 0.06915954 -0.019107044 0.04935866
0.039262276 -0.013506917 -0.008737611 0.095524654 0.09928158 0.12411394 0.041015558 -0.0852892
0.015312298 -0.120139 0.12489042 -0.13074486 -0.10021421 0.093423985 -0.031683303 0.050366554
0.10223576 -0.06262104 -0.05425863 -0.058595486 -0.03675649 -0.060317084 -0.09624274 0.059965946
-0.13381551 -0.10579403 0.039239295 0.12381799 -0.07564562 0.07948791 -0.09091236 -0.07849837
-0.042722844 0.06613737 0.089373246 0.036311045 0.08053305 -0.06486271 -0.026602233 -0.0768702
0.043230988 -0.073295735 -0.06126287 -0.010996956 -0.099482015 -0.02032958 -0.08643203 -0.014096261
0.11428173 0.06831586 -0.06648648 0.115856014 0.09082924 0.086719744 -0.108468845 0.024460614
0.073741406 -0.0030906748 -0.041458357 -0.09660599 -0.07103999 0.09131949 -0.021719364 -0.03020041
0.13241974 -0.05460246 0.115042076 -0.0507087 0.03822736 0.10835773 -0.017416779 0.019130135
-0.05539765 0.10289798 0.073046334 0.06033756 -0.08106461 -0.012841155 -0.08885081 -0.10541526
0.013844814 -0.10801297 0.019265175 -0.09745493 -0.06001855 -0.006627972 0.051901005 -0.026448298
0.0467851 -0.09637528 0.112028904 0.017985111 -0.07808839 -0.010504369 0.027725702 -0.041536625

lstm.weight_ih_l0_reverse f4 [256, 32]
00000000: 6bcb 4bbd 121a cf3d 64ca 08be 0d55 a5bd
00000010: ddbb dbbc 837c e6bd 176a 32bd 8a8f 863d
00000020: 9c22 15bd 6877 da3d 75c1 4dbc ac5d e63b
00000030: 12ab d4bd 5f8a 83bd 2434 943d 1053 5f3d
00000040: b948 663c 7ca6 443c 4e15 d13d 8db5 9cbd
00000050: 6882 cfbd b825 f1bd b4af 1e3d 9f21 d83c
00000060: 8295 a53b 06bc 023e 81bd a43d dda3 b9bc
00000070: 15b3 8dbd 8afc 903d babf b83c 5ddb fa3c
00000080: 919b 3abc 95a2 833d 33fb e3bd 3897 8ebc
00000090: 97d4 debc 8c67 a9bd 947c bf3d bc23 d6bd
000000a0: 1fc7 d43c b6f8 c73b 85d4 f9bd db4c bd3d
000000b0: 942f e43c 922b cfbd cf3b 003e 6e38 503c
000000c0: 488f c73d d5e8 a03d b423 95bb 8ed3 083d
000000d0: 6955 9cbd d084 ec3d d333 49bd 21a7 7aba
000000e0: d4bc e4bd 12ab f5bd 4d3c 933c 5823 213a
000000f0: 4a36 233c 25e9 d23d 512a 0fbd fe91 0d3d
00000100: 2422 a63d 1bdf 913d 0a9d 12bc c190 93bd
00000110: fa83 26bd fe64 debd 5e4c 05bc 6f1d eb3d
00000120: eba4 5e3d bf21 07bd febc ddbd abb7 32bd
00000130: e3e3 543d e50f d1bc ef78 dbbd c34d d6bd
00000140: e5ea 8bbb 4f1c 673d 3038 abbc 962a b03b
00000150: eb70 6abd 74b3 9fbd da9b 103d f575 e7bd
00000160: d9cc a9bc 027e f2bc 87b1 b83d e9ef ebbd
00000170: e9cf 413c 6ad2 d43d 3e49 503d 4889 19bd
00000180: aa32 313d 09b6 a33d 75e1 83bd f8e1 723c
00000190: 676f aebd 3dd4 d03d c2c2 b5bd e8ad 1dbd
000001a0: 1c50 7abc 60b9 23bd 1d34 e03b 9e0b 6dbc
000001b0: e86b c33c 6ee9 04be e6e0 93bd 64d2 cabc
000001c0: c763 623c df1c d53d d377 003e 6b2f dfbd
000001d0: 5f2a 503d 7d1f 81bc 3a88 05bd 1002 aebd
000001e0: c803 e1bd 2d45 febc 96e8 933d c927 d53d
000001f0: b579 01bd 4d28 063e 1106 b53d 5b13 b8bc
00000200: ca6b 703d dd31 5f3d a5cb 84bc 8f71 083e
00000210: 5f4c 63bd 0c3c 9e3d 9e14 9ebd 4c0c 363d
00000220: 624c bd3c 8bd6 28bd 821a be3c 370d 9fbd
00000230: 5f80 8d3d 2e20 f43c c781 5abc 6226 7f3d
00000240: 3871 1a3c 4443 93bd 4b60 5bbc e9d3 8c3d
00000250: 666a f13d 09db 093d a0d9 e4bc bfb4 f3bd
00000260: 9473 5c3d 6a5b a03d fd3c 42bd 8f3f ff3c
00000270: e68e 13bd 8275 033e 56c2 c93d b4f1 d9bd
00000280: ebd4 fe3d 3f18 9b3d a0f5 fbbd be8b 0b3d
00000290: 2cd4 7639 110e b3bd b427 dd3d b7eb 493d
000002a0: 5d97 5c3d 318d 00be b746 503d 7383 c73d
000002b0: ecb1 a7bd 851f 4bbb 0ca8 01be eb4e 87bd
000002c0: abf3 4dbd c658 bb3d bbbb bd3c 0df8 cbbd
000002d0: 096a 873b 8e01 173d af5d 143d ac74 81bd
000002e0: d69b d8bd 44ad 2bbd a899 a43c 17aa 673b
000002f0: 9805 7bbd 37ed d33d eb08 acbd 8dfd b9bd
00000300: 04df ccbb 0010 8c3d 8dc2 6fbd 84e2 7a3c
00000310: d365 023e 27b9 a6bd 0b34 da3d 95dc 783c
00000320: 5eb0 80bd 01e7 77bd a53a dfbd d54e cd3d
00000330: 741b 1abd dc34 15bd e0bd b03d 0d13 f03d
00000340: 8686 eabd e873 4cbd 3cc1 8bbd 4556 f5bc
00000350: dc3e 133d 578a e63d 42fd d7bd 33f3 353d
00000360: 5e59 debd 6d85 a13c e34d e4bd 5f83 23bd
00000370: 6b42 e9bd 43c9 c2bc 4a3d 833d 6f73 93bd
00000380: e7c2 cb3c 449e ddbd 25ac a4bd 1786 fb3d
00000390: c063 ba3c 553e 193c ba66 d43d 428d 8ebd
000003a0: 0000 05be 8253 2dbd 05f7 bb3d 68fa cfbd
000003b0: 1bb9 fabd 2dba 99bd 5aec bcbb 277d b43d
000003c0: ec43 e8bd f8d4 dfbd 36e0 ddbd 118e 7dbd
000003d0: fa47 533d 376c 14bd 68a6 163d c799 b9bc
000003e0: d637 5a3d 22d8 823d 8dcb a83d c5fb acbc
000003f0: 22d8 dd3d 1dd3 aabd 188f dc3d a0f1 a6bd
-0.04975454 0.101123944 -0.13358456 -0.08072863 -0.026822979 -0.112542175 -0.043558206 0.06570347
-0.03640996 0.10667306 -0.012558331 0.0070302095 -0.103841916 -0.064228766 0.072365075 0.054522574
0.014055424 0.012002584 0.10209142 -0.076518156 -0.10132295 -0.117747724 0.038741782 0.02638322
0.005053223 0.12767038 0.080439575 -0.022661144 -0.06918923 0.07079418 0.02255236 0.030622179
-0.011389629 0.064274944 -0.11131897 -0.017406091 -0.02720098 -0.08271703 0.09349933 -0.104560345
0.025973855 0.0061026467 -0.12198738 0.09243175 0.027854718 -0.10115732 0.12522815 0.012708766
0.097441256 0.07856909 -0.0045513753 0.03340488 -0.07633478 0.115487695 -0.04912169 -0.00095616473
-0.111688286 -0.1199552 0.01797309 0.0006146929 0.009961674 0.10298375 -0.034952465 0.034563057
0.081119806 0.07122632 -0.008948574 -0.07205344 -0.040653206 -0.108591065 -0.008135883 0.114802234
0.054356497 -0.032991167 -0.10827063 -0.04363219 0.051975142 -0.025520274 -0.107164256 -0.104640506
-0.004269945 0.05642348 -0.020900816 0.0053761704 -0.057236593 -0.077979 0.03530488 -0.113017954
-0.020727562 -0.0296011 0.09018236 -0.115203686 0.011829355 0.10391696 0.0508511 -0.037484437
0.043261208 0.07993705 -0.06439487 0.014824383 -0.08517342 0.10196731 -0.08875038 -0.038495928
-0.015277889 -0.03997171 0.00684215 -0.014468102 0.023855165 -0.12979671 -0.0722063 -0.024758525
0.013817734 0.10405897 0.1254571 -0.10897716 0.05082166 -0.015762085 -0.03260062 -0.08496487
-0.10987049 -0.031038845 0.072220966 0.10407979 -0.03161021 0.13101311 0.08839048 -0.022470167
0.058696546 0.054490913 -0.016210387 0.13324569 -0.055492755 0.07726297 -0.07718776 0.04444532
0.023107711 -0.04122023 0.023206 -0.077661924 0.069092505 0.0298005 -0.013336605 0.062292464
0.0094264075 -0.07190564 -0.013389657 0.06876356 0.11787872 0.033656154 -0.027935803 -0.11899709
0.05382116 0.07829936 -0.047421444 0.031158237 -0.03602495 0.12837794 0.0985152 -0.10641804
0.12442955 0.07572984 -0.123027086 0.034068815 0.00023539428 -0.08742917 0.107985884 0.04929706
0.05385529 -0.1255386 0.05084869 0.09741869 -0.08188233 -0.003099413 -0.12661761 -0.06606849
-0.050281208 0.091477916 0.023160806 -0.09959421 0.0041325134 0.036866717 0.036222156 -0.063210815
-0.10576598 -0.041913286 0.0200928 0.0035349184 -0.06128463 0.103479795 -0.084001385 -0.09081564
-0.0062521715 0.06838989 -0.058535147 0.015312795 0.12734155 -0.08140784 0.10654458 0.01518931
-0.06283639 -0.060523037 -0.108998574 0.10024802 -0.037623838 -0.036427364 0.08629966 0.11722384
-0.114514396 -0.049915224 -0.06823966 -0.029948363 0.03594862 0.11256855 -0.10546352 0.044421386
-0.10856889 0.019716943 -0.11147668 -0.039920207 -0.11389621 -0.02377761 0.06408174 -0.071997516
0.02487321 -0.108212024 -0.080406465 0.12281435 0.022752643 0.00935324 0.10371156 -0.069605365
-0.12988281 -0.042315967 0.091779746 -0.10155183 -0.12242337 -0.07506213 -0.00576548 0.088129334
-0.1134108 -0.109292924 -0.108337805 -0.061903063 0.051582314 -0.036236014 0.03677979 -0.022656335
0.053275906 0.0638888 0.08241949 -0.021116147 0.1083224 -0.08341048 0.107694805 -0.08151555

lstm.weight_hh_l0_reverse f4 [256, 64]
00000000: fa91 a13d 2040 cebd 805e b93d d4b5 053d
00000010: ff98 793c 07ef f43c 1a22 2b3d 28c5 bd3d
00000020: 74da 123c a660 82bc a393 e53d c88c 28bc
00000030: 0d92 073e 991a fabc 6337 01bd 89db 44bd
00000040: fcda e9bd 18fa 293d 640d 8b3d 23d4 e73d
00000050: a2fc 9cbd c081 c7bd 4f00 043e 2e66 2e3c
00000060: 7990 5fbd 60e7 f539 b307 3c3d 5a9b b73d
00000070: 8c93 923d 8897 dc3c b93c d7bc 6d65 3e3d
00000080: f216 81bd 1a05 11bb 578a f93d 4f78 0f3c
00000090: 07f0 0abe ced6 a4bd da61 edbd 5703 4ebd
000000a0: 709c 0c3d 6b3f 11bd b79c c23c 3a02 d8bd
000000b0: f635 75bd 8a76 c1bd 3e91 b3bd 4c1e 94bc
000000c0: 217f e33c 079f 4ebd 6582 06bc 3997 973d
000000d0: e665 b23d f5e4 cf3c a621 f63d 873f f03c
000000e0: 92fc c03c 6e7d a23c 031b 2b3d b365 25ba
000000f0: fd51 e2bd 316d bd3d 3f95 9ebd e5a1 f23b
00000100: ed4b 193c 31c0 c0bd 3e27 34bd b2bc 173d
00000110: 04be 3c3d eb69 0abc 773e 9dbd 1a2f f2ba
00000120: e8a7 5d3c 0737 9dbc ef32 e23d a0a0 98bd
00000130: a7cb f3bd 3a23 393c 37f6 dcbd 1d0e d83d
00000140: 746a 1e3d f70d e9bd 35b4 183d 2f3b ddbd
00000150: 8cc2 fb3d 68c0 953d 9030 863d 20ce b03d
00000160: 4762 f7bd cab9 4b3c 323e d73d 7052 593d
00000170: 604e 7dbd 56ff c0bd 0aea bbbd 229b 843b
00000180: 12b5 c33d 1e37 9a3c 6174 a6bd 2412 da3d
00000190: c0b0 bbbd 572e da3d b4d9 7dbd e33a fb3d
000001a0: 2b85 5f3c f70d 693d 7d24 b9bd cb28 253d
000001b0: 9cd9 a93d 6fd2 e63d b1ab e0bc b6bf 93bd
000001c0: 2a52 83bc a2a9 e0bc 9275 49bd 24d4 c3bd
000001d0: c3ab fcbd 6546 943c d8ed 3a3d 3253 adbc
000001e0: 96b8 a7bc 56e2 13bd f034 313d df59 26bd
000001f0: 4d1d 113d b41b 803c 39ab c0bc 3a79 e83d
00000200: 9908 77bb 2a32 6abd 153e c4bd e2f0 c23d
00000210: d8cf 043e 8233 cf3c 8a5a 553a d47f e0bd
00000220: 9325 ddbd 63b2 a93d abde 8d3c 48b9 b13b
00000230: d660 1ebd 0e7b e9bd 6443 93bd 5eb5 7f3d
00000240: 77b1 babd 9037 713d c880 b43d 20d9 b738
00000250: 1491 d4bb 7ecc 07be 808c 1ebd f48f d0bd
00000260: 35a6 2abd a0b7 48bd 12cd 633d 2651 863c
00000270: d5b0 9abd 54d7 2a3d 63c0 fbbd 5996 d5bd
00000280: 246b 75b9 1a73 f0bd 2692 733b 7d2a f73d
00000290: e5bd d5bc e7a4 883d 8d9b c2bd e5a3 db3d
000002a0: 6c2b be3d 5a1a 16bd 51aa 03bd 92e0 08be
000002b0: 889e 293d d211 fb3c 4f5f 52bd 4dcc f83d
000002c0: 9c37 68bd 48e6 dcbd f71f 8a3d d7a1 16bd
000002d0: 8f8c cb3d 59cb 4f3d 913b 6a3d 32de 853d
000002e0: 67b1 afbd c90f 8b3d f2ed 8fbd e1a0 0dbc
000002f0: 98f5 e03d 35b4 593d d464 a5bd 4718 c43c
00000300: db9e a83c cfa0 1fbc 19d6 bebc 37f9 913c
00000310: 6238 fd3d 1c3f 19bd 4b2f 503d f250 2cbd
00000320: 0131 793d 3f9b 533d 00d6 f337 8aae e4bd
00000330: 2ee3 c9bc 721c 7abd ea49 ac3d 4001 23bb
00000340: a5bc c7bd 5a2e 7f3d a921 5bbd 9a06 dfbd
00000350: ed7f d2bd 4c9d d03d 62cf a03d da11 c8bd
00000360: 2944 ed3d 97c5 febd 484b bb3c 6ff0 55bd
00000370: da8c 353d 7206 5bbd e24d 08be 802d b93d
00000380: 3a0e fc3b 36ff b73d 1e8b c03d 6f43 c13d
00000390: 89dd ab3c 72ad b6bd 278c a93d 44f7 de3d
000003a0: a7b5 273d 9c36 b0bd 9a7f 9e3d 60cc e03d
000003b0: 0bad b73d d710 dcbd 1cd2 a3bd 816b a83c
000003c0: 8c08 9dbd 2405 e6bd 2aa7 dbbd 7c0c 5f3d
000003d0: b874 c93d 3124 51bd a8e1 debd f84f f9bb
000003e0: 5438 8bbc ae2d 1bbd 7657 3d3c 96f8 25bd
000003f0: 751c a2bd 1d23 19bc 563d 0a3e f0b9 8abc
0.07889171 -0.100708246 0.090512276 0.032644108 0.015234231 0.029899133 0.04178057 0.0926612
0.008963216 -0.015915226 0.112098 -0.010287471 0.13239308 -0.03053026 -0.03154696 -0.048060928
-0.11418721 0.041498274 0.067896634 0.11319759 -0.076653734 -0.09741545 0.12890743 0.010644479
-0.05458114 0.0004690243 0.04590578 0.08965178 0.071570486 0.026927724 -0.026274072 0.046483446
-0.063032046 -0.0022128285 0.12184589 0.008756711 -0.13568126 -0.08048783 -0.11590929 -0.050296154
0.034328878 -0.03546087 0.023756368 -0.105473 -0.059865914 -0.09446438 -0.08767937 -0.018080853
0.02777058 -0.05044463 -0.008209799 0.0740189 0.08710842 0.02537773 0.12018137 0.029327167
0.023557935 0.0198352 0.041773807 -0.0006309405 -0.11050794 0.09249342 -0.0774331 0.0074045532
0.009356481 -0.094116576 -0.043982737 0.03704519 0.04607965 -0.008448104 -0.0767793 -0.0018477172
0.0135288015 -0.019191278 0.11044871 -0.07452512 -0.11904078 0.011299903 -0.10789149 0.10549567
0.03867574 -0.11379617 0.037281234 -0.10802304 0.12292966 0.07312089 0.06552231 0.08633065
-0.12079292 0.012434432 0.1050991 0.053057134 -0.061842322 -0.094237015 -0.09175499 0.0040468136
0.09556021 0.01882511 -0.08127666 0.10647991 -0.09164572 0.1065337 -0.061975196 0.12267091
0.01364259 0.056898084 -0.09040163 0.040322106 0.08293459 0.11270606 -0.027425619 -0.072143
-0.01603039 -0.027424637 -0.04918439 -0.09561947 -0.123374484 0.018099973 0.04563698 -0.021157835
-0.02047376 -0.036104523 0.043263376 -0.04061305 0.035428334 0.01563821 -0.023519145 0.11351247
-0.0037694334 -0.057176746 -0.09582154 0.09518601 0.12969911 0.025293116 0.00081387965 -0.10961881
-0.10798182 0.08285978 0.01731809 0.0054236986 -0.03866657 -0.11400424 -0.07190588 0.062428825
-0.0911588 0.05889088 0.088136256 8.766563e-05 -0.006487021 -0.13261601 -0.03870821 -0.10183707
-0.041662414 -0.049003243 0.055615492 0.016396116 -0.07553259 0.04170926 -0.12292554 -0.10429067
-0.00023404934 -0.11740704 0.0037165969 0.12068651 -0.026091525 0.066720776 -0.09502325 0.1072462
0.09285626 -0.036646225 -0.03214485 -0.13366917 0.041410953 0.030648146 -0.051360425 0.12148342
-0.05669366 -0.1078611 0.06744378 -0.036775436 0.09938919 0.050731037 0.057185713 0.06536521
-0.08578759 0.0679012 -0.07027806 -0.008644314 0.10984343 0.053150374 -0.08075872 0.023937358
0.02058356 -0.00974293 -0.02329545 0.01781903 0.1236427 -0.0374137 0.050826352 -0.042069383
0.06083775 0.051661726 2.9067509e-05 -0.11166103 -0.02464446 -0.061062284 0.084125355 -0.0024872571
-0.09752778 0.062300064 -0.053498898 -0.10889931 -0.10278306 0.10186252 0.07852055 -0.0976903
0.11585266 -0.12440031 0.022863045 -0.05223125 0.04432378 -0.053472944 -0.1331096 0.090418816
0.0076921256 0.089842245 0.094015345 0.0943669 0.02097966 -0.08919801 0.08278685 0.10887006
0.04094472 -0.08604166 0.07739182 0.109764814 0.08968552 -0.107453994 -0.079990596 0.020559074
-0.07667646 -0.11231449 -0.107252434 0.054455265 0.098367155 -0.051059905 -0.10882884 -0.00760841
-0.016994633 -0.03788536 0.011556497 -0.040520273 -0.07915584 -0.009346751 0.1349996 -0.016934365

lstm.bias_ih_l0_reverse f4 [256]
00000000: a863 303c bbfa 88bd 63cd f53d e6b9 c1bc
00000010: fdc9 b8bd fb13 aa3d 7f51 a33d 9954 7e3c
00000020: 7239 aabd 53b6 90bd d5b6 51bc be5a 4b3d
00000030: b9c1 e3bd 11f9 bbbd 0d46 be3d a907 a4bc
00000040: c523 98bb 252e 87bd 89ae 603b 2a68 fdbc
00000050: 3d14 d13d 4a20 a13c bf6f efbc 389d a63d
00000060: 91c9 db3d 7275 6fbd d239 bc3d a20c dabd
00000070: d96d c4bc d079 73bd 6af2 e7bc 80de d9bd
00000080: b5d5 c3bd 89af a1bd 2de7 cc3d a861 f13d
00000090: 0188 29bd b8f2 0c3c 505e 9e3d 643f 17bc
000000a0: 48e7 553d 33ea 043b 8db4 92bd 9462 863d
000000b0: a5eb 073e 0327 55bd a58a f0bc 7eaf 9ebb
000000c0: eb45 e63d 8814 ff3b 5fb4 a0bd 2553 f9bc
000000d0: b6c4 733b 11de 5ebd dc52 1f3d d3cb fdbd
000000e0: 2c57 0e3d 6d0d 6b3d 4d39 b0bb 5d0b 193d
000000f0: 4b38 bebc 5a73 87bd 9311 023d 4827 ab3d
00000100: 3af5 10bd 57bf 6c3d f690 cbbd f45d 053e
00000110: 58b8 93bd 83ea a33c 3808 773d 5a95 883d
00000120: d3bc b7bd 4688 d8bd 1a63 233c e079 bdbd
00000130: 6197 b3bd f5b3 9cbd 0725 64bd 0b7a 9c3d
00000140: 2663 fb3d ae3c 03be 04b7 c33c ca0b 9fbc
00000150: c504 9bbd e360 9a3d 25a0 9dbd c17e 9abd
00000160: 4173 afbd 88ec 8b3c 4395 693d d9c5 80bd
00000170: 51cb a5bd 5845 a33d 24d9 14bb 8635 ecbd
00000180: fae0 1cbd ec25 3fbc 6068 ed38 4fca 703d
00000190: a9f6 053e 2b63 9fbd 0221 fa3b d7dc bcbc
000001a0: 37b4 bdbd 31fc 883d 2da6 dc3c 9e83 7e3c
000001b0: d605 d7ba ba7a 7fbd cc9a f23d 89e5 50bd
000001c0: b398 37bc 5585 ee3d 2743 d63d f808 f2bd
000001d0: 649d 393d a607 c4bd 3a1e 823d 005e 3dbd
000001e0: 1e6d 143c 7007 12bb 2497 e5bd c430 4abd
000001f0: 7634 92bd e51a c63d 5588 973d e8de f1bd
00000200: 9d42 873c 2bb8 f93c 3cfc eebc 9e53 ee39
00000210: 8aeb 80bd 5498 da3c d6ad 6a3d e2f0 a4bd
00000220: ef4a a43d 6b32 793d 3585 b9bd 7391 743c
00000230: 7297 ac3d 30c8 29bd aa1c 573d deaa 1e3c
00000240: aa3e 18bd 283a 343d ae35 ccbd 3576 bc3d
00000250: 37fb 5bbd f1ac 18bd 04eb 2c3c e6ad ec3d
00000260: 14e2 073e c0d2 ac3d 71f3 4cbd 0699 de3c
00000270: a806 cdbd afbc 143d 3f76 ff3d 0fda 9cbd
00000280: 4d80 463d 10df bb3d 7916 c2bc f7c1 973d
00000290: d0d3 323d 4381 a8bd 7841 99bb 7f8e bdbd
000002a0: 0012 9c3c a269 a9bd 79e0 753a f060 113d
000002b0: 8efb 4c3d 1e45 6d3d 3ce8 6ebd 4954 ecbb
000002c0: 4c77 963c 0190 dabd d41a e63c acf9 45bd
000002d0: feba 84bb 4b6f e8bd 5e5b 1d3d 167f d5bd
000002e0: 1f65 8ebd 7171 e8bd 93d9 ef3d d651 073d
000002f0: e405 b03d 214e d6bc b94d ea3d d753 b6bc
00000300: d312 32bd 807f cb3d b272 80bd 89ab 10bc
00000310: 2884 933c f278 babc f34f 5fbd 230f a53d
00000320: 6dea 443d f725 b8bd bf57 a33b 3d15 473d
00000330: 9bf7 1e3d 3007 09be 165e 053e a574 153d
00000340: d39e c8bd b00c 7f3d 8e00 913d e27a 8d3c
00000350: 46fd c0bd 6073 c3bd 4496 11bd 83ea 98bd
00000360: 2dae e1bc 9aff e43d 8c22 b43c ebfd d73d
00000370: a6e8 4f3d 0f78 aebd 4f02 803d df73 97bd
00000380: 5ce7 cd3c 42d7 5d3d 5484 61bd dd87 1abd
00000390: 4976 d93d 0d8b bebd e665 99bd f779 1d3d
000003a0: ef38 c53d 5c56 a03d 5e77 db3d f674 473b
000003b0: 3c81 b8bd a2f3 163d 1ada 6b3c d886 ac3d
000003c0: fa54 18bd 3800 d53d acc8 4ebd 693f 843d
000003d0: 869c be3d fa5a 9fbd 0f55 ad3d 5069 e03c
000003e0: 3d20 953d 5e98 d4bd c08c e5bd 0a8f 4bbb
000003f0: 6973 01bd d64a 083d e7fe 273d 9047 b03c
0.010765947 -0.06688448 0.12002065 -0.023648214 -0.09022901 0.08304592 0.079745285 0.015523099
-0.08311738 -0.070660256 -0.012799938 0.049647085 -0.11120934 -0.09178365 0.09290705 -0.020023184
-0.004642936 -0.06600598 0.0034283719 -0.030933458 0.10208938 0.019668717 -0.02922809 0.08135456
0.10731805 -0.058461614 0.09190716 -0.10646941 -0.02397816 -0.05944234 -0.028313834 -0.10638142
-0.09562246 -0.07894809 0.10005031 0.117862046 -0.04138947 0.008602791 0.077328324 -0.009231422
0.05222252 0.0020281195 -0.071633436 0.06561771 0.13273485 -0.052039158 -0.029362986 -0.0048426976
0.112438045 0.00778443 -0.07846903 -0.030435154 0.0037196106 -0.054410998 0.03889738 -0.12392392
0.034751102 0.05738585 -0.0053779245 0.037364352 -0.023220202 -0.066137984 0.03175504 0.08357102
-0.035390116 0.057799663 -0.099397585 0.13024122 -0.07212895 0.020009285 0.060310572 0.066691115
-0.08971562 -0.10572867 0.009972358 -0.092517614 -0.087691076 -0.076515116 -0.055699375 0.07640465
0.122747704 -0.12816116 0.02389098 -0.019414801 -0.07569269 0.07538011 -0.07696561 -0.07543708
-0.08566905 0.01708056 0.057027113 -0.062877364 -0.0809542 0.07972211 -0.0022712434 -0.11533646
-0.038300492 -0.011666756 0.00011320482 0.058786687 0.13082375 -0.07782587 0.0076333294 -0.023054523
-0.09262889 0.06688727 0.026934708 0.01553431 -0.0016404937 -0.0623729 0.118459314 -0.05100015
-0.01120584 0.11646525 0.10462027 -0.11818117 0.045316115 -0.09571771 0.063534215 -0.046232224
0.009059219 -0.0022282265 -0.112104684 -0.049362913 -0.071389124 0.096730985 0.0739905 -0.11810094
0.016511256 0.030483326 -0.02917301 0.00045457197 -0.062949255 0.026683964 0.05729469 -0.08053757
0.08022105 0.060839098 -0.0905861 0.014927256 0.084273234 -0.04145068 0.05251757 0.009684293
-0.037169136 0.044000775 -0.09971176 0.09202234 -0.053706374 -0.037274305 0.010554079 0.11556606
0.13269836 0.08438635 -0.05003685 0.027172577 -0.10011035 0.036312755 0.124737255 -0.07658779
0.0484622 0.09173405 -0.023692356 0.07410043 0.04365903 -0.0822778 -0.004676994 -0.092556946
0.019051552 -0.08272101 0.00093794573 0.035492837 0.05004459 0.057927243 -0.058326945 -0.007212196
0.018367432 -0.10671998 0.028088965 -0.04833381 -0.0040506115 -0.113493524 0.038417213 -0.1042463
-0.06952881 -0.11349762 0.11711421 0.03303703 0.085948735 -0.026160302 0.11440606 -0.022256775
-0.043474983 0.09936428 -0.062718764 -0.00882996 0.018007353 -0.02276275 -0.054519605 0.08059528
0.04807513 -0.08991616 0.0049848254 0.04860424 0.038810354 -0.13381648 0.13024172 0.036488194
-0.09795918 0.06226796 0.07080184 0.01727051 -0.09423308 -0.095434904 -0.035543695 -0.074666046
-0.027548874 0.11181565 0.02198913 0.10546478 0.05075898 -0.08518993 0.0625044 -0.073951475
0.025134735 0.054160364 -0.05505784 -0.037727226 0.10618264 -0.093038656 -0.07490139 0.038446393
0.0963 0.07828972 0.10716127 0.0030434704 -0.090090245 0.03685344 0.014395261 0.08424157
-0.037190415 0.10400432 -0.050484344 0.06457407 0.09307198 -0.07781024 0.08463489 0.027393967
0.072815396 -0.10380624 -0.112084866 -0.00310606 -0.031604204 0.033274494 0.04101458 0.021518499
