SecPPIS/output/model_epoch_4.pth (torch, 222997 bytes, 12 tensors)

embedding.weight f4 [8, 32]
-0.023923516 -0.9691316 -0.35625356 1.2490509 -0.122089095 1.9233781 -0.13019018 2.0701137
-0.9208864 -0.69860554 0.35575324 1.960757 -2.2944174 -0.09192371 -0.08417709 -0.41469657
1.2326639 -1.8193333 0.35359284 -1.4390596 1.8563944 -0.52001077 0.1969143 -0.09634678
-0.7505279 1.2483641 -0.26899412 -0.053892884 0.30919144 1.5470695 1.0003371 -0.53609234
1.3139744 0.62791777 -1.0124552 1.3581241 -0.83194447 0.122079305 -0.4774587 1.0207719
-1.1202818 0.84017 0.41578826 1.9402021 0.6402568 0.4814803 0.104334265 1.1328897
0.6649295 -1.9857616 0.65651935 -1.1745435 -0.48815274 0.08385557 -0.67539066 0.23173015
-0.01177175 0.012274692 -1.0424948 -0.4843708 -0.5791927 -0.4038717 -2.43164 0.3749176
-0.10185993 -1.6125339 1.1304901 1.1859139 -1.4617016 1.3703555 -0.13750932 -0.5891298
1.2334925 0.44556105 0.013962777 -1.3755584 1.6358963 0.31304935 0.45498472 -1.2573179
0.1695561 -1.5672642 -0.78647095 -0.8104638 -0.76720446 -2.1654432 0.17987314 -1.5342258
-1.7773794 0.780878 -0.19746913 0.37701705 0.12114789 0.85797954 0.10805688 -0.30146205
1.3707777 -0.034870576 0.18493034 1.083144 -0.97059673 -0.60320884 0.6023526 -0.30530426
-0.15907504 -0.34574562 -0.3042309 0.23814471 0.8567593 -1.1077378 -0.35834268 -0.61914414
-0.6392953 -0.86582583 1.359511 0.16936168 0.79843986 0.79921985 -0.20281495 3.0431216
-0.27470404 1.8111503 1.3249285 1.4261335 -1.0755368 -2.7465472 -0.94981337 1.4315276
0.42000395 -1.4442735 0.7214978 1.4021503 -0.48814762 -0.51152235 -0.78528637 1.0505232
0.8661389 0.6338793 0.35114196 -1.2175318 -0.20794588 0.82300234 -2.1285791 -1.7750988
2.1714144 0.25625882 1.8970214 -1.0848354 -1.8993777 -0.5357685 -1.2281156 -1.1330565
0.5731572 -1.5276139 -1.7386827 1.6320139 -0.5340682 2.0594072 -0.97084475 -0.18080503
0.79304236 0.041033313 0.06264442 0.06893658 0.13357684 1.934652 1.1798267 -0.31300256
0.24985512 0.7899802 -1.8921593 0.09994842 -0.8553627 -1.8252851 1.7153385 0.36542034
-0.5294612 2.6214507 0.94721746 0.38785407 0.033218216 0.3761196 0.28991482 -0.4214265
-1.4822364 0.49738768 0.3811697 1.1559937 -0.1518575 0.24631813 0.65224946 0.1580271
-0.051281422 2.5795805 -1.2057761 -0.39277634 -0.36688307 0.50427103 0.1932779 1.4505603
0.6261375 -0.92855495 -0.19929348 0.068642765 0.3606072 1.0825236 -1.1415668 2.6945043
0.51864433 -1.6576641 0.23390716 0.7298521 1.0995255 1.2985841 -1.9035971 -1.3498669
-0.79986584 0.40831354 -1.6233939 -0.33380616 -1.2621086 0.12600225 -0.47058755 -0.7278493
0.15014333 0.06239775 0.03855 -0.7586792 -1.2112145 0.20209506 -0.14771149 -1.4481155
-1.4580483 -0.95833075 -1.2416754 0.05002973 0.8762511 0.22761698 -2.1338267 -0.09522764
-0.21630587 0.45533487 -0.042141814 -1.9938141 -0.46802497 -0.12923793 -1.2528403 0.0014857803
-1.072101 0.88876045 1.3698125 0.25034747 -0.88940704 -0.060259696 -0.18600808 0.6694713
00000000: 40fb c3bc 0219 78bf de66 b6be e6e0 9f3f
00000010: d909 fabd 4131 f63f 9350 05be be7c 0440
00000020: 36bf 6bbf d0d7 32bf 4a25 b63e 16fa fa3f
00000030: bcd7 12c0 8042 bcbd 0a65 acbd 1c53 d4be
00000040: eec7 9d3f eadf e8bf 1f0a b53e 1b33 b8bf
00000050: 559e ed3f 6d1f 05bf e7a3 493e 7651 c5bd
00000060: 9922 40bf 65ca 9f3f 99b9 89be c9be 5cbd
00000070: 574e 9e3e 6006 c63f 0c0b 803f 593d 09bf
00000080: 5030 a83f 38bf 203f 2298 81bf 03d7 ad3f
00000090: 50fa 54bf b704 fa3d 7775 f4be a7a8 823f
000000a0: 6565 8fbf 6215 573f 33e2 d43e 8b58 f83f
000000b0: dfe7 233f 9684 f63e 34ad d53d 8802 913f
000000c0: d238 2a3f 702d febf a711 283f 7157 96bf
000000d0: 28ef f9be 78bc ab3d 67e6 2cbf ab4a 6d3e
000000e0: 4cde 40bc ca1b 493c 7870 85bf 73ff f7be
000000f0: f945 14bf 45c8 cebe fd9f 1bc0 33f5 bf3e
00000100: f09b d0bd 8367 cebf e6b3 903f 07cc 973f
00000110: 0a19 bbbf cf67 af3f 3ecf 0cbe 36d1 16bf
00000120: 15e3 9d3f 9420 e43e 22c4 643c 4c12 b0bf
00000130: 0d65 d13f 0148 a03e c2f3 e83e cbef a0bf
00000140: 1da0 2d3e 1d9c c8bf 2956 49bf 8e7a 4fbf
00000150: 8367 44bf 9f96 0ac0 aa30 383e 8361 c4bf
00000160: 2b81 e3bf 9fe7 473f 5935 4abe 6108 c13e
00000170: 631c f83d 8ca4 5b3f ed4c dd3d 3c59 9abe
00000180: a575 af3f 73d4 0ebd 615e 3d3e 76a4 8a3f
00000190: 0779 78bf e56b 1abf c833 1a3f d750 9cbe
000001a0: 91e4 22be 9205 b1be 27c4 9bbe 35dc 733e
000001b0: 9454 5b3f 5aca 8dbf b178 b7be 3b80 1ebf
000001c0: dba8 23bf c3a6 5dbf 7504 ae3f 266d 2d3e
000001d0: 8e66 4c3f ac99 4c3f b9ae 4fbe 81c2 4240
000001e0: 02a6 8cbe c6d3 e73f 4297 a93f 8b8b b63f
000001f0: 31ab 89bf 6ec7 2fc0 f826 73bf 4c3c b73f
00000200: c20a d73e f4dd b8bf 14b4 383f a979 b33f
00000210: 7cee f9be 21f3 02bf 8708 49bf 8b77 863f
00000220: 47bb 5d3f ea45 223f e1c8 b33e 15d8 9bbf
00000230: c4ef 54be 48b0 523f a43a 08c0 7036 e3bf
00000240: 74f8 0a40 5b34 833e 99d1 f23f e3db 8abf
00000250: cf1e f3bf 2028 09bf e432 9dbf ff07 91bf
00000260: 6eba 123f da88 c3bf 288d debf d5e5 d03f
00000270: b2b8 08bf 54cd 0340 4889 78bf f424 39be
00000280: d304 4b3f 8c12 283d b84b 803d 9f2e 8d3d
00000290: 5ec8 083e ada2 f73f 9004 973f df41 a0be
000002a0: 05da 7f3e 243c 4a3f 4732 f2bf c2b1 cc3d
000002b0: 0df9 5abf f1a2 e9bf 3690 db3f 6018 bb3e
000002c0: c58a 07bf d9c5 2740 d87c 723f cf94 c63e
000002d0: d30f 083d c092 c03e b76f 943e 37c5 d7be
000002e0: ecb9 bdbf 99a9 fe3e ad28 c33e 9af7 933f
000002f0: 8880 1bbe d23a 7c3e d2f9 263f dbd1 213e
00000300: 780c 52bd d917 2540 df56 9abf fb19 c9be
00000310: 19d8 bbbe e817 013f a4ea 453e f6ab b93f
00000320: 8c4a 203f c7b5 6dbf 9713 4cbe 9494 8c3d
00000330: 82a1 b83e 2290 8a3f dc1e 92bf c272 2c40
00000340: e0c5 043f 562e d4bf 5c85 6f3e 96d7 3a3f
00000350: 40bd 8c3f 0138 a63f 12a9 f3bf 70c8 acbf
00000360: 02c4 4cbf 790e d13e 5fcb cfbf a4e8 aabe
00000370: c68c a1bf bc06 013e daf0 f0be 5554 3abf
00000380: 2cbf 193e c894 7f3d 9be6 1d3d cd38 42bf
00000390: 1409 9bbf 02f2 4e3e ae41 17be d95b b9bf
000003a0: 54a1 babf 2a55 75bf 38ef 9ebf f9eb 4c3d
000003b0: fe51 603f 6d14 693e 9e90 08c0 b506 c3bd
000003c0: 497f 5dbe a721 e93e e59c 2cbd 4d35 ffbf
000003d0: f8a0 efbe f356 04be 125d a0bf 84be c23a
000003e0: 9b3a 89bf ce85 633f 0456 af3f 8b2d 803e
000003f0: 2eb0 63bf dfd2 76bd e778 3ebe 7962 2b3f

lstm.weight_ih_l0 f4 [256, 32]
-0.11547813 0.0621294 -0.054803967 -0.010576221 -0.028107414 0.11877221 -0.084837146 -0.05458131
-0.09182021 -0.012413651 0.07910892 -0.003082571 0.024392037 -0.0060636583 0.04585512 -0.062241957
0.05981933 -0.006808054 -0.060102414 0.03801137 -0.0072835847 0.08114603 0.07665509 -0.075384356
0.049992673 0.09839453 0.086471565 -0.08066811 -0.0968303 -0.049080994 0.13993359 0.07979365
-0.049888875 0.08388372 0.003548629 0.13542809 0.00037322505 0.11462245 -0.007670255 0.14322056
-0.11365979 0.02540972 -0.0277391 -0.08524844 0.022148564 0.043603472 0.094905406 -0.08959921
-0.0013171206 -0.03896853 -0.05335101 -0.014681198 0.1334917 -0.10248658 0.11524285 0.08612583
0.040360942 -0.063413754 0.09758696 0.06686117 -0.069243245 -0.102320746 0.012703006 0.07123227
0.100135304 -0.13920225 -0.05832787 -0.09562606 0.0981611 -0.05452633 0.053098235 0.037718575
-0.084277935 0.014813011 0.014256341 -0.045837764 0.049627397 -0.13848794 0.043520857 -0.068648055
0.112264775 -0.0703858 0.1306415 -0.013010976 -0.08176591 0.03701138 -0.016368393 0.07774864
-0.024786524 -0.09810283 -0.08169527 0.0155726 -0.095705606 0.022144098 0.123037025 -0.036583718
-0.1427706 -0.10503112 -0.10935813 0.05552299 0.10259213 -0.041648306 0.027678387 -0.080528
-0.0046837227 -0.10755813 -0.07852531 0.043376178 0.030732509 0.07203117 0.04113528 0.03039553
-0.075838044 0.065818354 -0.024293639 -0.1407387 -0.097824074 0.009669104 -0.0973542 -0.048638415
0.061132293 0.030337006 0.075308874 0.094194 -0.055585124 0.1378852 0.08076343 0.05979829
0.10339389 -0.11934669 0.0059613497 -0.024549933 -0.07315756 -0.10396661 0.042182848 -0.079285
-0.13216156 -0.054358073 0.09594093 0.14330909 0.020503651 0.08646637 -0.07510554 -0.034781132
-0.0035152228 0.029920485 -0.014335149 -0.13932317 0.00199888 -0.08837726 -0.04643585 -0.07577777
0.013901978 0.09807856 -0.020854618 -0.12799692 0.080201484 -0.07646517 0.0010227875 -0.054865953
-0.08364161 0.0708161 -0.023370206 0.04986555 0.04941297 -0.040146355 0.04802111 -0.11402129
0.0076967073 0.123321675 -0.036795482 -0.09655587 0.08560536 0.039541412 -0.07050988 -0.031341624
0.07457046 0.03194821 -0.052107893 0.058983307 -0.12121215 -0.06713264 0.041370865 0.08093052
0.0063740634 0.07138485 0.004160244 0.055060014 -0.020894727 0.09834565 -0.011912448 -0.021551985
-0.0966733 -0.07819265 -0.07713222 0.14089176 0.0026882351 -0.06919692 -0.103025794 0.04630987
-0.07346147 0.09894794 0.09221199 -0.08627191 -0.08235638 -0.0050417897 -0.10565581 0.06229948
0.021784252 -0.049839202 -0.060247626 0.059377674 0.015737718 -0.10220519 0.098695144 0.11266192
-0.10087302 0.06878015 -0.13686243 -0.011920594 0.0806779 0.008093869 -0.0030880822 -0.08626486
0.03473905 0.019569958 0.08744046 0.08060236 0.012224116 0.10477756 -0.10205069 -0.06299549
0.077946946 0.00043936918 0.017210994 0.0027016036 0.08950267 -0.09630045 -0.01650114 0.0159328
0.090752736 0.076697946 0.054151118 -0.047740895 0.019904813 -0.02864532 -0.055339 -0.06605252
-0.066952266 0.06180374 0.10403154 -0.05278101 -0.008858819 -0.108060345 -0.083079934 -0.09738629
00000000: cc7f ecbd 667b 7e3d 207a 60bd e347 2dbc
00000010: 8541 e6bc d83e f33d 19bf adbd a790 5fbd
00000020: 3c0c bcbd a062 4bbc dc03 a23d f604 4abb
00000030: cfd1 c73c a7b1 c6bb 94d2 3b3d 6cf1 7ebd
00000040: 1d05 753d 1916 dfbb f32d 76bd cfb1 1b3d
00000050: 23ab eebb e42f a63d 58fd 9c3d 1d63 9abd
00000060: 1ec5 4c3d 1283 c93d 0118 b13d 5235 a5bd
00000070: f74e c6bd 2709 49bd c04a 0f3e da6a a33d
00000080: 4758 4cbd 3acb ab3d 1e90 683b a9ad 0a3e
00000090: 6bad c339 2dbf ea3d c356 fbbb 69a8 123e
000000a0: 77c6 e8bd 0c28 d03c 1c3d e3bc bc96 aebd
000000b0: e870 b53c 8e99 323d c45d c23d ca7f b7bd
000000c0: 3ca3 acba 779d 1fbd 9786 5abd 6889 70bc
000000d0: 0cb2 083e 7ce4 d1bd 7104 ec3d bd62 b03d
000000e0: 8451 253d 12df 81bd acdb c73d 82ee 883d
000000f0: 67cf 8dbd 8a8d d1bd 4520 503c 39e2 913d
00000100: bd13 cd3d 098b 0ebe 34e9 6ebd 99d7 c3bd
00000110: b008 c93d 0057 5fbd 897d 593d cb7e 1a3d
00000120: e999 acbd 45b2 723c 6e93 693c 61c0 3bbd
00000130: 1946 4b3d c8cf 0dbe ed42 323d 5a97 8cbd
00000140: 13eb e53d 6e26 90bd e3c6 053e fd2b 55bc
00000150: e374 a7bd 3f99 173d 0217 86bc ae3a 9f3d
00000160: 1c0d cbbc 23ea c8bd da4f a7bd 3824 7f3c
00000170: 4d01 c4bd 8a67 b53c d6fa fb3d cfd8 15bd
00000180: 7532 12be 8e1a d7bd 28f7 dfbd 136c 633d
00000190: d31b d23d 6a97 2abd c9bd e23c ddeb a4bd
000001a0: ea79 99bb 7047 dcbd e1d1 a0bd 38ab 313d
000001b0: bec2 fb3c 1485 933d 787d 283d 0c00 f93c
000001c0: fa50 9bbd c6cb 863d 7403 c7bc ce1d 10be
000001d0: fd57 c8bd 296b 1e3c a461 c7bd 1339 47bd
000001e0: db65 7a3d 5085 f83c 8a3b 9a3d c9e8 c03d
000001f0: 3aad 63bd c731 0d3e 4c67 a53d 0def 743d
00000200: 2dc0 d33d 0a6c f4bd 6d57 c33b f11c c9bc
00000210: a1d3 95bd 72ec d4bd ecc7 2c3d 2d60 a2bd
00000220: 5c55 07be 92a6 5ebd ae7c c43d 9ebf 123e
00000230: 46f7 a73c 4815 b13d efd0 99bd a976 0ebd
00000240: a75f 66bb ce1b f53c f9dd 6abc bcaa 0ebe
00000250: a4ff 023b 23ff b4bd 8533 3ebd 6031 9bbd
00000260: 1fc5 633c 69dd c83d 4ed7 aabc a011 03be
00000270: ad40 a43d c599 9cbd 0e0f 863a 1fbb 60bd
00000280: 4b4c abbd 0808 913d e072 bfbc d23f 4c3d
00000290: 4165 4a3d 8170 24bd c9b1 443d fe83 e9bd
000002a0: a934 fc3b 1390 fc3d dcb6 16bd 15bf c5bd
000002b0: dd51 af3d 2df6 213d 7c67 90bd 1360 00bd
000002c0: 66b8 983d 20dc 023d 166f 55bd 7b98 713d
000002d0: 133e f8bd d67c 89bd 7f74 293d e7be a53d
000002e0: 85dd d03b 3832 923d a852 883b 9c86 613d
000002f0: 6b2b abbc 7269 c93d 6e2c 43bc ca8d b0bc
00000300: a7fc c5bd 7823 a0bd 7ff7 9dbd ee45 103e
00000310: 1a2d 303b 1db7 8dbd 30ff d2bd 6baf 3d3d
00000320: f872 96bd 38a5 ca3d a4d9 bc3d 54af b0bd
00000330: 76aa a8bd 9935 a5bb 1362 d8bd bd2d 7f3d
00000340: e374 b23c 3124 4cbd 37c6 76bd 0136 733d
00000350: 63ec 803c f450 d1bd ae20 ca3d 4bbb e63d
00000360: 8496 cebd 9bdc 8c3d aa25 0cbe 984e 43bc
00000370: 743a a53d 269c 043c 6c61 4abb a2ab b0bd
00000380: 894a 0e3d 2d51 a03c fc13 b33d da12 a53d
00000390: a947 483c 9e95 d63d f4ff d0bd c803 81bd
000003a0: a6a2 9f3d 225b e639 12fe 8c3c 630d 313b
000003b0: 2d4d b73d 2c39 c5bd 662d 87bc 8185 823c
000003c0: 92dc b93d d013 9d3d 90cd 5d3d f58b 43bd
000003d0: 6b0f a33c 97a9 eabc 26ab 62bd 8b46 87bd
000003e0: 451e 89bd eb25 7d3d 7d0e d53d e630 58bd
000003f0: 9424 11bc be4e ddbd d025 aabd 7772 c7bd

lstm.weight_hh_l0 f4 [256, 64]
-0.0101571195 0.027352137 -0.08338574 -0.111367166 0.085854426 0.009531411 -0.10007239 0.07929824
0.08075971 -0.07505901 -0.049726404 0.054220982 0.005459513 -0.10616666 -0.013708187 -0.026842026
-0.03878042 -0.009762033 0.041410577 0.070578426 -0.11835137 0.06772538 0.0085740285 0.032506578
0.07882022 0.019403953 -0.09524691 0.106124595 -0.041152984 -0.09189275 0.13886124 0.036237992
-0.11519519 0.018124297 -0.03965719 0.12779513 0.060817968 -0.07653645 0.053356927 0.12424591
0.0551175 -0.029381717 0.033050343 0.0064012497 0.06652675 0.06107629 -0.023186836 -0.028116168
-0.034015156 0.13769984 -0.04611077 0.03645107 -0.07236364 0.061224442 -0.101170935 0.104377314
-0.01150051 0.08891404 -0.07882824 0.08141691 -0.0044594165 0.09245681 -0.007233905 -0.037799615
0.127153 0.069718964 -0.10117433 0.029846283 0.115061745 0.09742745 -0.11431165 -0.04579039
-0.08566024 -0.08926306 0.056431096 -0.06783261 0.09069223 -0.08954243 -0.09709368 -0.073870905
-0.095162876 0.06934133 -0.08598341 -0.08883163 0.0038343398 -0.081834786 0.022255499 0.075912945
0.081374474 -0.035786875 -0.009502924 -0.014061398 0.014128495 0.13809071 -0.013065837 -0.038404863
-0.10055232 -0.09436608 0.06058456 -0.07571628 0.03216653 0.12296525 -0.12401153 0.052627083
0.010699697 0.034350786 0.073832065 0.043203533 0.08386845 -0.050659724 0.048176803 0.0025959
-0.025135081 -0.011355935 0.13149562 0.009130993 0.015607636 -0.1264002 0.06559197 0.05316868
-0.08155595 -0.020136252 0.006424303 -0.0068428796 -0.13164671 -0.053395003 -0.090119846 -0.046598956
0.039348062 0.096723214 0.13038458 -0.006719737 0.02039753 0.07130904 -0.100096345 0.14041585
0.013177296 -0.024848213 -0.043211456 0.044869248 -0.066873275 0.049863733 -0.101302974 0.0130302375
-0.12137756 -0.02855553 -0.122876965 0.0019409815 -0.0679688 0.028299047 0.10661342 0.032690153
0.11104424 0.008977526 -0.057890404 0.011488372 -0.094551444 -0.031030755 0.07361443 0.07089875
-0.025346199 -0.12415774 0.061522726 -0.053691242 -0.016146008 0.063311905 -0.1253412 0.010764898
0.02175275 -0.10290384 0.096586734 -0.104254484 0.0058416612 0.10853149 -0.020198781 0.0078088706
0.026564965 -0.047124412 0.11918564 0.073269606 -0.045498718 0.013140025 0.023952479 -0.022994962
-0.055460885 -0.1059044 -0.014264964 0.12976375 0.07663463 -0.10513816 0.07969924 0.07981201
-0.026773617 -0.12645935 0.0929519 0.04897557 -0.040677186 -0.08266121 0.051399477 -0.056673054
0.02952845 0.08704749 -0.06583191 -0.026569504 0.04982762 -0.0017569491 0.09422608 0.13670199
0.018542465 0.03331216 -0.01232453 0.09769337 -0.09818106 -0.055236537 -0.0409903 -0.025469521
0.06939271 -0.05541118 0.0043380386 -0.100507684 0.061871205 -0.06570883 -0.04762962 -0.0057722437
0.057437856 0.09998081 -0.042260733 -0.10040816 0.034238737 0.11560175 0.05912533 -0.054759707
-0.1320043 -0.035387382 0.08295838 -0.071015514 -0.11950772 -0.01476423 -0.13520513 -0.07392344
-0.089411855 0.112336375 -0.01622597 0.09551775 0.09549818 -0.07795096 0.10287636 0.036274537
-0.119956575 0.06605216 0.03256171 -0.04390742 -0.040315457 0.07168776 0.01643549 0.015826108
00000000: 0c6a 26bc 9711 e03c 25c6 aabd 7814 e4bd
00000010: 72d4 af3d a329 1c3c c1f2 ccbd 1e67 a23d
00000020: 5965 a53d 8ab8 99bd eaad 4bbd d216 5e3d
00000030: b7e5 b23b e86d d9bd 4e98 60bc cfe3 dbbc
00000040: 38d8 1ebd eff0 1fbc 239e 293d 6c8b 903d
00000050: 3462 f2bd 9bb3 8a3d 157a 0c3c 9e25 053d
00000060: 7f6c a13d 0af5 9e3c d010 c3bd da57 d93d
00000070: 0890 28bd 4432 bcbd a431 0e3e 4a6e 143d
00000080: 75eb ebbd 6879 943c 946f 22bd badc 023e
00000090: 431c 793d 24bf 9cbd cb8c 5a3d a474 fe3d
000000a0: e3c2 613d edb1 f0bc cc5f 073d 93c1 d13b
000000b0: 2d3f 883d 222b 7a3d 52f2 bdbc e153 e6bc
000000c0: 7a53 0bbd 3001 0d3e a6de 3cbd b84d 153d
000000d0: 6333 94bd 7bc6 7a3d b532 cfbd c6c3 d53d
000000e0: a36c 3cbc 9018 b63d b370 a1bd e9bd a63d
000000f0: 4c20 92bb ff59 bd3d 650a edbb c5d3 1abd
00000100: 6534 023e d1c8 8e3d 7d34 cfbd 3180 f43c
00000110: 7ea5 eb3d 0b88 c73d 3a1c eabd b48e 3bbd
00000120: a36e afbd 8dcf b6bd 4b24 673d d3eb 8abd
00000130: d9bc b93d 0662 b7bd 0dd9 c6bd a149 97bd
00000140: c1e4 c2bd d402 8e3d 1218 b0bd 5ced b5bd
00000150: 8c49 7b3b ff98 a7bd 2a51 b63c 3f78 9b3d
00000160: a9a7 a63d 4295 12bd 27b2 1bbc c761 66bc
00000170: 347b 673c a767 0d3e 1812 56bc 6b4e 1dbd
00000180: 60ee cdbd 0143 c1bd 8427 783d 2311 9bbd
00000190: 0dc1 033d 34d5 fb3d c2f9 fdbd 7f8f 573d
000001a0: c84d 2f3c 69b3 0c3d 4435 973d 30f6 303d
000001b0: 39c3 ab3d 9280 4fbd 0a55 453d fa1f 2a3b
000001c0: 16e8 cdbc 3e0e 3abc caa6 063e 299a 153c
000001d0: 2cb7 7f3c 0e6f 01be 1555 863d 67c7 593d
000001e0: ce06 a7bd c8f4 a4bc f682 d23b 3c3a e0bb
000001f0: 65ce 06be b8b4 5abd c190 b8bd 8cde 3ebd
00000200: 6f2b 213d d216 c63d 8983 053e 3d31 dcbb
00000210: b918 a73c 790a 923d 50ff ccbd 2cc9 0f3e
00000220: 96e5 573c 7b8e cbbc 7ffe 30bd d1c8 373d
00000230: dbf4 88bd ea3d 4c3d ef77 cfbd c77c 553c
00000240: cc94 f8bd 49ed e9bc eba6 fbbd 8868 fe3a
00000250: 3a33 8bbd 67d3 e73c 2358 da3d 1ce6 053d
00000260: 2a6b e33d 7916 133c 7d1e 6dbd ba39 3c3c
00000270: 30a4 c1bd 3634 febc 2ac3 963d 5d33 913d
00000280: d5a2 cfbc 6a46 febd 41ff 7b3d 59eb 5bbd
00000290: a244 84bc aca9 813d 7259 00be 415f 303c
000002a0: d332 b23c 40bf d2bd 44cf c53d 6083 d5bd
000002b0: 686b bf3b c245 de3d ea77 a5bc 8ee1 ff3b
000002c0: c59e d93c 8705 41bd 9a17 f43d 600e 963d
000002d0: dd5c 3abd 4249 573c fd37 c43c ee5f bcbc
000002e0: f42a 63bd 68e4 d8bd 98b7 69bc cae0 043e
000002f0: 9ef2 9c3d ad52 d7bd 5b39 a33d 7b74 a33d
00000300: 5854 dbbc 8f7e 01be 915d be3d 9b9a 483d
00000310: 1f9d 26bd 484a a9bd 4288 523d 0122 68bd
00000320: a6e5 f13c f445 b23d e1d2 86bd 4aa8 d9bc
00000330: 0c18 4c3d 6e49 e6ba 9af9 c03d 9bfb 0b3e
00000340: 5ee6 973c 5572 083d d3ec 49bc 7613 c83d
00000350: 2713 c9bd b53f 62bd 72e5 27bd 75a5 d0bc
00000360: c41d 8e3d d5f6 62bd 1b26 8e3b f9d6 cdbd
00000370: a96c 7d3d 5a92 86bd 4717 43bd 1725 bdbb
00000380: f543 6b3d bdc2 cc3d 9719 2dbd cba2 cdbd
00000390: eb3d 0c3d 9cc0 ec3d 672d 723d b74b 60bd
000003a0: 232c 07be 5cf2 10bd 15e6 a93d 9570 91bd
000003b0: 77c0 f4bd abe5 71bc 3773 0abe 2c65 97bd
000003c0: 901d b7bd 9d10 e63d 53ec 84bc cf9e c33d
000003d0: 8d94 c33d c1a4 9fbd d7b0 d23d 9c94 143d
000003e0: cbab f5bd 5b46 873d 6d5f 053d 44d8 33bd
000003f0: d221 25bd 08d1 923d b9a3 863c c1a5 813c

lstm.bias_ih_l0 f4 [256]
0.020880299 -0.038812608 0.09147685 -0.050098624 0.04741674 -0.054121982 -0.04439236 0.10803602
0.017786834 -0.040045843 0.06265801 0.0009091895 0.03898128 -0.025362022 0.04203234 -0.033496585
-0.023765078 -0.12166587 0.08750159 -0.11030817 0.052143626 -0.10536414 0.03209286 0.13445608
0.028786007 -0.049842414 0.06590692 0.12667704 0.061700907 0.023383416 -0.06045295 -0.035701886
-0.024736699 -0.011754551 0.011538835 -0.11458748 -0.0922227 -0.10448944 0.09697372 0.13320285
0.047579817 0.056925677 -0.09574303 -0.07376505 0.014375233 0.07652248 0.045836 -0.06441985
0.020759126 -0.024819268 0.02921548 -0.00090248196 0.01963916 -0.045253724 0.046263974 -0.08482714
-0.042100053 0.004974037 0.03911413 0.037815735 0.06703275 -0.06561111 -0.030112896 -0.09573667
-0.06711755 0.073549576 0.14129987 -0.05439737 -0.04685151 0.09997381 0.12346548 0.11849699
0.109908506 0.122696966 0.03917696 0.07283383 0.034904644 0.024956373 -0.049149264 -0.044046633
-0.05004961 -0.024070928 0.12038999 -0.087021336 0.10405048 -0.017371872 0.03218636 0.06920745
0.032532636 -0.06716894 0.0075252415 0.10954225 0.06886523 -0.12787732 0.06548508 0.023482714
0.01364929 0.08661521 0.09300212 -0.113521636 0.0045453636 -0.093839444 0.010764416 -0.054540165
0.065696925 0.03759723 -0.050406314 0.10422978 -0.0073402817 0.014963799 0.09247798 0.015594188
0.05176659 0.012372412 0.054985523 0.10580934 0.069022946 -0.013911091 0.07068362 -0.060138557
0.118973576 -0.08197556 -0.04532012 0.01168557 -0.0688486 0.018833145 0.045654174 0.124484554
0.017882625 0.10112955 0.028949697 0.07551318 0.005881138 0.08231086 0.08407406 0.106484726
0.006166224 0.09694677 0.018318191 0.0372675 0.08132928 -0.12084113 -0.068528436 -0.13376899
-0.00035335682 -0.12780344 -0.09619623 0.11320536 -0.048989285 0.03067879 -0.013936263 0.0075179213
0.08684446 -0.12509663 -0.011683982 0.0776953 -0.01863414 -0.015396193 0.08835506 0.062607676
0.008401879 -0.1010375 -0.11277617 -0.11638239 0.04018646 0.10363282 -0.1046787 0.021076921
-0.123740315 0.009230713 0.122459315 -0.13284041 -0.12067266 0.094252914 -0.06273859 0.04278762
-0.110309675 -0.006864585 0.11209662 -0.012202532 -0.0031285237 0.07229827 -0.08644143 -0.11156945
-0.099439755 -0.09014172 0.11039701 -0.007497041 -0.078337036 0.060818598 -0.08521888 0.0908962
-0.082127556 -0.074397065 -0.06741867 0.12031722 0.07004134 -0.033836763 -0.0054690507 0.0659864
-0.011306233 0.07079166 0.007558545 -0.006039917 0.070087045 0.06482753 -0.0033566249 -0.106052585
-0.02863789 0.09867608 -0.058083322 0.07834826 -0.030923802 -0.08468497 0.07654827 0.12979116
0.057841036 0.11164057 -0.09932428 0.08841712 -0.107497826 0.101147555 -0.0029487761 0.06787838
-0.044895645 0.121673666 -0.062086582 0.040340666 0.046802774 0.028272586 0.0095993085 0.13142739
0.120813414 -0.03885379 -0.08478127 -0.039852202 -0.015584721 -0.068135515 0.12122345 0.08639618
-0.045529537 -0.06469563 -0.018759936 -0.030572545 -0.024804197 -0.016973805 0.105605945 0.090349145
0.039983608 0.1042805 0.07628287 -0.09532485 0.1333812 -0.06444637 -0.10939131 0.10316351
00000000: 290d ab3c f8f9 1ebd 3758 bb3d 3734 4dbd
00000010: 0e38 423d 03af 5dbd c3d4 35bd fd41 dd3d
00000020: b2b5 913c 1c07 24bd d852 803d ad56 6e3a
00000030: d6aa 1f3d 04c4 cfbc 1a2a 2c3d b733 09bd
00000040: fbae c2bc f52b f9bd 0934 b33d 40e9 e1bd
00000050: 8e94 553d 27c9 d7bd ce73 033d dbae 093e
00000060: a2d0 eb3c 8f27 4cbd 35fa 863d a0b7 013e
00000070: 17ba 7c3d 948e bf3c 839d 77bd 243c 12bd
00000080: 9ea4 cabc 2996 40bc 620d 3d3c d7ac eabd
00000090: 41df bcbd 8ffe d5bd 289a c63d 5466 083e
000000a0: 0ee3 423d e62a 693d ec14 c4bd 2112 97bd
000000b0: 1986 6b3c d1b7 9c3d 88be 3b3d 8eee 83bd
000000c0: 0b0f aa3c c751 cbbc 4d55 ef3c 8a94 6cba
000000d0: 4ee2 a03c f85b 39bd 4b7f 3d3d dab9 adbd
000000e0: 1b71 2cbd 3ffd a23b 2336 203d ace4 1a3d
000000f0: 7748 893d 1e5f 86bd 52af f6bc 9611 c4bd
00000100: ed74 89bd 29a1 963d eab0 103e c7cf 5ebd
00000110: 5ee7 3fbd 12bf cc3d 78db fc3d 8dae f23d
00000120: b617 e13d 8c48 fb3d 0578 203d e729 953d
00000130: 2cf8 0e3d 4f71 cc3c bd50 49bd 3e6a 34bd
00000140: d200 4dbd 6530 c5bc 078f f63d 3e38 b2bd
00000150: 6b18 d53d 754f 8ebc d8d5 033d a3bc 8d3d
00000160: f140 053d df8f 89bd 4d96 f63b b057 e03d
00000170: 3709 8d3d 46f2 02be 0b1d 863d d25e c03c
00000180: 46a1 5f3c 5163 b13d e577 be3d 087e e8bd
00000190: 46f1 943b e52e c0bd 3c5d 303c 8265 5fbd
000001a0: 1c8c 863d 8eff 193d da76 4ebd 6c76 d53d
000001b0: bf86 f0bb b92a 753c 1865 bd3d c47e 7f3c
000001c0: 3409 543d a8b5 4a3c 8038 613d 91b2 d83d
000001d0: e75b 8d3d 58eb 63bc 93c2 903d d953 76bd
000001e0: 6ba8 f33d cde2 a7bd 97a1 39bd d574 3f3c
000001f0: 7f00 8dbd f847 9a3c dfff 3a3d c2f1 fe3d
00000200: 957e 923c 021d cf3d ea27 ed3c a7a6 9a3d
00000210: 90b6 c03b 9992 a83d 052f ac3d aa14 da3d
00000220: 090e ca3b 078c c63d 0810 963c cea5 183d
00000230: f78f a63d 8e7b f7bd a358 8cbd bdfa 08be
00000240: c042 b9b9 e8de 02be 8702 c5bd 36d8 e73d
00000250: fda8 48bd 1652 fb3c ec54 64bc e558 f63b
00000260: 82db b13d 5519 00be 2c6e 3fbc b71e 9f3d
00000270: a0a6 98bc 5040 7cbc 7ff3 b43d 7438 803d
00000280: 09a8 093c c0ec cebd 31f7 e6bd e459 eebd
00000290: 8f9a 243d 723d d43d c961 d6bd 82a9 ac3c
000002a0: 906b fdbd 6b3c 173c f3cb fa3d 5107 08be
000002b0: 3a23 f7bd ac07 c13d 177d 80bd 1242 2f3d
000002c0: 0aea e1bd 50f0 e0bb ea92 e53d 21ed 47bc
000002d0: eb07 4dbb 1e11 943d 3408 b1bd 867e e4bd
000002e0: 12a7 cbbd 399c b8bd d417 e23d bda9 f5bb
000002f0: 2b6f a0bd ec1c 793d 3c87 aebd c927 ba3d
00000300: 7e32 a8bd 7d5d 98bd cd12 8abd e068 f63d
00000310: d671 8f3d 6b98 0abd b935 b3bb e123 873d
00000320: c73d 39bc 38fb 903d acad f73b 7fea c5bb
00000330: cc89 8f3d 4cc4 843d d2fa 5bbb 1932 d9bd
00000340: 029a eabc af16 ca3d c7e8 6dbd 0d75 a03d
00000350: ea53 fdbc 506f adbd 57c5 9c3d f9e7 043e
00000360: b9ea 6c3d d0a3 e43d 876a cbbd 0914 b53d
00000370: d227 dcbd 7326 cf3d 4140 41bb d203 8b3d
00000380: 7fe4 37bd 0b30 f93d 804e 7ebd 413c 253d
00000390: 44b4 3f3d e99b e73c 6b46 1d3c e794 063e
000003a0: 066d f73d 2725 1fbd cda1 adbd 103c 23bd
000003b0: 0f57 7fbc a28a 8bbd 0044 f83d 7bf0 b03d
000003c0: 2e7d 3abd 247f 84bd 70ae 99bc 4673 fabc
000003d0: 2c32 cbbc a60c 8bbc ee47 d83d f908 b93d
000003e0: dac5 233d 0491 d53d 313a 9c3d ad39 c3bd
000003f0: 1595 083e 75fc 83bd 8d08 e0bd 6447 d33d

lstm.bias_hh_l0 f4 [256]
0.12090852 -0.08724502 0.038764484 0.02564703 -0.060477886 -0.112832844 0.12086417 0.12670282
-0.04219258 0.13447635 -0.10802645 0.11581278 -0.04800889 -0.08284274 0.052641787 0.024142222
0.00012816036 -0.06343469 0.009687175 -0.123142876 0.08303573 0.0055368636 0.11851627 0.083637804
0.030981783 -0.05333249 0.0037182264 0.13163815 0.09633583 -0.03808283 0.01015325 -0.06971417
0.053619396 0.016618658 -0.09217836 0.025707668 -0.0046194284 0.044588532 0.126295 0.04135373
-0.07356599 0.06187205 -0.11085631 0.09893345 0.031343065 0.06967278 -0.055193335 -0.008636658
0.061466128 -0.13326389 0.08361871 0.11269608 0.0382953 0.10629136 0.06475228 -0.03293826
-0.0055387067 0.11997699 0.020328734 -0.08989379 0.037354853 0.0040903594 0.013644812 -0.03698187
-0.028557967 -0.009019325 -0.104756534 0.130443 -0.07632248 0.07388969 0.0023339577 0.014202501
0.12063365 0.12646884 0.06251276 0.06903781 0.13992117 -0.081957534 0.11299121 -0.10807145
-0.008994213 0.10192509 0.008257956 0.024603063 0.075804494 0.12037669 0.0945574 0.1082008
0.052015435 0.113967665 -0.0213609 0.12173191 -0.028124386 -0.11199901 -0.02118791 -0.10303626
0.10778363 -0.03743179 0.07115575 0.012195401 -0.09915972 -0.025623335 -0.092803515 0.08370077
0.0054416084 0.09873553 0.007941214 -0.078783885 0.02291386 0.11423843 -0.027509155 0.14116688
0.03011502 -0.066143945 0.13537537 -0.05165509 0.045169525 0.046052005 0.10603921 -0.054475877
0.024154529 -0.015240467 -0.059261683 -0.03338106 0.12343835 0.059575696 0.091559 0.07204114
-0.009109044 -0.020894622 -0.02694176 -0.05375351 -0.006867636 0.06710371 -0.0077133332 0.052052714
-0.10525598 0.12114405 0.13409477 -0.010761135 -0.04369426 -0.045676295 0.061271276 0.10501356
-0.07317938 0.115286365 0.019800436 -0.109908044 -0.019972675 0.053303566 -0.022610124 0.09296103
0.013297786 0.06294709 -0.069168836 0.12369255 0.0980697 0.06279345 -0.014549214 0.05179111
0.037553117 -0.012438554 -0.0038639903 0.09237188 0.094653 0.12824291 0.03767031 -0.08158045
0.013232942 -0.12378088 0.1319387 -0.12950729 -0.104483604 0.09691514 -0.036019042 0.053358026
0.09768438 -0.068071656 -0.052088324 -0.06288537 -0.03929437 -0.061975792 -0.097237006 0.051549472
-0.13803694 -0.10052299 0.039957576 0.12659866 -0.07960767 0.082823895 -0.083383575 -0.0810324
-0.033514235 0.07669306 0.097535186 0.044928953 0.0892673 -0.05979028 -0.01877655 -0.06937062
0.050773837 -0.066220924 -0.0530866 -0.0017666979 -0.091146074 -0.012660193 -0.077922225 -0.017452817
0.111142315 0.07111064 -0.05917339 0.12487399 0.099030875 0.097398266 -0.10285767 0.0324135
0.081454985 0.004333917 -0.034506015 -0.09096702 -0.06265974 0.08663962 -0.013375281 -0.021743488
0.13968214 -0.048148945 0.12462905 -0.05399039 0.045917228 0.117557816 -0.010782663 0.0249438
-0.047165457 0.10557131 0.08374097 0.06710842 -0.072591886 -0.0042675873 -0.0812234 -0.0980073
0.022140665 -0.11209553 0.024673866 -0.08987152 -0.05157694 0.004227331 0.0593089 -0.01990164
0.05555532 -0.08924161 0.120067775 0.024846151 -0.06747496 -0.006102532 0.024874808 -0.038173426
00000000: e39e f73d 84ad b2bd 82c7 1e3d b819 d23c
00000010: a9b7 77bd e814 e7bd a287 f73d 62be 013e
00000020: 20d2 2cbd 2bb4 093e f93c ddbd 402f ed3d
00000030: f8a4 44bd 74a9 a9bd ea9e 573d e9c5 c53c
00000040: c962 0639 0cea 81bd f5b6 1e3c 5532 fcbd
00000050: a30e aa3d 946e b53b a8b8 f23d 4c4a ab3d
00000060: 82cd fd3c 2b73 5abd 7dad 733b 27cc 063e
00000070: b84b c53d befc 1bbd d159 263c 4ec6 8ebd
00000080: 03a0 5b3d da23 883c 02c8 bcbd e398 d23c
00000090: 935e 97bb 77a2 363d 7a53 013e 8762 293d
000000a0: c4a9 96bd 8c6d 7d3d a208 e3bd 9f9d ca3d
000000b0: 9661 003d 9ab0 8e3d 6812 62bd c580 0dbc
000000c0: e8c3 7b3d 5476 08be 4940 ab3d 34cd e63d
000000d0: 88db 1c3d 49af d93d d89c 843d 45ea 06bd
000000e0: 0a7e b5bb 7fb6 f53d 7288 a63c 3c1a b8bd
000000f0: 6701 193d 6c08 863b 7d8e 5f3c 4d7a 17bd
00000100: 66f2 e9bc cac5 13bc 988a d6bd da92 053e
00000110: f64e 9cbd 7a53 973d 50f5 183b 9bb1 683c
00000120: c60e f73d 0c81 013e b106 803d b263 8d3d
00000130: 7f47 0f3e 5ad9 a7bd ef67 e73d 9054 ddbd
00000140: 775c 13bc 1abe d03d 614c 073c 5d8c c93c
00000150: 633f 9b3d 0e88 f63d 4fa7 c13d 6298 dd3d
00000160: 230e 553d e167 e93d 0efd aebc 944e f93d
00000170: 1d65 e6bc bd5f e5bd 4592 adbc ad04 d3bd
00000180: aabd dc3d 1452 19bd 1bba 913d 38cf 473c
00000190: 4014 cbbd 07e8 d1bc c50f bebd 4f6b ab3d
000001a0: 854f b23b db35 ca3d de1b 023c 7259 a1bd
000001b0: d9b5 bb3c d7f5 e93d e15a e1bc 0d8e 103e
000001c0: c6b3 f63c 7a76 87bd d79f 0a3e 4a94 53bd
000001d0: ae03 393d 07a1 3c3d 162b d93d 1922 5fbd
000001e0: b8df c53c 27b3 79bc 61bc 72bd 94ba 08bd
000001f0: 3fcd fc3d a505 743d 4983 bb3d 4e8a 933d
00000200: 1a3e 15bc 332b abbc f7b4 dcbc a42c 5cbd
00000210: e809 e1bb ab6d 893d 21c0 fcbb 3a35 553d
00000220: 7290 d7bd 5f1a f83d 2450 093e 794f 30bc
00000230: c1f8 32bd 1117 3bbd 97f7 7a3d 5911 d73d
00000240: 12df 95bd 421b ec3d 8634 a23c 7817 e1bd
00000250: bc9d a3bc d754 5a3d de38 b9bc 5a62 be3d
00000260: f5de 593c 67ea 803d 64a8 8dbd 8552 fd3d
00000270: c4d8 c83d da99 803d d45f 6ebc ea22 543d
00000280: 4cd1 193d 14cb 4bbc 003b 7dbb 782d bd3d
00000290: 6fd9 c13d 1c52 033e 2f4c 1a3d a713 a7bd
000002a0: fbce 583c d480 fdbd f01a 073e 8f9d 04be
000002b0: 80fb d5bd 727b c63d b488 13bd f28d 5a3d
000002c0: c00e c83d 2769 8bbd 915a 55bd 0bca 80bd
000002d0: 22f3 20bd 54da 7dbd 3224 c7bd 8a25 533d
000002e0: 8e59 0dbe ffde cdbd 8eaa 233d 14a3 013e
000002f0: 5909 a3bd 939f a93d 02c5 aabd 51f4 a5bd
00000300: 3946 09bd 4011 9d3d 87c0 c73d 6c07 383d
00000310: c6d1 b63d a7e6 74bd 48d1 99bc 2f12 8ebd
00000320: 3af8 4f3d d69e 87bd 5671 59bd 8b90 e7ba
00000330: cbaa babd b36c 4fbc b095 9fbd 36f9 8ebc
00000340: 959e e33d 75a2 913d cc5f 72bd efbd ff3d
00000350: b3d0 ca3d be78 c73d 0ba7 d2bd 05c4 043d
00000360: dfd1 a63d 8803 8e3b 2e56 0dbd eb4c babd
00000370: c053 80bd 1d70 b13d ff23 5bbc 661f b2bc
00000380: d608 0f3e d437 45bd 843d ff3d 0725 5dbd
00000390: b413 3c3d 27c2 f03d c4a9 30bc f156 cc3c
000003a0: 9130 41bd c535 d83d 6380 ab3d 2470 893d
000003b0: 0eab 94bd 1ed7 8bbb 7458 a6bd 0db8 c8bd
000003c0: 5760 b53c 5792 e5bd d920 ca3c 8f0e b8bd
000003d0: 5742 53bd 6c85 8a3b e4ed 723d c408 a3bc
000003e0: fa8d 633d 4ec4 b6bd 18e6 f53d 288a cb3c
000003f0: 5030 8abd c0f7 c7bb 41c6 cb3c bd5b 1cbd

lstm.weight_ih_l0_reverse f4 [256, 32]
-0.050846603 0.09571788 -0.13957798 -0.07496254 -0.036413837 -0.10675797 -0.04792199 0.07139803
-0.04229711 0.100324005 -0.0076424717 0.012793837 -0.10944496 -0.071266234 0.061132874 0.049259886
0.019673947 0.006048852 0.108543344 -0.08235072 -0.09537285 -0.1229601 0.042431146 0.024106406
-0.0012795177 0.13398248 0.07592885 -0.025099011 -0.0649511 0.076179676 0.02817038 0.025366506
-0.018346405 0.05825106 -0.118601486 -0.011570829 -0.028298387 -0.07568248 0.08936028 -0.09766425
0.019494118 -0.0015453736 -0.11535865 0.099158786 0.020659156 -0.10700633 0.12290064 0.007959744
0.10393494 0.07202083 -0.00031068528 0.027255356 -0.06895705 0.10932592 -0.040287357 -0.007515928
-0.11863511 -0.113076515 0.011490413 -0.0064817443 0.0182605 0.11007473 -0.02684283 0.026651518
0.06927546 0.06407077 -0.015548409 -0.06551866 -0.047220275 -0.101560675 -0.01592892 0.12155299
0.04704931 -0.040317696 -0.102168456 -0.036752217 0.044939723 -0.030946337 -0.11879635 -0.11203691
0.0026838856 0.049806055 -0.014832687 -0.0019106331 -0.050383154 -0.08534673 0.041752107 -0.12380503
-0.02786343 -0.022746358 0.084510535 -0.12414244 0.01918317 0.111245945 0.05828658 -0.044630423
0.04707559 0.07422231 -0.06963073 0.020778978 -0.094754234 0.1070297 -0.09258 -0.033433978
-0.021618892 -0.044885624 0.011966781 -0.008669692 0.01875987 -0.14147846 -0.073608205 -0.031432565
0.018656688 0.09854466 0.13257472 -0.11460178 0.05617705 -0.020708768 -0.02511379 -0.08162455
-0.114985295 -0.024986519 0.0706615 0.10393564 -0.027190713 0.1351763 0.09274051 -0.025774594
0.0581711 0.04991424 -0.017632201 0.13630737 -0.06026744 0.08079777 -0.07712913 0.047281694
0.019312466 -0.04648275 0.024607584 -0.07449052 0.06547887 0.021115052 -0.022336954 0.05471087
0.012130543 -0.07479338 -0.01000521 0.06518427 0.12190804 0.030160012 -0.021496896 -0.1158626
0.049497273 0.08313095 -0.046184756 0.033128895 -0.032709185 0.13119836 0.10380578 -0.10854645
0.11816361 0.06868185 -0.12768842 0.040057354 -0.0018836744 -0.081181474 0.10408048 0.055351004
0.048033506 -0.13209544 0.05716195 0.10340327 -0.08843767 -0.015130672 -0.1264004 -0.07472124
-0.044426206 0.08571071 0.028459657 -0.10538653 0.0106723765 0.030260345 0.04714184 -0.06431506
-0.11172945 -0.0355095 0.016610133 0.00021994165 -0.052852474 0.1096638 -0.07634643 -0.09713564
0.0038394374 0.069052346 -0.060356803 0.016715385 0.120227955 -0.08144858 0.1072166 0.015677368
-0.063618556 -0.060906056 -0.10887689 0.10094609 -0.03724309 -0.03883899 0.078606226 0.11832566
-0.11417557 -0.051299915 -0.06399809 -0.030524382 0.036353048 0.114089936 -0.11046572 0.052912693
-0.10934725 0.02106749 -0.111731455 -0.03270276 -0.11827393 -0.02502239 0.061981626 -0.069989115
0.016574824 -0.11178756 -0.085533686 0.12663579 0.022442529 0.014322972 0.10327344 -0.06466649
-0.13348006 -0.048820533 0.09563532 -0.09725026 -0.1274951 -0.07989313 -0.011756807 0.08566505
-0.10897641 -0.113864884 -0.10487535 -0.065553494 0.057226565 -0.039320584 0.0404079 -0.03258072
0.047974348 0.069057725 0.077565484 -0.026383169 0.112720355 -0.078595825 0.11426101 -0.087683655
00000000: 8744 50bd bc07 c43d 88ed 0ebe f685 99bd
00000010: ad26 15bd eca3 dabd d949 44bd 2139 923d
00000020: bc3f 2dbd ac76 cd3d b36d fabb 3e9d 513c
00000030: ae24 e0bd 08f4 91bd 7766 7a3d bcc4 493d
00000040: 422b a13c 7335 c63b f94b de3d 7fa7 a8bd
00000050: d752 c3bd 81d2 fbbd 48cc 2d3d cc7a c53c
00000060: 7db5 a7ba b432 093e 9680 9b3d 719c cdbc
00000070: 1505 85bd 1704 9c3d 92c5 e63c 6bcd cf3c
00000080: 334b 96bc aa98 6e3d 56e5 f2bd 9393 3dbc
00000090: 05d2 e7bc 6bff 9abd 8602 b73d 3204 c8bd
000000a0: 21b2 9f3c 228e caba 2841 ecbd c313 cb3d
000000b0: 643d a93c 2226 dbbd 55b3 fb3d 9669 023c
000000c0: d8db d43d a87f 933d 79e3 a2b9 a046 df3c
000000d0: 5b39 8dbd 45e6 df3d 5b04 25bd 2c48 f6bb
000000e0: f7f6 f2bd a994 e7bd 4942 3c3c d064 d4bb
000000f0: 0b97 953c dc6e e13d 7fe5 dbbc 4954 da3c
00000100: 4be0 8d3d 8937 833d c1be 7ebc a62e 86bd
00000110: 0c6a 41bd 0bff cfbd 5e7d 82bc c6f0 f83d
00000120: c7b6 403d 2b24 25bd b23d d1bd 7e89 16bd
00000130: b712 383d 2c83 fdbc 804b f3bd 9c73 e5bd
00000140: 21e4 2f3b 6f01 4c3d cc04 73bc 356e faba
00000150: 915e 4ebd 44ca aebd 4204 2b3d 7e8d fdbd
00000160: d941 e4bc 9256 babc dc13 ad3d 643e febd
00000170: 0626 9d3c ead4 e33d e9bd 6e3d 64ce 36bd
00000180: 55d2 403d de01 983d 8e9a 8ebd ad38 aa3c
00000190: 820e c2bd 6332 db3d 959a bdbd 11f2 08bd
000001a0: 1a1a b1bc fdd9 37bd 5110 443c 530b 0ebc
000001b0: 4dae 993c bbdf 10be e6bf 96bd 6fbf 00bd
000001c0: e9d5 983c c8d1 c93d abc1 073e 57b4 eabd
000001d0: e819 663d 6fa5 a9bc 6fbb cdbc c62a a7bd
000001e0: 697d ebbd 87b0 ccbc fab6 903d 35dc d43d
000001f0: 0fbf debc a86b 0a3e bdee bd3d 3e25 d3bc
00000200: d244 6e3d e072 4c3d 6871 90bc 2994 0b3e
00000210: feda 76bd 4d79 a53d e1f5 9dbd 73aa 413d
00000220: 2d35 9e3c b264 3ebd d895 c93c 7c8e 98bd
00000230: c919 863d 79f9 ac3c fdfb b6bc 8118 603d
00000240: 2fbf 463c 462d 99bd e4ec 23bc 557f 853d
00000250: ecaa f93d 2112 f73c 421a b0bc 5f49 edbd
00000260: a7bd 4a3d 8f40 aa3d 3a2c 3dbd 2ab2 073d
00000270: 11fa 05bd dd58 063e 2098 d43d 9a4d debd
00000280: c3ff f13d 12a9 8c3d c1c0 02be 2e13 243d
00000290: a0e5 f6ba 7942 a6bd 2628 d53d bcb7 623d
000002a0: c8be 443d 0744 07be a622 6a3d 18c5 d33d
000002b0: cf1e b5bd a3e6 77bc 1b6f 01be 7307 99bd
000002c0: 41f8 35bd 1989 af3d 3a24 e93c e5d4 d7bd
000002d0: 31db 2e3c 8be4 f73c cd17 413d 9db7 83bd
000002e0: 69d2 e4bd 6972 11bd f911 883c 23a0 6639
000002f0: d67b 58bd 6a97 e03d 845b 9cbd 0def c6bd
00000300: 129f 7b3b 516b 8d3d b238 77bd b4ee 883c
00000310: 133a f63d 83ce a6bd 6094 db3d d36d 803c
00000320: 724a 82bd a178 79bd d9fa debd d3bc ce3d
00000330: 368c 18bd a215 1fbd 4dfc a03d b954 f23d
00000340: e2d4 e9bd dc1f 52bd 6e11 83bd 450e fabc
00000350: efe6 143d fca7 e93d da3b e2bd fbba 583d
00000360: 73f1 dfbd bb95 ac3c 76d3 e4bd 54f3 05bd
00000370: 9a39 f2bd c1fb ccbc 72e0 7d3d 7456 8fbd
00000380: edc7 873c e0f0 e4bd 492c afbd d0ac 013e
00000390: 65d9 b73c e6aa 6a3c 0681 d33d dd6f 84bd
000003a0: ffae 08be 0af8 47bd 73dc c33d 252b c7bd
000003b0: 138e 02be 029f a3bd 9f9f 40bc 2871 af3d
000003c0: 062f dfbd fe31 e9bd e3c8 d6bd e940 86bd
000003d0: 6766 6a3d 9f0e 21bd c182 253d 5c73 05bd
000003e0: c080 443d 236e 8d3d a7da 9e3d 8421 d8bc
000003f0: eed9 e63d d9f6 a0bd ad01 ea3d 7d93 b3bd

lstm.weight_hh_l0_reverse f4 [256, 64]
0.08698209 -0.09557463 0.081681795 0.02490672 0.022859022 0.037764475 0.039807048 0.10005431
0.00060439965 -0.024147354 0.119754605 -0.0019558733 0.14161359 -0.035740517 -0.023604263 -0.0407744
-0.12192108 0.04303313 0.07743285 0.121046074 -0.08571785 -0.10508002 0.13742968 0.020119257
-0.04561344 0.0029620603 0.053449336 0.08881732 0.064300954 0.034548372 -0.02890342 0.049410835
-0.07006218 0.00044468272 0.1309151 0.015989896 -0.14387055 -0.0853837 -0.124198265 -0.058155335
0.043509383 -0.040653374 0.014148062 -0.11401979 -0.0674046 -0.10182317 -0.095623955 -0.008122419
0.02354673 -0.056479033 -0.01759315 0.08286958 0.0944517 0.02284576 0.12864675 0.031835653
0.015429825 0.012095506 0.049670868 -0.0080142 -0.10574514 0.101846054 -0.068594515 0.002883195
0.020318113 -0.08378153 -0.054985635 0.026984002 0.055747114 0.0012406362 -0.07143073 0.0077455747
0.0031206496 -0.029713769 0.121033505 -0.06488114 -0.10767665 0.00012863043 -0.09767844 0.11480875
0.028434511 -0.10821254 0.04834952 -0.098001085 0.11202576 0.063558266 0.07597564 0.09746072
-0.10974217 0.021133848 0.1148722 0.060915526 -0.0709864 -0.08425875 -0.088583186 0.013156553
0.08362479 0.029516911 -0.0701346 0.1152994 -0.1022281 0.10553212 -0.07224105 0.112529874
0.024681626 0.053681757 -0.10187036 0.029296074 0.07342706 0.103136875 -0.037305232 -0.060466655
-0.020450309 -0.035894282 -0.059659027 -0.08433671 -0.11380609 0.021674506 0.05634186 -0.010676256
-0.030924428 -0.045830283 0.05336383 -0.050310593 0.037350453 0.026673041 -0.012472353 0.11234172
0.0049986243 -0.05018365 -0.10436068 0.08693388 0.13764322 0.032866452 0.0017713385 -0.101477504
-0.115689434 0.074627355 0.02529761 0.013444696 -0.029717373 -0.1257837 -0.063487306 0.070427164
-0.09978607 0.06246923 0.09774082 0.009427506 -0.01517538 -0.14082348 -0.030710435 -0.09339922
-0.03328905 -0.03878504 0.063964866 0.022618968 -0.08359179 0.050058767 -0.124380305 -0.1002016
-0.009463499 -0.109217234 0.012216237 0.1283076 -0.034671355 0.059920978 -0.10287976 0.099357486
0.10111567 -0.043481816 -0.041317232 -0.14270066 0.033519864 0.02261396 -0.05925146 0.13099286
-0.061647307 -0.11499197 0.059637196 -0.02927197 0.107684724 0.050862037 0.065017045 0.07456053
-0.094253086 0.060354568 -0.062118053 -0.016704058 0.11759598 0.061500274 -0.07196071 0.016542828
0.027707515 -0.004821823 -0.030522829 0.011355808 0.13022599 -0.030798139 0.04801817 -0.035244264
0.054113686 0.044997822 0.006851634 -0.105214186 -0.017829668 -0.06617597 0.09084966 0.003952009
-0.10444052 0.062457778 -0.045225427 -0.10240392 -0.11026344 0.09549604 0.08558658 -0.09125259
0.12221597 -0.120328195 0.029549273 -0.05383041 0.03789625 -0.04695281 -0.13600802 0.09340012
0.0012879138 0.09156185 0.10109297 0.100476906 0.014133705 -0.094339475 0.076281436 0.10214509
0.04859743 -0.09144587 0.06963685 0.1022314 0.083488606 -0.11387608 -0.08659602 0.028349007
-0.08051706 -0.11633809 -0.11433843 0.05963414 0.10502026 -0.05483087 -0.10204453 -0.007105791
-0.02409136 -0.04416097 0.018176578 -0.047186706 -0.073995896 -0.0030766386 0.14202715 -0.02125024
00000000: aa23 b23d a2bc c3bd c948 a73d 2d09 cc3c
00000010: d842 bb3c ecae 1a3d b70c 233d 46e9 cc3d
00000020: 9370 1e3a acd0 c5bc e741 f53d 1c2e 00bb
00000030: 2703 113e a664 12bd ba5d c1bc 0f03 27bd
00000040: c2b1 f9bd 8243 303d 1d95 9e3d 01e7 f73d
00000050: d78c afbd 3234 d7bd 5eba 0c3e 24d1 a43c
00000060: 29d5 3abd 201f 423b b1ed 5a3d dbe5 b53d
00000070: 38b0 833d 9882 0d3d ddc6 ecbc 0463 4a3d
00000080: c37c 8fbd 4e24 e939 9c0e 063e 3efd 823c
00000090: cd52 13be a6dd aebd a95b febd 4a34 6ebd
000000a0: e536 323d 2784 26bd 46cd 673c 3583 e9bd
000000b0: 6c0b 8abd ab88 d0bd 7ed6 c3bd e513 05bc
000000c0: 12e5 c03c 8f56 67bd 821f 90bc 87b7 a93d
000000d0: e56f c13d 0827 bb3c f9bb 033e 1a66 023d
000000e0: 60cd 7c3c 3b2c 463c ae73 4b3d fe4d 03bc
000000f0: e890 d8bd aa94 d03d 487b 8cbd fcf3 3c3b
00000100: 2c72 a63c a795 abbd 9e38 61bd 8e0d dd3c
00000110: 1657 643d d89c a23a 464a 92bd 97ce fd3b
00000120: d083 4c3b 4a6a f3bc 6ae0 f73d 67e0 84bd
00000130: 9385 dcbd f8e0 0639 a20b c8bd da20 eb3d
00000140: 7eef e83c 899e ddbd 250a 463d cbb4 c8bd
00000150: c36d e53d d62a 823d 1e99 9b3d 7c99 c73d
00000160: 81c0 e0bd e420 ad3c 1e42 eb3d 8f82 793d
00000170: 5161 91bd da8f acbd 1a6b b5bd 958e 573c
00000180: 7943 ab3d 73cd f13c bba2 8fbd 1822 ec3d
00000190: f75c d1bd 3921 d83d 1ef3 93bd 1076 e63d
000001a0: 1f31 ca3c 67e1 5b3d 68a1 d0bd 52fe ef3c
000001b0: ed60 963d 6d39 d33d 5fcd 18bd e2ab 77bd
000001c0: 6887 a7bc e205 13bd 065d 74bd bab8 acbd
000001d0: 2b13 e9bd bc8e b13c b9c6 663d 77eb 2ebc
000001e0: 3a55 fdbc 89b8 3bbd 0894 5a3d 7b12 4ebd
000001f0: cafc 183d 6c81 da3c d758 4cbc 6a13 e63d
00000200: 80cb a33b 5f8d 4dbd 0dbb d5bd 640a b23d
00000210: 58f2 0c3e f99e 063d 422c e83a 70d3 cfbd
00000220: 95ee ecbd 3ad6 983d ef3c cf3c 2447 5c3c
00000230: d971 f3bc 71cd 00be a205 82bd 1e3c 903d
00000240: a45c ccbd bcdf 7f3d 572c c83d d375 1a3c
00000250: 28a2 78bc 0834 10be 7394 fbbc 1748 bfbd
00000260: 195a 08bd 10dd 1ebd 0300 833d 6a4b b93c
00000270: 2c32 abbd 6c0a 4d3d 1abb febd 7f36 cdbd
00000280: cb0c 1bbc 49ad dfbd 9d26 483c 1163 033e
00000290: 8d03 0ebd b36f 753d a0b2 d2bd f07b cb3d
000002a0: bb15 cf3d fd19 32bd 423c 29bd 1f20 12be
000002b0: 204c 093d e940 b93c a9b1 72bd fe22 063e
000002c0: e381 7cbd e980 ebbd 2246 743d c5cb efbc
000002d0: cf89 dc3d b654 503d a827 853d 31b3 983d
000002e0: c307 c1bd 5a36 773d 806f 7ebd f3d6 88bc
000002f0: 29d6 f03d b6e7 7b3d 2360 93bd d384 873c
00000300: dffa e23c 6200 9ebb 030b fabc b60d 3a3c
00000310: f659 053e 614c fcbc b3ae 443d 4a5c 10bd
00000320: 50a6 5d3d a34f 383d ac83 e03b 897a d7bd
00000330: 860f 92bc 4487 87bd 630f ba3d db7f 813b
00000340: e9e4 d5bd bad3 7f3d 4c3e 39bd 25b9 d1bd
00000350: ccd1 e1bd 6e93 c33d 0448 af3d a3e2 babd
00000360: 5e4c fa3d a16e f6bd 5111 f23c 477d 5cbd
00000370: 1939 1b3d 9751 40bd b045 0bbe 9048 bf3d
00000380: 37cf a83a c784 bb3d d509 cf3d d6c6 cd3d
00000390: 0e91 673c 0e35 c1bd 7139 9c3d 7231 d13d
000003a0: 190e 473d f947 bbbd c49d 8e3d b25e d13d
000003b0: 13fc aa3d dd37 e9bd 4159 b1bd 2d3c e83c
000003c0: 21e6 a4bd aa42 eebd 442a eabd ee42 743d
000003d0: dd14 d73d 5696 60bd b9fc d0bd b2d7 e8bb
000003e0: 3e5b c5bc 22e2 34bd 0ce7 943c d946 41bd
000003f0: 298b 97bd 6ea1 49bb 916f 113e fc14 aebc

lstm.bias_ih_l0_reverse f4 [256]
0.017002722 -0.060824577 0.1268759 -0.01802233 -0.086716175 0.08859566 0.08155422 0.019947331
-0.07759895 -0.06313627 -0.009510112 0.05677119 -0.10267462 -0.089879826 0.100154735 -0.012945773
-0.001190471 -0.06276666 0.012870552 -0.02268023 0.11030581 0.025939856 -0.024268381 0.08975881
0.11564297 -0.057606503 0.09746803 -0.11015174 -0.019871185 -0.052071985 -0.030541884 -0.09766777
-0.09137635 -0.0754021 0.108065866 0.122351386 -0.03547424 0.0035808035 0.08451384 -0.004096592
0.06060785 0.0014722372 -0.06251242 0.07416925 0.13979532 -0.04884435 -0.023039047 0.0048877685
0.11067825 0.014261732 -0.07128014 -0.020693235 0.00873635 -0.05744001 0.04672675 -0.12181649
0.04137318 0.06396749 -0.00054796936 0.04568351 -0.023105929 -0.059193797 0.040837135 0.08055894
-0.02749392 0.063400276 -0.09152812 0.13630307 -0.06829543 0.026061893 0.06080564 0.07215311
-0.08328175 -0.097467534 0.014154607 -0.08681168 -0.07812646 -0.07612174 -0.04789729 0.08423084
0.12627916 -0.12586457 0.034408595 -0.010085764 -0.066764146 0.082154565 -0.070901066 -0.06657646
-0.07660082 0.017886754 0.063811116 -0.06657274 -0.07592503 0.088225655 -0.0045626047 -0.11131817
-0.033568393 -0.009086878 0.008510841 0.06413499 0.13678983 -0.082454406 0.015411585 -0.016729549
-0.083374046 0.06548363 0.036696527 0.024570454 0.007126529 -0.058611456 0.12581111 -0.04066316
-0.012904594 0.12225766 0.112198785 -0.10781933 0.05029192 -0.09886785 0.07147466 -0.044656258
0.01636802 0.004983831 -0.1064232 -0.040670663 -0.07139583 0.10447827 0.08382032 -0.120909825
0.02145101 0.034094036 -0.032580804 -0.00213439 -0.060670223 0.030932039 0.064425796 -0.07851444
0.07516692 0.05695666 -0.08809476 0.015185718 0.09039084 -0.045851674 0.051637314 0.011136394
-0.037548244 0.04875596 -0.09584233 0.09483925 -0.055680227 -0.037774425 0.015045566 0.12184125
0.1373738 0.089195065 -0.04638651 0.02975867 -0.101562396 0.035861418 0.1291463 -0.07234245
0.04581247 0.09728256 -0.019947581 0.07415814 0.042455398 -0.076526985 -0.0108550545 -0.096557215
0.024046868 -0.07899343 -0.0045914003 0.032795336 0.046643443 0.056162547 -0.061625246 -0.0014404336
0.014696094 -0.110615775 0.022939406 -0.042462632 -0.0043483046 -0.108492464 0.042385727 -0.099607535
-0.073083036 -0.11798302 0.120198436 0.029513491 0.0843083 -0.021454578 0.119782984 -0.018272983
-0.035187263 0.10557049 -0.053552624 -0.00013922149 0.026031395 -0.014669469 -0.052702714 0.087912336
0.054235525 -0.08246833 0.013877455 0.056857303 0.048465617 -0.13381322 0.13914315 0.044855274
-0.0905288 0.065515034 0.08226037 0.027555494 -0.08455992 -0.08721513 -0.02691177 -0.06539807
-0.018329818 0.112435974 0.029703923 0.101783805 0.058521144 -0.075272255 0.06033096 -0.06480802
0.030747328 0.058378328 -0.045861416 -0.030455139 0.115157075 -0.09775333 -0.06800986 0.04660123
0.10668695 0.077250324 0.11784787 0.013248593 -0.08039157 0.042856913 0.023054246 0.09536913
-0.0381436 0.110392824 -0.042756103 0.07261773 0.10140536 -0.0808041 0.09309598 0.02944772
0.08031348 -0.096078716 -0.1040946 0.0061297673 -0.031833675 0.042884413 0.05084104 0.018470615
00000000: 4b49 8b3c 3123 79bd c2eb 013e 91a3 93bc
00000010: 4098 b1bd a471 b53d e605 a73d 9668 a33c
00000020: 33ec 9ebd 974d 81bd 4dd0 1bbc e888 683d
00000030: 1247 d2bd ea12 b8bd ed1d cd3d 821a 54bc
00000040: 9409 9cba ce8b 80bd 02df 523c e4cb b9bc
00000050: 03e8 e13d d27f d43c 7cce c6bc 78d3 b73d
00000060: 39d6 ec3d ccf4 6bbd 529d c73d 3c97 e1bd
00000070: e5c8 a2bc 6f49 55bd f932 fabc 0a06 c8bd
00000080: 8623 bbbd 6b6c 9abd a351 dd3d 5d93 fa3d
00000090: 704d 11bd eaab 6a3b 9815 ad3d b43c 86bb
000000a0: f03f 783d 15f8 c03a 8306 80bd 0ce6 973d
000000b0: 8126 0f3e 0311 48bd 62bc bcbc 9329 a03b
000000c0: 47ab e23d 0aaa 693c 52fb 91bd dc84 a9bc
000000d0: e822 0f3c 3746 6bbd 8c64 3f3d ed7a f9bd
000000e0: ec76 293d 6301 833d 9aa5 0fba a21e 3b3d
000000f0: a548 bdbc 3275 72bd d744 273d 16fc a43d
00000100: ee3a e1bc 01d8 813d 1873 bbbd 0893 0b3e
00000110: 79de 8bbd c07f d53c 560f 793d 02c5 933d
00000120: 9f8f aabd 0f9d c7bd bae8 673c 52ca b1bd
00000130: c400 a0bd b7e5 9bbd f32f 44bd 3881 ac3d
00000140: 534f 013e a4e2 00be 07f0 0c3d c33e 25bc
00000150: a4bb 88bd a740 a83d 9434 91bd 3d59 88bd
00000160: e4e0 9cbd 3e87 923c 67af 823d 4a57 88bd
00000170: 957e 9bbd a7af b43d e781 95bb c8fa e3bd
00000180: 037f 09bd 21e1 14bc 0e71 0b3c 3559 833d
00000190: a212 0c3e dbdd a8bd df80 7c3c 680c 89bc
000001a0: 03c0 aabd 481c 863d 194f 163d fa47 c93c
000001b0: a885 e93b 9112 70bd a1d4 003e 6a8e 26bd
000001c0: ca6d 53bc 3962 fa3d 7ac8 e53d 62d0 dcbd
000001d0: e6fe 4d3d 3a7b cabd 4e61 923d 7be9 36bd
000001e0: 3a16 863c 684f a33b 68f4 d9bd 4896 26bd
000001f0: fa37 92bd b4f8 d53d fda9 ab3d 929f f7bd
00000200: 07ba af3c 30a6 0b3d 7373 05bd 1fe1 0bbb
00000210: 5781 78bd 3065 fd3c acf1 833d 2ecc a0bd
00000220: 1df1 993d 634b 693d 076b b4bd 85cd 783c
00000230: d51e b93d f7ce 3bbd a681 533d 6c75 363c
00000240: 30cc 19bd 54b4 473d fc48 c4bd 153b c23d
00000250: f310 64bd 5bb9 1abd ad81 763c e887 f93d
00000260: b8ab 0c3e e7ab b63d c8ff 3dbd 74c8 f33c
00000270: f2ff cfbd 6ce3 123d ed3e 043e 4728 94bd
00000280: dba5 3b3d 143c c73d 1c69 a3bc 39e0 973d
00000290: b6e5 2d3d 2eba 9cbd 66d9 31bc cabf c5bd
000002a0: f0fd c43c 4fc7 a1bd 7573 96bb 6754 063d
000002b0: 320d 3f3d b30a 663d c16a 7cbd eecc bcba
000002c0: e3c7 703c 868a e2bd 6ceb bb3c 4ced 2dbd
000002d0: 397c 8ebb 4c31 debd a89c 2d3d 09ff cbbd
000002e0: 8fac 95bd 15a1 f1bd 992a f63d 47c6 f13c
000002f0: d4a9 ac3d 83c1 afbc c850 f53d 39b1 95bc
00000300: 8520 10bd 5735 d83d ff59 5bbd fcfb 11b9
00000310: cb3f d53c 3658 70bc cdde 57bd 620b b43d
00000320: 1226 5e3d 28e5 a8bd 445e 633c 34e3 683d
00000330: e283 463d 5506 09be 8b7b 0e3e 2aba 373d
00000340: 2a67 b9bd bf2c 863d 2078 a83d 0fbc e13c
00000350: c02d adbd d99d b2bd 1376 dcbc 6cef 85bd
00000360: 6a28 96bc d544 e63d a455 f33c 0774 d03d
00000370: deb3 6f3d 5728 9abd 991d 773d 11ba 84bd
00000380: d2e1 fb3c 1d1e 6f3d 2ed9 3bbd 0e7d f9bc
00000390: 79d7 eb3d e632 c8bd c148 8bbd eee0 3e3d
000003a0: b07e da3d 6b35 9e3d 395a f13d a010 593c
000003b0: 56a4 a4bd bb8a 2f3d 42dc bc3c e450 c33d
000003c0: 773c 1cbd a215 e23d 0621 2fbd 9bb8 943d
000003d0: 9dad cf3d 9f7c a5bd 1ba9 be3d 583c f13c
000003e0: 657b a43d ebc4 c4bd 8d2f d5bd 37dc c83b
000003f0: 0764 02bd 91a7 2f3d b23e 503d b04f 973c
