SecPPIS/output/model_epoch_5.pth (torch, 222997 bytes, 12 tensors)

embedding.weight f4 [8, 32]
0	0xbc9767d5	-0.018482128
1	0xbf773d66	-0.9657806
2	0xbeb660e1	-0.35620788
3	0x3f9f9940	1.2468643
4	0xbdfb5009	-0.12271125
5	0x3ff6242c	1.9229789
6	0xbe04a025	-0.12951715
7	0x4004757b	2.0696704
8	0xbf6be288	-0.92142534
9	0xbf32c07e	-0.6982497
10	0x3eb621cd	0.35572663
11	0x3ffaf062	1.9604609
12	0xc012d25b	-2.294089
13	0xbdbc164c	-0.0918394
14	0xbdad25ca	-0.08454473
15	0xbed45707	-0.41472647
16	0x3f9d5a55	1.2293192
17	0xbfe8ca4f	-1.818674
18	0x3eb56b41	0.3543339
19	0xbfb82912	-1.4387534
20	0x3fed6986	1.8547828
21	0xbf050f6d	-0.5197666
22	0x3e4a0553	0.19728594
23	0xbdc4cf56	-0.09609859
24	0xbf400aae	-0.75016296
25	0x3f9fc44c	1.248178
26	0xbe8a1756	-0.2697093
27	0xbd51b573	-0.051198434
28	0x3e9e5a3d	0.3092822
29	0x3fc5ba65	1.5447508
30	0x3f8001f3	1.0000595
31	0xbf095310	-0.5364237
32	0x3fa90035	1.3203188
33	0x3f224efc	0.6340177
34	0xbf80eba8	-1.0071917
35	0x3fad1f74	1.3525224
36	0xbf54ec1c	-0.83172774
37	0x3ded97d6	0.11601226
38	0xbef16c7a	-0.47153074
39	0x3f81e595	1.0148188
40	0xbf8ea51d	-1.1144139
41	0x3f589a18	0.8461013
42	0x3ed1a3c9	0.4094527
43	0x3ff796d2	1.9342902
44	0x3f256d63	0.64620036
45	0x3ef9a856	0.48761243
46	0x3de01be4	0.1094282
47	0x3f91c6e3	1.138882
48	0x3f28c0d0	0.6591921
49	0xbffd73b7	-1.9800938
50	0x3f26a3f0	0.650939
51	0xbf959c8c	-1.1688399
52	0xbefcedfd	-0.4940032
53	0x3db7e782	0.089797035
54	0xbf2e7732	-0.6815063
55	0x3e739bea	0.23789945
56	0xbbc2cf3d	-0.005945115
57	0x3bd6a4a6	0.0065503893
58	0xbf84aefc	-1.0365901
59	0xbef4d029	-0.47815064
60	0xbf15d42a	-0.5852686
61	0xbed1c73e	-0.40972322
62	0xc01c0172	-2.4375882
63	0x3ec30b9e	0.380948
64	0xbdc25658	-0.09489125
65	0xbfcd839e	-1.6055791
66	0x3f918d6a	1.1371281
67	0x3f96f450	1.1793308
68	0xbfbb0256	-1.4610088
69	0x3fae862d	1.3634697
70	0xbe05cc1d	-0.13066144
71	0xbf188af6	-0.5958704
72	0x3f9ec106	1.2402656
73	0x3ee7a0d4	0.4523989
74	0x3be6f8bd	0.007048695
75	0xbfb0ef49	-1.3823024
76	0x3fd2466b	1.642774
77	0x3ea3d7fc	0.3200072
78	0x3eec3525	0.46134296
79	0xbfa01164	-1.2505307
80	0x3e26c6ad	0.16286726
81	0xbfc7c4ad	-1.5606896
82	0xbf4b0b3c	-0.7931402
83	0xbf4dc792	-0.80382645
84	0xbf462082	-0.77393353
85	0xc00a269d	-2.1586068
86	0x3e310ee1	0.17290832
87	0xbfc37bfe	-1.5272214
88	0xbfe2ac7d	-1.7708889
89	0x3f46375f	0.7742824
90	0xbe433ff3	-0.19067363
91	0x3ec4a3fc	0.3840636
92	0x3de9fc06	0.11425023
93	0x3f59e8da	0.8512093
94	0x3dcf4313	0.10120215
95	0xbe96d0e9	-0.2945626
96	0x3fb0532f	1.3775386
97	0xbce86d09	-0.028372305
98	0x3e4316ee	0.19051716
99	0x3f89e3c7	1.0772637
100	0xbf774b50	-0.9659929
101	0xbf1c0af7	-0.6095423
102	0x3f1bcce3	0.6085951
103	0xbe9f884b	-0.3115867
104	0xbe1cf229	-0.15326752
105	0xbeadd088	-0.3394816
106	0xbe9f00f2	-0.3105541
107	0x3e6d9f65	0.23205335
108	0x3f5ceee3	0.8630201
109	0xbf8cf466	-1.1012084
110	0xbeb5b319	-0.35488203
111	0xbf1ce49c	-0.6128633
112	0xbf2534c2	-0.6453363
113	0xbf5c2aa3	-0.8600256
114	0x3fad4bfa	1.3538811
115	0x3e3389c1	0.17533018
116	0x3f4ae035	0.7924836
117	0x3f4e30ed	0.80543405
118	0xbe565402	-0.20930484
119	0x40432ee9	3.0497382
120	0xbe8998c5	-0.26874366
121	0x3fe71794	1.805407
122	0x3faa6900	1.3313293
123	0x3fb769c6	1.4329154
124	0xbf8a7f88	-1.082017
125	0xc0302ea4	-2.7528467
126	0xbf74bf6f	-0.95604604
127	0x3fb80b61	1.4378473
128	0x3eda768a	0.42668563
129	0xbfb7fe1b	-1.4374422
130	0x3f3a5067	0.72778934
131	0x3fb2ac16	1.3958766
132	0xbef8ff1e	-0.4863214
133	0xbf04a2c3	-0.51810855
134	0xbf4762b4	-0.77884984
135	0x3f85a040	1.043953
136	0x3f5f5c99	0.8725067
137	0x3f23ed85	0.640343
138	0x3eb06c80	0.3445778
139	0xbf9caa91	-1.2239553
140	0xbe4e30c9	-0.20135798
141	0x3f546412	0.82965195
142	0xc007e2e7	-2.123224
143	0xbfe25fcc	-1.7685485
144	0x400a8dcf	2.1649053
145	0x3e86732c	0.26259744
146	0x3ff20c46	1.8909996
147	0xbf8a0cc3	-1.0785145
148	0xbff3f280	-1.905838
149	0xbf077e27	-0.5292687
150	0xbf9e0b93	-1.2347282
151	0xbf9030fd	-1.126495
152	0x3f145dbf	0.57955545
153	0xbfc45a7d	-1.5340115
154	0xbfddbe51	-1.7323705
155	0x3fd1c20c	1.6387343
156	0xbf0a6567	-0.5406098
157	0x4003627e	2.0528865
158	0xbf7a3490	-0.97736454
159	0xbe326814	-0.17422515
160	0x3f4b24d9	0.793531
161	0x3d2a5b18	0.04159078
162	0x3d814b37	0.06313174
163	0x3d8c07ea	0.06837447
164	0x3e09035d	0.13380189
165	0x3ff78c2c	1.9339652
166	0x3f971ce2	1.1805689
167	0xbea0c004	-0.31396496
168	0x3e8084ce	0.25101322
169	0x3f4a7a3c	0.79092765
170	0xbff21fca	-1.8915951
171	0x3dcab252	0.09897293
172	0xbf5ac938	-0.85463285
173	0xbfe98aa5	-1.8245436
174	0x3fdbb681	1.7165071
175	0x3ebb9115	0.36634126
176	0xbf07a65d	-0.52988225
177	0x4027ce25	2.621957
178	0x3f7242f0	0.9463339
179	0x3ec6e878	0.38849235
180	0x3d043f38	0.032286853
181	0x3ec12641	0.37724498
182	0x3e94024b	0.28908
183	0xbed6fe8e	-0.41991085
184	0xbfbd8f8d	-1.4809433
185	0x3efe0acd	0.49617615
186	0x3ec38b71	0.38192323
187	0x3f942cac	1.1576133
188	0xbe1c69bd	-0.15274711
189	0x3e7b750f	0.24556373
190	0x3f26b984	0.65126824
191	0x3e22b4d9	0.158893
192	0xbd35be65	-0.044371027
193	0x40258686	2.5863357
194	0xbf998406	-1.1993415
195	0xbecc7c94	-0.39938796
196	0xbebbf6f2	-0.36711842
197	0x3efebe71	0.4975467
198	0x3e4ca75d	0.19985719
199	0x3fb8ce7b	1.4438013
200	0x3f21f6a5	0.63266975
201	0xbf6bfef0	-0.9218588
202	0xbe52f1f0	-0.20600104
203	0x3d7de238	0.061983317
204	0x3ebc16f4	0.36736262
205	0x3f8b6fbf	1.0893477
206	0xbf916dc7	-1.1361626
207	0x402ce164	2.7012568
208	0x3f030c15	0.5119031
209	0xbfd35820	-1.6511269
210	0x3e68eab1	0.22745778
211	0x3f3c88c2	0.73646176
212	0x3f8be281	1.0928499
213	0x3fa71422	1.3053019
214	0xbff48829	-1.9104053
215	0xbfabe949	-1.3430568
216	0xbf4b0f4e	-0.7932023
217	0x3ecdadbf	0.4017162
218	0xbfcef2de	-1.6167867
219	0xbea763ea	-0.32693416
220	0xbfa26c05	-1.2689215
221	0x3df44d71	0.11928833
222	0xbef466aa	-0.47734576
223	0xbf389689	-0.721047
224	0x3e20eaed	0.15714617
225	0x3d8e066c	0.069348186
226	0x3d38e46e	0.045139723
227	0xbf43f14d	-0.7654007
228	0xbf9a7c3e	-1.2069166
229	0x3e47dd50	0.19518018
230	0xbe104026	-0.1408697
231	0xbfba3bd2	-1.4549506
232	0xbfb9c483	-1.4513096
233	0xbf739325	-0.951464
234	0xbf9fd42a	-1.2486622
235	0x3d311242	0.043230303
236	0x3f6217a8	0.88317347
237	0x3e703702	0.23458484
238	0xc00835d6	-2.128286
239	0xbdb4e221	-0.08832193
240	0xbe647b15	-0.22312577
241	0x3eec94e4	0.46207345
242	0xbd47a5ab	-0.048741978
243	0xbffe57ab	-1.9870504
244	0xbef31c58	-0.47482562
245	0xbdfaa530	-0.12238538
246	0xbfa141b8	-1.2598181
247	0x3c0a53fb	0.008442874
248	0xbf885bdc	-1.0653033
249	0x3f61d0d4	0.8820927
250	0x3fb034fc	1.376617
251	0x3e83c93e	0.25739473
252	0xbf6579b4	-0.8963883
253	0xbd898e5a	-0.067166045
254	0xbe4591db	-0.1929392
255	0x3f2d2a3a	0.6764256

lstm.weight_ih_l0 f4 [256, 32]
0	0xbdeefbe3	-0.11669137
1	0x3d7a0550	0.061040223
2	0xbd64390a	-0.05571846
3	0xbc1ccfbf	-0.009571015
4	0xbccbb020	-0.024864256
5	0x3df43288	0.119237006
6	0xbdb83bb7	-0.08995765
7	0xbd5b65dc	-0.053563938
8	0xbdbcb383	-0.09213927
9	0xbc37d3cd	-0.011219931
10	0x3da82aaa	0.082112625
11	0xbb1d5698	-0.0024007913
12	0x3cc17d06	0.023619186
13	0xbb076991	-0.0020662288
14	0x3d4c21a3	0.049836766
15	0xbd80fc7c	-0.062981576
16	0x3d7b1d85	0.06130745
17	0xbbeef491	-0.007292338
18	0xbd73b41b	-0.059497934
19	0x3d18a982	0.03727103
20	0xbbf53167	-0.007482696
21	0x3da27d57	0.07934063
22	0x3da08110	0.07837117
23	0xbda4d8e1	-0.08049179
24	0x3d4fd373	0.050738763
25	0x3dc78d43	0.097437404
26	0x3da62dd2	0.08114208
27	0xbdae55c3	-0.085124515
28	0xbdc0ab72	-0.094077006
29	0xbd4203bc	-0.047366843
30	0x3e0f1974	0.13974553
31	0x3d9fa731	0.07795561
32	0xbd45f4ee	-0.048329286
33	0x3daea042	0.085266605
34	0x3b719db4	0.003686768
35	0x3e09d423	0.1345983
36	0xba355ae8	-0.0006918148
37	0x3de979d4	0.1140019
38	0xbb8c375a	-0.0042790594
39	0x3e120905	0.14261253
40	0xbde72e11	-0.11288083
41	0x3ccc5a92	0.024945531
42	0xbcf193f7	-0.0294895
43	0xbdb00195	-0.08594052
44	0x3cbb073b	0.022830596
45	0x3d2ba8e8	0.04190913
46	0x3db8eb75	0.09029285
47	0xbdb3a377	-0.08771413
48	0xbb0f29c9	-0.0021844974
49	0xbd1d9a47	-0.03847721
50	0xbd59b5c7	-0.053151872
51	0xbc618374	-0.013764251
52	0x3e088b40	0.1333437
53	0xbdcdcb7a	-0.10048576
54	0x3de599e0	0.1121099
55	0x3db92712	0.09040655
56	0x3d25b0c9	0.0404518
57	0xbd81b790	-0.0633384
58	0x3dcbe248	0.09955269
59	0x3d91c6fb	0.07118031
60	0xbd930557	-0.07178753
61	0xbdd3e338	-0.10346073
62	0x3c490c3c	0.012270983
63	0x3d93fbbe	0.072257504
64	0x3dc2526a	0.094883755
65	0xbe10463e	-0.14089295
66	0xbd64d3e5	-0.05586614
67	0xbdc57ded	-0.09643159
68	0x3dcd314b	0.100191675
69	0xbd5fa790	-0.05460316
70	0x3d5fb5f3	0.05461688
71	0x3d16f6c3	0.036856424
72	0xbdae0142	-0.08496334
73	0x3c62c1cb	0.013840149
74	0x3c4b134e	0.012394739
75	0xbd3d483d	-0.04621147
76	0x3d4a46fc	0.049384102
77	0xbe14649b	-0.14491503
78	0x3d1f2b8e	0.038859896
79	0xbd96038f	-0.073248975
80	0x3de48d32	0.11159743
81	0xbd8dd2a1	-0.0692494
82	0x3e043c63	0.1291366
83	0xbc5bff42	-0.013427557
84	0xbda78623	-0.081798814
85	0x3d12d3e9	0.035846625
86	0xbc42872f	-0.011873051
87	0x3da90119	0.082521625
88	0xbccb39cb	-0.024807831
89	0xbdc83d1c	-0.09777281
90	0xbd9e05f0	-0.07715976
91	0x3c9ea498	0.019365594
92	0xbdbf8529	-0.0935157
93	0x3cb582c5	0.022157082
94	0x3dffe78e	0.124953374
95	0xbd122abb	-0.035685282
96	0xbe1767b0	-0.14785647
97	0xbdd8c8a1	-0.10585142
98	0xbdddecb5	-0.10836164
99	0x3d6199d7	0.055078354
100	0x3ddae553	0.106882714
101	0xbd2a5a59	-0.04159007
102	0x3cdb00df	0.026733814
103	0xbda53022	-0.08065821
104	0xbb991aff	-0.0046724076
105	0xbddb9980	-0.10722637
106	0xbd9f8671	-0.077893145
107	0x3d315f8b	0.043304008
108	0x3cf86fee	0.03032681
109	0x3d910b24	0.07082203
110	0x3d3c8c58	0.04603228
111	0x3cec8b1b	0.028874924
112	0xbd9b846d	-0.075936176
113	0x3d880842	0.066422
114	0xbcd79622	-0.026316706
115	0xbe0fff1c	-0.1406216
116	0xbdc88328	-0.09790641
117	0x3c0c51c2	0.008564414
118	0xbdbe96fd	-0.093061425
119	0xbd566cc4	-0.05234982
120	0x3d7d1ca8	0.061794907
121	0x3cf3c73a	0.029758085
122	0x3d9c0957	0.07618969
123	0x3db624ad	0.08893714
124	0xbd567492	-0.052357264
125	0x3e0dd883	0.13852124
126	0x3da7b343	0.08188488
127	0x3d718135	0.058961112
128	0x3ddb53c2	0.10709335
129	0xbdf2dbf9	-0.11858363
130	0x3c21ca98	0.009874962
131	0xbcdba808	-0.026813522
132	0xbda10fcb	-0.078643404
133	0xbdd93dcd	-0.10607491
134	0x3d41348a	0.047169246
135	0xbda83fe3	-0.082153104
136	0xbe06650e	-0.13124487
137	0xbd6116e9	-0.05495349
138	0x3dbb726a	0.09152682
139	0x3e107a76	0.14109215
140	0x3cb993ad	0.022653425
141	0x3da3f852	0.08006348
142	0xbda8671c	-0.082227916
143	0xbd1d7697	-0.038443174
144	0xbbd3a542	-0.0064589093
145	0x3d04c745	0.0324166
146	0xbc72bd47	-0.014815635
147	0xbe0d2ed3	-0.13787393
148	0x3a172da2	0.00057669927
149	0xbdaffc48	-0.08593041
150	0xbd4271b0	-0.047471702
151	0xbd8e6d60	-0.069544554
152	0x3c6e709c	0.014553215
153	0x3dc9b346	0.09848647
154	0xbc7739f9	-0.015089505
155	0xbdf9a32d	-0.121893264
156	0x3d9cb7d8	0.07652253
157	0xbda31c1b	-0.07964345
158	0x398de325	0.00027062852
159	0xbd4ff67b	-0.05077217
160	0xbd9dab82	-0.07698728
161	0x3d923d13	0.07140555
162	0xbcd9e55d	-0.026598627
163	0x3d5b76ad	0.053579975
164	0x3d2fac38	0.04288885
165	0xbd2adf42	-0.04171682
166	0x3d50025b	0.050783496
167	0xbdea117d	-0.11429117
168	0x3b89a899	0.0042010066
169	0x3e016c66	0.12639007
170	0xbd11884d	-0.035530377
171	0xbdc0add8	-0.09408158
172	0x3db30f6d	0.087431766
173	0x3d070c07	0.032970455
174	0xbd845a6e	-0.064625606
175	0xbd007aae	-0.031366996
176	0x3d95ec5c	0.073204726
177	0x3cf231c1	0.02956474
178	0xbd3c66ef	-0.045996603
179	0x3d6d6333	0.057955932
180	0xbdf8d81a	-0.12150593
181	0xbd826f4e	-0.06368886
182	0x3d27c8fa	0.04096315
183	0x3db37691	0.08762849
184	0x3bfb9714	0.007677922
185	0x3d97c576	0.074107096
186	0x3c170cd6	0.009219369
187	0x3d79a288	0.060946018
188	0xbcd78c16	-0.026311915
189	0x3dc02c3f	0.09383439
190	0xbc8b842b	-0.017030796
191	0xbc832018	-0.016006514
192	0xbdcd0d16	-0.100122616
193	0xbda22419	-0.07917041
194	0xbd999fee	-0.07501207
195	0x3e1018ff	0.14072035
196	0x3bf25260	0.007395074
197	0xbd8e6fad	-0.06954894
198	0xbdcbf46b	-0.099587284
199	0x3d3c8f92	0.046035357
200	0xbd942d79	-0.07235236
201	0x3dcb3435	0.09922067
202	0x3dbf4aba	0.09340425
203	0xbdb19f30	-0.08672941
204	0xbda94bac	-0.082663864
205	0xbc3b6139	-0.011436754
206	0xbdcce368	-0.10004312
207	0x3d7160ee	0.05893033
208	0x3cab914a	0.020943303
209	0xbd493eac	-0.049132034
210	0xbd7a1c53	-0.06106217
211	0x3d786a19	0.060648058
212	0x3c844a4c	0.016148709
213	0xbdd0d231	-0.10196341
214	0x3dd6c3a5	0.10486535
215	0x3df088cf	0.11744844
216	0xbdcc3a61	-0.099720724
217	0x3d8cfbae	0.068839416
218	0xbe090888	-0.1338216
219	0xbc0f1b8b	-0.008734594
220	0x3dabc76d	0.08387647
221	0x3bf1baa0	0.0073769838
222	0xbad10ad8	-0.0015948666
223	0xbdafe37a	-0.085883096
224	0x3cee01ff	0.029053686
225	0x3c93f820	0.018062651
226	0x3db79870	0.08964622
227	0x3da3ef12	0.080045834
228	0x3c89ec91	0.016836436
229	0x3dd6c8d3	0.10487523
230	0xbdcf13db	-0.10111209
231	0xbd81a81d	-0.06330893
232	0x3da067cd	0.078322984
233	0x39a42355	0.00031306842
234	0x3c8ecf5f	0.017432867
235	0x3b1872f4	0.0023261877
236	0x3db63358	0.08896512
237	0xbdd07a04	-0.10179523
238	0xbc34f726	-0.011045253
239	0x3c4aeb83	0.012385252
240	0x3db93e71	0.09045113
241	0x3d9edd14	0.07757011
242	0x3d54ada4	0.05192341
243	0xbd42662c	-0.04746072
244	0x3ca3d180	0.019997358
245	0xbcf70b61	-0.030156793
246	0xbd4b42ca	-0.049624242
247	0xbd8af521	-0.06785036
248	0xbd8811d7	-0.06644028
249	0x3d7bde9f	0.061491605
250	0x3ddabee2	0.10680939
251	0xbd5e7858	-0.054313987
252	0xbb9fd660	-0.0048778504
253	0xbddc0dfb	-0.10744854
254	0xbda5d67a	-0.08097549
255	0xbdc903d6	-0.09815185

lstm.weight_hh_l0 f4 [256, 64]
0	0xbc2c2738	-0.010507397
1	0x3ccfa52a	0.025347311
2	0xbda73bce	-0.08165704
3	0xbde65093	-0.11245837
4	0x3db4b3d9	0.08823366
5	0x3c38d0fe	0.011280296
6	0xbdcf08eb	-0.10109123
7	0x3da2ff91	0.07958902
8	0x3da31069	0.07962114
9	0xbd97ff5b	-0.07421752
10	0xbd48def2	-0.049040742
11	0x3d62eefd	0.0554037
12	0x3b98a835	0.0046587237
13	0xbddaf8c8	-0.106919825
14	0xbc487922	-0.012235912
15	0xbcc5648d	-0.024095798
16	0xbd2bd1fc	-0.041948304
17	0xbc03465c	-0.00801238
18	0x3d28409d	0.041077245
19	0x3d89d93a	0.06730886
20	0xbdf23414	-0.11826339
21	0x3d824fae	0.06362854
22	0x3c23aa4e	0.009989334
23	0x3cff3d39	0.031157123
24	0x3da34430	0.0797199
25	0x3c9f699b	0.019459536
26	0xbdc54aa8	-0.0963338
27	0x3ddaca9e	0.106831774
28	0xbd32bb89	-0.04363588
29	0xbdbebaa0	-0.0931294
30	0x3e0e7400	0.13911438
31	0x3d1378b0	0.03600377
32	0xbdedfcbf	-0.11620473
33	0x3c88fae0	0.016721189
34	0xbd1e1168	-0.03859082
35	0x3e05c646	0.13063917
36	0x3d77a616	0.060461126
37	0xbd9b75c6	-0.07590823
38	0x3d520d3a	0.051282145
39	0x3e00bcee	0.12572071
40	0x3d5d7fb5	0.05407687
41	0xbcccdce8	-0.02500768
42	0x3d01f11b	0.031724077
43	0x3bbc93aa	0.0057549076
44	0x3d8849cc	0.06654701
45	0x3d76c50b	0.06024651
46	0xbcc38c53	-0.023870623
47	0xbce2a3c7	-0.027665986
48	0xbd1243f5	-0.03570934
49	0x3e0ec1e5	0.13941152
50	0xbd3910ea	-0.045182146
51	0x3d1502d6	0.036379658
52	0xbd96e097	-0.07367056
53	0x3d788659	0.060675
54	0xbdd1e268	-0.10248262
55	0x3dddf2bb	0.10837313
56	0xbc5345d2	-0.012895064
57	0x3db54199	0.088504024
58	0xbd9e7a33	-0.077381514
59	0x3da9f46f	0.08298575
60	0xbb96aee5	-0.004598486
61	0x3dbc75ff	0.092021935
62	0xbc28ef8a	-0.010311017
63	0xbd1acfe6	-0.037795924
64	0x3e01b383	0.12666135
65	0x3d8cdb71	0.068777926
66	0xbdce1415	-0.10062424
67	0x3cef6c87	0.029226555
68	0x3dedbcb7	0.1160826
69	0x3dc9f7e7	0.09861737
70	0xbdea57c2	-0.1144252
71	0xbd3b7559	-0.04576621
72	0xbdb082c6	-0.08618693
73	0xbdb6862a	-0.089123085
74	0x3d68cf9c	0.056838617
75	0xbd8981eb	-0.06714233
76	0x3dba18a1	0.09086729
77	0xbdb76907	-0.08955579
78	0xbdc4d2e5	-0.096105374
79	0xbd9394fc	-0.07206151
80	0xbdc74786	-0.09730439
81	0x3d91a3a9	0.07111294
82	0xbdb005f1	-0.08594883
83	0xbdb9028f	-0.09033691
84	0x3b8ecc5b	0.004357857
85	0xbdab2056	-0.08355777
86	0x3cb858cf	0.022503285
87	0x3d9b13cd	0.07572136
88	0x3da82fb4	0.08212224
89	0xbd0de83c	-0.034645304
90	0xbc2208ae	-0.009889765
91	0xbc614402	-0.0137491245
92	0x3c7402c9	0.014893242
93	0x3e0e2705	0.13882072
94	0xbc5d0759	-0.013490521
95	0xbd1ff25a	-0.039049484
96	0xbdcebe3e	-0.100948796
97	0xbdc3b9dc	-0.09556934
98	0x3d76e8d4	0.060280636
99	0xbd99e9c4	-0.075152904
100	0x3d05abb6	0.03263446
101	0x3dfc5c22	0.123222604
102	0xbe001d2f	-0.12511133
103	0x3d59e19b	0.05319367
104	0x3c260960	0.010134071
105	0x3d1912f4	0.03737159
106	0x3d9283ff	0.071540825
107	0x3d2fbf1b	0.04290686
108	0x3dad2dc4	0.08455995
109	0xbd537871	-0.051628534
110	0x3d46f328	0.048571736
111	0x3b3e076c	0.0028996123
112	0xbcd18216	-0.025574725
113	0xbc3b30f2	-0.011425244
114	0x3e07191f	0.13193177
115	0x3c2d151e	0.010564117
116	0x3c77148d	0.015080583
117	0xbe01e092	-0.12683323
118	0x3d8479e2	0.0646856
119	0x3d672d0d	0.05643945
120	0xbda8b7ea	-0.08238204
121	0xbcb1f05d	-0.02172106
122	0x3bef801f	0.0073089744
123	0xbbcd9a4b	-0.0062744967
124	0xbe06ba35	-0.1315697
125	0xbd5d5ada	-0.05404172
126	0xbdbe3f2b	-0.09289392
127	0xbd3b3126	-0.04570117
128	0x3d20c1ee	0.039247446
129	0x3dc3ecc4	0.09566644
130	0x3e05ea3f	0.13077639
131	0xbbf27ee9	-0.007400383
132	0x3cadd944	0.021221764
133	0x3d998c63	0.0749748
134	0xbdcd7c7f	-0.10033511
135	0x3e0f9102	0.1402016
136	0x3c517450	0.012784079
137	0xbccc7d40	-0.024962068
138	0xbd2fd8d2	-0.042931385
139	0x3d3b59d7	0.045739975
140	0xbd88008e	-0.06640731
141	0x3d4e07cd	0.05030041
142	0xbdcd1635	-0.10014001
143	0x3c6960a5	0.014244233
144	0xbdfcd02d	-0.12344394
145	0xbcd7ab24	-0.026326723
146	0xbdfb2f89	-0.12264926
147	0x3ba1540f	0.0049233506
148	0xbd894de8	-0.067043126
149	0x3cd45b3c	0.02592241
150	0x3ddaedeb	0.106899105
151	0x3d056fcd	0.032577325
152	0x3de530f2	0.11190976
153	0x3c360cbb	0.011111434
154	0xbd6e7b7c	-0.058223233
155	0x3c3bc58a	0.011460671
156	0xbdc0809d	-0.09399531
157	0xbcfa799e	-0.03057557
158	0x3d950dd5	0.07278029
159	0x3d913877	0.07090848
160	0xbcd33353	-0.02578131
161	0xbe00d867	-0.12582551
162	0x3d7d2a52	0.061807938
163	0xbd5b1a31	-0.053491775
164	0xbc8148ef	-0.015781848
165	0x3d82ab36	0.06380312
166	0xbe012b71	-0.12614228
167	0x3c37ee43	0.01122624
168	0x3cadd7d9	0.021221088
169	0xbdcd8cd5	-0.10036627
170	0x3dc0cc7d	0.09414003
171	0xbdd6827b	-0.10474106
172	0x3bd9d960	0.0066482276
173	0x3ddcdd4a	0.10784395
174	0xbca1ae46	-0.01973642
175	0x3bfe8c6f	0.007768206
176	0x3cdbaa8f	0.026814727
177	0xbd4120aa	-0.04715029
178	0x3df44803	0.11927798
179	0x3d9affd0	0.075683236
180	0xbd3c47a0	-0.045966744
181	0x3c372201	0.011177541
182	0x3cbb284d	0.022846365
183	0xbcba3b5b	-0.022733381
184	0xbd6865ed	-0.05673783
185	0xbdddb598	-0.10825652
186	0xbc550cec	-0.013003569
187	0x3e055a5f	0.13022755
188	0x3d994cda	0.074853614
189	0xbdd94d29	-0.1061042
190	0x3d9d09fe	0.076679215
191	0x3da67422	0.08127619
192	0xbcf2274e	-0.029559758
193	0xbe01513f	-0.12628649
194	0x3dbd69f9	0.09248728
195	0x3d4b17e4	0.04958333
196	0xbd26662f	-0.040624794
197	0xbda675db	-0.08127948
198	0x3d54fb52	0.05199749
199	0xbd6c27bc	-0.05765508
200	0x3cf59b62	0.029981319
201	0x3db05a2f	0.08610951
202	0xbd889583	-0.06669142
203	0xbcde4324	-0.027131625
204	0x3d521a62	0.05129469
205	0xb8126b38	-3.4908968e-05
206	0x3dc12f80	0.09432888
207	0x3e0dddb9	0.13854112
208	0x3c8009c8	0.015629664
209	0x3d0ccab0	0.034372985
210	0xbc37fb52	-0.011229353
211	0x3dbfe518	0.09369868
212	0xbdc4f74d	-0.096174814
213	0xbd6466c1	-0.055762056
214	0xbd29983c	-0.041404948
215	0xbcc99d1c	-0.024611048
216	0x3d8d9e00	0.06914902
217	0xbd5318b1	-0.05153722
218	0x3b98c6ee	0.004662386
219	0xbdcf5183	-0.10122969
220	0x3d81c544	0.063364536
221	0xbd871c97	-0.0659725
222	0xbd4a8e42	-0.049452074
223	0xbbfb9df9	-0.007678744
224	0x3d6ca0fd	0.057770718
225	0x3dcbc355	0.09949366
226	0xbd36afac	-0.044601128
227	0xbdcb6a6f	-0.0993241
228	0x3d132061	0.03591955
229	0x3de9e0f8	0.114198625
230	0x3d71b686	0.05901196
231	0xbd6182c5	-0.055056352
232	0xbe06901f	-0.13140915
233	0xbd07c790	-0.033149302
234	0x3d9f5c97	0.07781332
235	0xbd900988	-0.07033068
236	0xbdf0d39f	-0.117591135
237	0xbc93751b	-0.018000176
238	0xbe08c6a3	-0.13357024
239	0xbd99323a	-0.07480283
240	0xbdb47b6b	-0.088126026
241	0x3de6c186	0.112673804
242	0xbc87ef06	-0.016593467
243	0x3dca23e3	0.09870126
244	0x3dc4f22b	0.096165024
245	0xbd9cb06f	-0.076508395
246	0x3dd24e0e	0.10268794
247	0x3d2623b8	0.040561408
248	0xbdf55fa2	-0.11981131
249	0x3d7f2e1b	0.06229983
250	0x3d0646db	0.032782417
251	0xbd347dfb	-0.044065457
252	0xbd1bed1e	-0.03806793
253	0x3d8f6a9d	0.07002757
254	0x3c60cc8b	0.013720642
255	0x3c963a13	0.018338239

lstm.bias_ih_l0 f4 [256]
0	0x3cab6ae9	0.020925002
1	0xbd1fc53e	-0.039006464
2	0x3db9f28a	0.09079464
3	0xbd514d37	-0.05109903
4	0x3d3ce4e9	0.046116743
5	0xbd52aef6	-0.051436387
6	0xbd3b5d49	-0.04574326
7	0x3ddadf9e	0.10687183
8	0x3c899e25	0.016799042
9	0xbd29820f	-0.0413838
10	0x3d771102	0.060318954
11	0x3a4f6580	0.0007911548
12	0x3d1f3130	0.03886527
13	0xbcdf6de5	-0.027274081
14	0x3d25af04	0.04045011
15	0xbd0ba025	-0.034088273
16	0xbcbdc09f	-0.023163138
17	0xbdf60c65	-0.12014083
18	0x3dad0ad3	0.0844933
19	0xbde1fb07	-0.11034208
20	0x3d541733	0.051779937
21	0xbdd4afa2	-0.10385062
22	0x3cfca2c3	0.03083933
23	0x3e087eac	0.13329571
24	0x3ce7e40e	0.028306987
25	0xbd54c414	-0.051944807
26	0x3d81afe1	0.06332374
27	0x3dff9b88	0.12480837
28	0x3d8394af	0.064248435
29	0x3cb3c4d7	0.021944446
30	0xbd78dcf5	-0.060757596
31	0xbd1640af	-0.03668278
32	0xbcd2d24a	-0.02573504
33	0xbc3a2f22	-0.011363776
34	0x3c26fa0a	0.01019145
35	0xbdeca303	-0.115545295
36	0xbdc035fe	-0.09385298
37	0xbdd80cf3	-0.10549345
38	0x3dc218e1	0.094774015
39	0x3e080d5b	0.13286345
40	0x3d3865af	0.045018848
41	0x3d6dfca1	0.058102254
42	0xbdc605ce	-0.09669076
43	0xbd9e4592	-0.07728113
44	0x3c45dad3	0.012076098
45	0x3d96f9d4	0.0737187
46	0x3d379d3a	0.044827677
47	0xbd85044a	-0.06494959
48	0x3ca8f3b4	0.02062402
49	0xbcd41677	-0.025889618
50	0x3cebc2a9	0.028779345
51	0xbb1c81eb	-0.0023881148
52	0x3c931ffe	0.017959591
53	0xbd375126	-0.044755124
54	0x3d3d24c5	0.046177644
55	0xbdb06704	-0.08613399
56	0xbd2d9584	-0.042378917
57	0x3b32c8ff	0.0027280448
58	0x3d1d669a	0.038427927
59	0x3d162732	0.036658473
60	0x3d8871b8	0.06662315
61	0xbd8aae81	-0.06771565
62	0xbcf1734a	-0.02947392
63	0xbdc7997f	-0.09746074
64	0xbd8b19cf	-0.06792032
65	0x3d97de25	0.074154176
66	0x3e102d1b	0.14079706
67	0xbd6150dc	-0.055008754
68	0xbd497ec5	-0.049193162
69	0x3dd44a2f	0.10365712
70	0x3dfa8d3a	0.12233968
71	0x3df066e2	0.11738373
72	0x3ddef516	0.1088659
73	0x3df9e140	0.12201166
74	0x3d19a93c	0.03751491
75	0x3d951ca6	0.07280855
76	0x3d0b458c	0.034001872
77	0x3cc5a4a6	0.024126362
78	0xbd4c1ca0	-0.049831986
79	0xbd368415	-0.044559557
80	0xbd4cf6b4	-0.050039962
81	0xbcbdfc9b	-0.02319174
82	0x3df155ce	0.11783944
83	0xbdae6bd4	-0.0851666
84	0x3dd42914	0.103593975
85	0xbc6e0415	-0.01452734
86	0x3cf8b2a3	0.030358618
87	0x3d8c805e	0.068604216
88	0x3d005338	0.031329364
89	0xbd8f23c3	-0.06989243
90	0x3bbefb67	0.0058283093
91	0x3ddd2604	0.107982665
92	0x3d89e3af	0.0673288
93	0xbe0442c6	-0.12916097
94	0x3d8618c8	0.065476954
95	0x3cb82aed	0.022481406
96	0x3c53c1b3	0.012924599
97	0x3db259ea	0.08708556
98	0x3dbc2348	0.09186417
99	0xbdea23a5	-0.1143258
100	0x3b52c6ac	0.0032161875
101	0xbdc1c6a4	-0.09461716
102	0x3c1627e3	0.009164783
103	0xbd62707a	-0.055283047
104	0x3d830d00	0.06398964
105	0x3d19778f	0.037467536
106	0xbd4cc2dd	-0.049990524
107	0x3dceedea	0.10103972
108	0xbc13ec3b	-0.00902849
109	0x3c416187	0.0118030375
110	0x3dba7cd9	0.09105844
111	0x3c7473fd	0.014920232
112	0x3d4f25ac	0.050573036
113	0x3c3a3bf2	0.011366831
114	0x3d5f1c69	0.054470453
115	0x3dd440f8	0.10363954
116	0x3d89c1ea	0.06726439
117	0xbc577b34	-0.0131519325
118	0x3d8f8452	0.0700766
119	0xbd714bf8	-0.05891034
120	0x3df1c9de	0.11806081
121	0xbdae0288	-0.084965765
122	0xbd3baeec	-0.045821115
123	0x3c31e432	0.010857629
124	0xbd8d20ab	-0.068909965
125	0x3c849623	0.016184872
126	0x3d3d11b4	0.04615946
127	0x3df8bef0	0.121457934
128	0x3c8803c0	0.01660335
129	0x3dd3ccd6	0.10341804
130	0x3cea5abf	0.028607724
131	0x3da4dcd2	0.08049931
132	0x38127100	3.4914352e-05
133	0x3da085e9	0.07838041
134	0x3db2b5ce	0.08726083
135	0x3dd0318c	0.101657
136	0x3c0b997b	0.008520479
137	0x3dc57941	0.09642268
138	0x3c824745	0.015903125
139	0x3d101984	0.035180584
140	0x3daa1f2c	0.08306727
141	0xbdf738af	-0.120713584
142	0xbd94fd8c	-0.07274923
143	0xbe0b3eec	-0.13598222
144	0x3b2814c3	0.002564714
145	0xbe0674fd	-0.13130565
146	0xbdbc3d6c	-0.09191403
147	0x3de24468	0.11048204
148	0xbd49215b	-0.049104076
149	0x3d0daac3	0.03458668
150	0xbc989c13	-0.01862911
151	0x3c0cce65	0.00859413
152	0x3da8cd56	0.0824229
153	0xbdfcac55	-0.12337557
154	0xbbf30bdd	-0.0074171857
155	0x3d9b5834	0.07585183
156	0xbc80c5ed	-0.015719378
157	0xbc950703	-0.01819182
158	0x3db58311	0.088628896
159	0x3d6e8ec7	0.05824163
160	0x3c32b561	0.010907502
161	0xbdc49348	-0.09598404
162	0xbded71cb	-0.1159397
163	0xbdf28d65	-0.11843375
164	0x3d26c447	0.04071453
165	0x3dd0f98d	0.10203848
166	0xbdcfd138	-0.10147327
167	0x3ca82d73	0.020529484
168	0xbdf68fab	-0.12039121
169	0x3b421c0d	0.002961877
170	0x3df9687b	0.12178131
171	0xbe022201	-0.12708284
172	0xbdf30a26	-0.1186717
173	0x3db9a8b4	0.09065381
174	0xbd78e86a	-0.060768522
175	0x3d2b5e69	0.041838083
176	0xbdddcbb7	-0.10829871
177	0xbc1f29ba	-0.009714538
178	0x3de39a08	0.111133635
179	0xbc2fcc6a	-0.010729888
180	0x393a74a8	0.000177818
181	0x3d9e70e1	0.07736374
182	0xbda95969	-0.08269007
183	0xbde4e9fb	-0.11177441
184	0xbdc49169	-0.09598047
185	0xbdb9cd4f	-0.09072363
186	0x3dd8fb76	0.10594837
187	0xbc2b3667	-0.010449982
188	0xbd96a80c	-0.07356271
189	0x3d6daae6	0.05802431
190	0xbda426f6	-0.08015244
191	0x3dc20368	0.09473306
192	0xbda961c2	-0.08270599
193	0xbd94f115	-0.07272545
194	0xbd8c36cc	-0.06846389
195	0x3df7a24e	0.12091504
196	0x3d8fe591	0.07026208
197	0xbcfae966	-0.030628871
198	0xbba25c28	-0.0049548335
199	0x3d87e4b5	0.06635419
200	0xbc32d031	-0.0109138945
201	0x3d8f793b	0.07005545
202	0x3bf3ca71	0.0074399044
203	0xbba78dbd	-0.005113332
204	0x3d907e20	0.070553064
205	0x3d82b2ad	0.06381736
206	0xbb45ee59	-0.003020188
207	0xbdd9ffbf	-0.10644483
208	0xbce9bd43	-0.02853263
209	0x3dcbe78c	0.099562734
210	0xbd721678	-0.05910346
211	0x3da2b920	0.07945466
212	0xbcfc8cca	-0.030828852
213	0xbda7c040	-0.08190966
214	0x3d9816eb	0.07426246
215	0x3e04beb1	0.12963368
216	0x3d6f8a32	0.058481403
217	0x3ddffc24	0.10936764
218	0xbdcac793	-0.09901347
219	0x3db3e620	0.08784127
220	0xbddf0043	-0.10888722
221	0x3dcca197	0.09991758
222	0xbb07e3fb	-0.0020735252
223	0x3d896334	0.067083746
224	0xbd366a6a	-0.044535078
225	0x3df9c0d3	0.121949814
226	0xbd7f3ae9	-0.06231204
227	0x3d217054	0.039413765
228	0x3d38c489	0.045109306
229	0x3ce760ce	0.028244402
230	0x3c0170e1	0.007900448
231	0x3e04fbfb	0.12986748
232	0x3df6da08	0.12053305
233	0xbd19d81d	-0.037559617
234	0xbdab1d05	-0.083551444
235	0xbd296375	-0.041354615
236	0xbc87084b	-0.016483447
237	0xbd8db5a9	-0.069194146
238	0x3df56332	0.11981811
239	0x3db17a30	0.086658835
240	0xbd3ab25a	-0.045580246
241	0xbd86a7ae	-0.06574951
242	0xbc9dded3	-0.01927129
243	0xbd031870	-0.032005727
244	0xbcced845	-0.02524961
245	0xbc79ca15	-0.015245934
246	0x3dd9e138	0.1063866
247	0x3db72ab7	0.08943694
248	0x3d22a071	0.03970379
249	0x3dd0c34c	0.101935
250	0x3d9d7bc8	0.07689625
251	0xbdc42c6f	-0.095787875
252	0x3e09551f	0.13411377
253	0xbd884af2	-0.0665492
254	0xbddef531	-0.1088661
255	0x3dcb24c2	0.0991912

lstm.bias_hh_l0 f4 [256]
0	0x3df7b654	0.12095323
1	0xbdb31326	-0.08743887
2	0x3d1bfc28	0.03808227
3	0x3cc9e7b8	0.024646625
4	0xbd7d0ace	-0.061777882
5	0xbde194e1	-0.110147245
6	0x3df4c35f	0.119513266
7	0x3e008d33	0.12553863
8	0xbd30dde6	-0.04318037
9	0x3e08556d	0.13313837
10	0xbde2074f	-0.1103655
11	0x3decf15e	0.11569475
12	0xbd451e9e	-0.048124902
13	0xbdad93ed	-0.0847548
14	0x3d5123d4	0.05105956
15	0x3cc0ed0c	0.023550533
16	0x3a3f642e	0.0007301
17	0xbd7d94f9	-0.06190965
18	0x3bdada96	0.0066788895
19	0xbdfc441c	-0.12317678
20	0x3da94ff5	0.08267204
21	0x3be706e8	0.007050384
22	0x3df02771	0.11726273
23	0x3da8e9ed	0.08247743
24	0x3cf9e0ee	0.030502763
25	0xbd630fb0	-0.055434883
26	0x3a94c5e0	0.0011350475
27	0x3e04e24b	0.12976949
28	0x3dca835b	0.09888335
29	0xbd21e19b	-0.039521795
30	0x3c215c08	0.009848602
31	0xbd90c893	-0.070695065
32	0x3d57892e	0.05262106
33	0x3c8b575e	0.017009433
34	0xbdbf8a6d	-0.093525745
35	0x3ccac035	0.024749855
36	0xbbccca70	-0.0062497184
37	0x3d3285b1	0.04358453
38	0x3dfe25ac	0.12409529
39	0x3d27fea2	0.04101432
40	0xbd9be873	-0.076126955
41	0x3d811fa4	0.06304863
42	0xbde4f984	-0.11180404
43	0x3dc36a2e	0.095417365
44	0x3ceded89	0.02904393
45	0x3d88f29c	0.06686899
46	0xbd6633b6	-0.05620166
47	0xbc162ea2	-0.009166392
48	0x3d7b363c	0.06133102
49	0xbe098eeb	-0.13433425
50	0x3daa5ba0	0.08318257
51	0x3de3c24e	0.11121045
52	0x3d15fa60	0.03661573
53	0x3ddab4b1	0.106789954
54	0x3d846f95	0.06466595
55	0xbd0c449b	-0.034245115
56	0xbbbea152	-0.0058175707
57	0x3df11cf3	0.117731
58	0x3ca0e961	0.019642534
59	0xbdba78f8	-0.09105104
60	0x3d1753eb	0.036945265
61	0x3b02248a	0.0019858205
62	0x3c6a068d	0.014283788
63	0xbd1e8a22	-0.038705952
64	0xbcf085ec	-0.029360734
65	0xbc09ddeb	-0.008414726
66	0xbdd79238	-0.10525936
67	0x3e04f294	0.12983161
68	0xbda11aa9	-0.07866413
69	0x3d9ede97	0.077572994
70	0x3a9e5b0e	0.001208158
71	0x3c56744a	0.013089249
72	0x3df4ec26	0.11959104
73	0x3e00cd67	0.12578355
74	0x3d793e99	0.060850713
75	0x3d8d5671	0.06901253
76	0x3e0e5ad7	0.1390184
77	0xbda98c86	-0.08278756
78	0x3de601fd	0.11230848
79	0xbdde617b	-0.10858437
80	0xbc1333fe	-0.008984564
81	0x3dd28b0d	0.10280428
82	0x3bbb0528	0.005707402
83	0x3cd8be05	0.026457796
84	0x3d9a500c	0.07534799
85	0x3dfc5b67	0.12322121
86	0x3dbde90d	0.092729665
87	0x3ddc5c1d	0.10759757
88	0x3d50206a	0.050812162
89	0x3de3d3fd	0.11124418
90	0xbcbce3c7	-0.023057831
91	0x3df61ce8	0.12017232
92	0xbcf2fb3f	-0.02966082
93	0xbde800bd	-0.11328266
94	0xbcada353	-0.021196043
95	0xbdd511a5	-0.10403756
96	0x3ddb41b8	0.10705894
97	0xbd1764e3	-0.036961447
98	0x3d8f657e	0.0700178
99	0x3c3aa258	0.011391245
100	0xbdcdcd20	-0.1004889
101	0xbcd84709	-0.02640106
102	0xbdc15670	-0.09440315
103	0x3da9e5d2	0.08295788
104	0x3b74bb7a	0.003734319
105	0x3dc9f1db	0.098605834
106	0x3c08ebcf	0.008357002
107	0xbda7e1f4	-0.08197394
108	0x3cade16b	0.021225652
109	0x3de37cb1	0.111077674
110	0xbcecfbdf	-0.028928695
111	0x3e0fdd61	0.14049293
112	0x3cececb6	0.028921466
113	0xbd8985b1	-0.06714953
114	0x3e0a18d2	0.1348603
115	0xbd5c777d	-0.05382489
116	0x3d31cfb4	0.04341097
117	0x3d3fbd11	0.046811167
118	0x3dd7ecd5	0.10543219
119	0xbd5a1a38	-0.05324766
120	0x3cbe6587	0.023241771
121	0xbc95587d	-0.018230671
122	0xbd74c9b6	-0.05976268
123	0xbd0c1ebd	-0.034209
124	0x3dfcad13	0.12337699
125	0x3d692cbc	0.056927428
126	0x3dbc8c34	0.09206429
127	0x3d8d577c	0.06901452
128	0xbc2a33c3	-0.0103883175
129	0xbc986be3	-0.018606132
130	0xbcdf8222	-0.027283732
131	0xbd47c052	-0.048767395
132	0xbc504dca	-0.012713859
133	0x3d8160fb	0.06317326
134	0xbb94539f	-0.00452657
135	0x3d416f01	0.047225002
136	0xbdd2be23	-0.10290172
137	0x3df70799	0.12061996
138	0x3e06d70c	0.13167971
139	0xbc5280a3	-0.012848052
140	0xbd2bda56	-0.04195627
141	0xbd3a9153	-0.04554875
142	0x3d69adc5	0.057050485
143	0x3dd288fa	0.102800325
144	0xbd8fe52a	-0.070261315
145	0x3de4ef19	0.11178417
146	0x3cc548ef	0.024082629
147	0xbde6ab46	-0.112631366
148	0xbca48e78	-0.020087466
149	0x3d6a568f	0.057211455
150	0xbcdfaa7b	-0.027302971
151	0x3dc09699	0.09403724
152	0x3c116d9d	0.0088762315
153	0x3d8470bc	0.06466815
154	0xbd84eb5d	-0.064902045
155	0x3df98c02	0.121849075
156	0x3dced0f1	0.10098446
157	0x3d75c047	0.059997823
158	0xbc69e34b	-0.014275382
159	0x3d4240c9	0.047425065
160	0x3d2414a1	0.040058736
161	0xbbf1fea8	-0.0073850937
162	0xbbe6471d	-0.0070275203
163	0x3db8f9f7	0.09032052
164	0x3dc2ee4c	0.09518108
165	0x3e01b029	0.12664856
166	0x3d276d50	0.040875733
167	0xbda832aa	-0.082127884
168	0x3c87d70e	0.016582038
169	0xbe052bc0	-0.1300497
170	0x3e066934	0.1312607
171	0xbdfd707e	-0.12374972
172	0xbdd1e26c	-0.10248265
173	0x3dbf1c7a	0.09331603
174	0xbd0b76f0	-0.034048975
175	0x3d56aa49	0.05240849
176	0x3dcc2d13	0.09969535
177	0xbd913f59	-0.07092161
178	0xbd594c57	-0.05305132
179	0xbd7b8be8	-0.061412722
180	0xbd13682f	-0.03598803
181	0xbd691acd	-0.056910325
182	0xbdbf7567	-0.093485646
183	0x3d524ea2	0.05134452
184	0xbe09ceb9	-0.13457765
185	0xbdcf1015	-0.10110489
186	0x3d1171d3	0.03550894
187	0x3dfd39f8	0.12364572
188	0xbd99423a	-0.07483335
189	0x3da3e693	0.08002963
190	0xbda064bc	-0.078317136
191	0xbd9e18b2	-0.07719554
192	0xbd0ba4bf	-0.03409266
193	0x3da07da8	0.07836467
194	0x3dc59c88	0.096489966
195	0x3d3a7a46	0.045526765
196	0x3db74581	0.08948804
197	0xbd67c2f0	-0.05658239
198	0xbc959ae4	-0.018262334
199	0xbd8d515b	-0.06900283
200	0x3d51939e	0.05116617
201	0xbd8920d3	-0.06695714
202	0xbd59edbe	-0.053205244
203	0xba5c3b08	-0.00084011303
204	0xbdb9b677	-0.090680055
205	0xbc5ff9a6	-0.013670361
206	0xbd9ee54d	-0.077585794
207	0xbc922fcc	-0.017845057
208	0x3de3d5c5	0.11124758
209	0x3d937352	0.0719973
210	0xbd768d7d	-0.060193527
211	0x3e010102	0.1259804
212	0x3dcb027b	0.099125825
213	0x3dcd27ce	0.10017358
214	0xbdd75577	-0.10514348
215	0x3d041ee6	0.03225603
216	0x3da8219c	0.082095355
217	0x3b07118b	0.0020609822
218	0xbd0c1046	-0.034195207
219	0xbdbb7ad4	-0.09154287
220	0xbd832c31	-0.06404913
221	0x3daeeb41	0.08540965
222	0xbc4cccef	-0.012500032
223	0xbcb8a1e3	-0.022538131
224	0x3e0f675c	0.14004272
225	0xbd441643	-0.047872793
226	0x3dfec74e	0.12440358
227	0xbd60f0f4	-0.05491729
228	0x3d3523f9	0.04422376
229	0x3df0b361	0.11752964
230	0xbc4c7f4e	-0.012481524
231	0x3cbf8f9f	0.023383914
232	0xbd42568d	-0.047445823
233	0x3ddadc4b	0.10686549
234	0x3dae052b	0.084970795
235	0x3d865c71	0.065606005
236	0xbd96823f	-0.07349061
237	0xbbae8789	-0.0053262156
238	0xbda93942	-0.08262874
239	0xbdc82e58	-0.09774464
240	0x3cb4f5fd	0.022089953
241	0xbde7bae1	-0.11314941
242	0x3cc5f076	0.024162512
243	0xbdbafdf6	-0.091304705
244	0xbd551564	-0.052022353
245	0x3bc323db	0.005955202
246	0x3d762078	0.06008956
247	0xbcaa81c8	-0.020813838
248	0x3d626891	0.055275504
249	0xbdbb9206	-0.09158711
250	0x3df727af	0.12068116
251	0x3cc7bf21	0.02438313
252	0xbd88b03e	-0.066742405
253	0xbc066fc5	-0.008205359
254	0x3cd013b3	0.025400018
255	0xbd2ca101	-0.042145733

lstm.weight_ih_l0_reverse f4 [256, 32]
0	0xbd3fbbe8	-0.04681006
1	0x3dc4a548	0.096018374
2	0xbe0f877f	-0.14016531
3	0xbd992597	-0.07477873
4	0xbd29fa00	-0.041498184
5	0xbdda2b4e	-0.10652791
6	0xbd3e11d2	-0.046403714
7	0x3d927802	0.07151796
8	0xbd2eb851	-0.042656247
9	0x3dcb7189	0.099337645
10	0xbc0c7345	-0.008572404
11	0x3c54fe48	0.0130000785
12	0xbde01deb	-0.109432064
13	0xbd93fc59	-0.07225866
14	0x3d5fc198	0.054627985
15	0x3d4c72f7	0.049914327
16	0x3ca165a8	0.019701794
17	0x3bb712fd	0.0055869804
18	0x3de05d80	0.10955334
19	0xbda94289	-0.08264644
20	0xbdc26ca3	-0.09493377
21	0xbdfaab61	-0.12239719
22	0x3d238c1b	0.039928537
23	0x3cde722f	0.027154056
24	0xbb11de47	-0.0022257732
25	0x3e0a1f3b	0.13488476
26	0x3d9e0e61	0.07717586
27	0xbcb604ca	-0.02221908
28	0xbd889a1d	-0.0667002
29	0x3d9b791b	0.075914584
30	0x3ce6921f	0.028145848
31	0x3cd35443	0.025797015
32	0xbcc7acf6	-0.024374466
33	0x3d7684eb	0.060185354
34	0xbdf6657a	-0.12031074
35	0xbc5de0f1	-0.0135424
36	0xbcbc5794	-0.02299098
37	0xbd9a82cd	-0.075444795
38	0x3dbdfb7e	0.09276484
39	0xbdc832b2	-0.09775294
40	0x3ca4281a	0.020038653
41	0xbb52c775	-0.0032162343
42	0xbdeeac57	-0.11653965
43	0x3dca8449	0.09888513
44	0x3ca63207	0.020287527
45	0xbdd424ca	-0.103585795
46	0x3e0172c1	0.12641431
47	0x3c44842b	0.011994402
48	0x3dd35676	0.103192255
49	0x3d94b60f	0.072612874
50	0xbb8b973f	-0.0042599733
51	0x3ce8eebe	0.028434154
52	0xbd8b951d	-0.068155505
53	0x3de34384	0.11096862
54	0xbd22bc14	-0.039730147
55	0xbc507743	-0.012723747
56	0xbdf3776a	-0.11888011
57	0xbde7e49e	-0.11322902
58	0x3c3d9288	0.01157058
59	0xbc4e78cc	-0.012602042
60	0x3ca38c1a	0.019964267
61	0x3de23d67	0.11046868
62	0xbcca6011	-0.024704011
63	0x3cc88250	0.0244762
64	0x3d8216f0	0.06352031
65	0x3d845793	0.06462016
66	0xbc6f37ed	-0.014600736
67	0xbd8896b3	-0.066693686
68	0xbd3eebab	-0.04661147
69	0xbdd1365a	-0.10215445
70	0xbc85482b	-0.016269764
71	0x3df71353	0.12064233
72	0x3d419064	0.047256842
73	0xbd24647d	-0.040134896
74	0xbdd4d485	-0.103920974
75	0xbd1999c2	-0.03750015
76	0x3d3a96a2	0.04555381
77	0xbce6289e	-0.02809554
78	0xbdffed46	-0.12496428
79	0xbde483da	-0.11157961
80	0x3b042b05	0.0020167243
81	0x3d503923	0.05083574
82	0xbc86d389	-0.01645829
83	0xbadac201	-0.0016689898
84	0xbd51a423	-0.051181924
85	0xbdae243c	-0.08503005
86	0x3d2349f7	0.03986546
87	0xbe03e808	-0.12881482
88	0xbce0d10c	-0.027443431
89	0xbcc0aec3	-0.023520833
90	0x3db1360c	0.08652887
91	0xbe01b4f9	-0.12666692
92	0x3c989e90	0.018630296
93	0x3de35289	0.11099727
94	0x3d6de7ce	0.058082394
95	0xbd34bb05	-0.04412367
96	0x3d5ab8aa	0.053398766
97	0x3d98451c	0.074350566
98	0xbd8e0270	-0.06934059
99	0x3cad207f	0.02113366
100	0xbdcd1d90	-0.10015404
101	0x3dd99577	0.10624211
102	0xbdb96389	-0.09052188
103	0xbd0c0860	-0.034187675
104	0xbcb86932	-0.022511099
105	0xbd33f68f	-0.04393631
106	0x3c36c7d1	0.011156038
107	0xbc0b3108	-0.008495577
108	0x3ca0155e	0.019541439
109	0xbe175e6b	-0.14782111
110	0xbd8fb0dc	-0.07016155
111	0xbd040790	-0.032233775
112	0x3c908ca2	0.017645184
113	0x3dca2213	0.098697804
114	0x3e09d4fd	0.13460155
115	0xbdea9b8e	-0.11455451
116	0x3d6450aa	0.05574099
117	0xbca0b883	-0.019619232
118	0xbcc2b697	-0.023768706
119	0xbd9aafb7	-0.07553046
120	0xbdea15fd	-0.11429975
121	0xbcc8d7d4	-0.024516977
122	0x3d98c39a	0.07459183
123	0x3dddd3ca	0.10831411
124	0xbcee4d38	-0.029089555
125	0x3e088c6b	0.13334815
126	0x3dba539c	0.090979785
127	0xbcbcea22	-0.023060862
128	0x3d6c2c10	0.05765921
129	0x3d4ad373	0.04951806
130	0xbc715a16	-0.014730951
131	0x3e0a48cf	0.13504337
132	0xbd80d053	-0.06289735
133	0x3da3b594	0.07993618
134	0xbd956423	-0.0729449
135	0x3d3ae886	0.045631908
136	0x3ca03f70	0.0195615
137	0xbd440ed8	-0.04786572
138	0x3caf5ad6	0.021405619
139	0xbd9aea87	-0.07564264
140	0x3d87cc21	0.066307314
141	0x3c731aa4	0.014837895
142	0xbceb9c6e	-0.028761115
143	0x3d4f5ab0	0.050623596
144	0x3c29a066	0.010353183
145	0xbd963519	-0.07334346
146	0xbc2d6048	-0.010582037
147	0x3d86b892	0.06578173
148	0x3df9296f	0.12166106
149	0x3cff639b	0.031175425
150	0xbca0df80	-0.019637823
151	0xbde12b11	-0.109945424
152	0x3d49c9c7	0.049264695
153	0x3dac3563	0.0840862
154	0xbd28586e	-0.041099958
155	0x3d1dbc62	0.038509734
156	0xbd0d02da	-0.034426548
157	0x3e04803f	0.12939547
158	0x3dd6a152	0.10479988
159	0xbdd8d49a	-0.105874255
160	0x3de7bd5b	0.113154136
161	0x3d8a63e0	0.06757331
162	0xbe017115	-0.12640794
163	0x3d243c15	0.04009636
164	0x3ab76703	0.0013992492
165	0xbda5d134	-0.08096543
166	0x3dd98707	0.106214575
167	0x3d62e5cc	0.055394933
168	0x3d455ea2	0.048185952
169	0xbe07c356	-0.13258108
170	0x3d6bb345	0.05754401
171	0x3dd3cf06	0.10342221
172	0xbdb6417b	-0.08899208
173	0xbcafbc62	-0.021452133
174	0xbdf8900d	-0.121368505
175	0xbd9edfa3	-0.07757499
176	0xbd36c9d3	-0.04462607
177	0x3daffbac	0.085929245
178	0x3ce41f37	0.027846916
179	0xbdd7560a	-0.105144575
180	0x3c3815e0	0.011235684
181	0x3cf37bc5	0.029722104
182	0x3d56c615	0.052435
183	0xbd740095	-0.059570868
184	0xbde493ee	-0.11161028
185	0xbd0f9fce	-0.03506451
186	0x3c9c6626	0.019091677
187	0x3b2a4075	0.002597836
188	0xbd4e02de	-0.050295703
189	0x3de0bac6	0.10973124
190	0xbd98fcd0	-0.07470095
191	0xbdc73f9b	-0.09728929
192	0x3c314383	0.010819319
193	0x3d8dde1d	0.0692713
194	0xbd8250b4	-0.06363049
195	0x3c9fe70c	0.019519351
196	0x3de85aa2	0.11345412
197	0xbda5585f	-0.08073496
198	0x3ddc474c	0.10755786
199	0x3c8c4d75	0.017126778
200	0xbd866181	-0.06561566
201	0xbd7e7c72	-0.0621304
202	0xbdddd40e	-0.10831462
203	0x3dd272b5	0.10275785
204	0xbd190dc1	-0.037366632
205	0xbd2c8ca4	-0.042126313
206	0x3d92ec84	0.07174018
207	0x3df46379	0.119330354
208	0xbde734a5	-0.11289338
209	0xbd5d4d19	-0.054028604
210	0xbd6f4bc9	-0.058421884
211	0xbd0421b2	-0.032258697
212	0x3d1a2250	0.03763038
213	0x3decca4d	0.11562023
214	0xbdedb06f	-0.11605918
215	0x3d7468e5	0.059670348
216	0xbde404ca	-0.11133726
217	0x3cc2a11e	0.023758467
218	0xbde6c223	-0.112674974
219	0xbcd713df	-0.026254592
220	0xbdfc8ef8	-0.123319566
221	0xbcd64dc0	-0.026160121
222	0x3d738b19	0.059458826
223	0xbd8a6cff	-0.067590706
224	0x3c3ec9ec	0.011644822
225	0xbde0c21c	-0.109745234
226	0xbdb03400	-0.08603668
227	0x3e003810	0.12521386
228	0x3cd477fd	0.025936121
229	0x3c65f5a6	0.014035618
230	0x3ddc914b	0.107699
231	0xbd84e057	-0.06488102
232	0xbe06fa69	-0.13181461
233	0xbd4ee37c	-0.050509915
234	0x3dc0c166	0.09411888
235	0xbdc90718	-0.09815806
236	0xbe0252d0	-0.12726903
237	0xbda144ba	-0.07874437
238	0xbc764c77	-0.015032879
239	0x3db640a2	0.088990465
240	0xbde0e8d5	-0.10981909
241	0xbde8324c	-0.11337718
242	0xbdd9c15b	-0.10632583
243	0xbd82d003	-0.06387331
244	0x3d6ce568	0.057835966
245	0xbd16611f	-0.036713716
246	0x3d19e7cb	0.03757457
247	0xbd1209ee	-0.035654
248	0x3d43a19e	0.047761552
249	0x3d8db3d5	0.06919066
250	0x3d9ef4a1	0.07761503
251	0xbcd8bf27	-0.026458336
252	0x3de341c7	0.110965304
253	0xbda244f3	-0.07923307
254	0x3dec9bf3	0.115531825
255	0xbdb576b6	-0.08860533

lstm.weight_hh_l0_reverse f4 [256, 64]
0	0x3db5a345	0.08869032
1	0xbdc2609b	-0.09491082
2	0x3da338d5	0.07969824
3	0x3cbf310b	0.023338815
4	0x3cc7889c	0.024357133
5	0x3d1fa08e	0.038971476
6	0x3d20352a	0.0391132
7	0x3dd00787	0.10157686
8	0xba457e20	-0.00075337477
9	0xbcd30b81	-0.025762321
10	0x3df84938	0.1212334
11	0x3a4a0478	0.00077063544
12	0x3e130c2b	0.1436011
13	0xbd1bb625	-0.038015503
14	0xbcb338ce	-0.021877673
15	0xbd2157f1	-0.039390508
16	0xbdfd8b68	-0.12380105
17	0x3d2943b2	0.041324325
18	0x3da45644	0.08024266
19	0x3dfbaf4b	0.12289294
20	0xbdb4006d	-0.08789144
21	0xbdda3d2f	-0.10656201
22	0x3e0e5a94	0.1390174
23	0x3cb34b7f	0.021886585
24	0xbd3381cc	-0.043824956
25	0x3b6d6513	0.0036223575
26	0x3d60fb12	0.05492694
27	0x3db68f08	0.08914
28	0x3d80da24	0.06291607
29	0x3d146bcc	0.036235616
30	0xbcf35beb	-0.029706916
31	0x3d447ad1	0.04796869
32	0xbd9399ad	-0.07207046
33	0x3ab7f4cc	0.0014034747
34	0x3e08022e	0.13282081
35	0x3c8dcfb3	0.017310953
36	0xbe1555ce	-0.14583513
37	0xbdb07ff8	-0.08618158
38	0xbe00863c	-0.12551206
39	0xbd73bc4f	-0.059505757
40	0x3d3a28ce	0.04544907
41	0xbd2a16d4	-0.041525677
42	0x3c3fde8c	0.011710774
43	0xbdedfbdc	-0.11620304
44	0xbd8cd5cb	-0.06876715
45	0xbdd38ce4	-0.10329607
46	0xbdc6cb1e	-0.0970671
47	0xbbae3db3	-0.0053174137
48	0x3cb92635	0.022601226
49	0xbd6ea034	-0.05825825
50	0xbc9d337f	-0.019189594
51	0x3dac36ac	0.08408865
52	0x3dc49966	0.09599571
53	0x3cb6e71f	0.022327004
54	0x3e05400d	0.13012715
55	0x3d068d88	0.03284982
56	0x3c619da5	0.013770496
57	0x3c3418b4	0.010992218
58	0x3d525e35	0.051359374
59	0xbc194a75	-0.009356131
60	0xbdd63f50	-0.10461295
61	0x3dd4ae5a	0.103848174
62	0xbd888124	-0.066652566
63	0x3afbabcd	0.0019200981
64	0x3cbf227a	0.02333187
65	0xbdaa3273	-0.08310404
66	0xbd6b054e	-0.057378106
67	0x3ccee89f	0.025257407
68	0x3d67fe05	0.056638736
69	0x3aaeac89	0.0013326566
70	0xbd9431ba	-0.07236047
71	0x3c19cf91	0.009387867
72	0x3b0aa0b8	0.0021152925
73	0xbd0118b4	-0.0315177
74	0x3dfb012b	0.12256082
75	0xbd808a16	-0.06276338
76	0xbdd72baa	-0.10506375
77	0xbba73184	-0.0051023383
78	0xbdc42c2f	-0.0957874
79	0x3dedd005	0.11611942
80	0x3cd357fa	0.025798786
81	0xbde675a6	-0.112529084
82	0x3d57278e	0.052527957
83	0xbdc2b641	-0.095074184
84	0x3ddfdb6c	0.10930523
85	0x3d7e0904	0.062020317
86	0x3d9e07a9	0.07716305
87	0x3dcb702f	0.09933507
88	0xbddcbc4f	-0.107781045
89	0x3cc12b12	0.023580108
90	0x3def00ff	0.11670112
91	0x3d829153	0.06375375
92	0xbd93d685	-0.07218651
93	0xbda858a1	-0.082200296
94	0xbdb7baa1	-0.089711435
95	0x3c392f3d	0.011302766
96	0x3da29170	0.07937896
97	0x3d04b671	0.032400552
98	0xbd8afa74	-0.067860514
99	0x3decb05c	0.115570754
100	0xbdd64668	-0.10462648
101	0x3dd8bd21	0.105829485
102	0xbd95a729	-0.07307274
103	0x3de4be65	0.111691274
104	0x3cd88261	0.026429357
105	0x3d5eb953	0.054375958
106	0xbdd757d2	-0.10514797
107	0x3cd4a8ac	0.025959335
108	0x3d95217c	0.07281777
109	0x3dd0249c	0.10163233
110	0xbd1d6919	-0.038430307
111	0xbd679b20	-0.056544423
112	0xbcae1f87	-0.021255268
113	0xbd1ed9b3	-0.038781833
114	0xbd78b3dd	-0.060718406
115	0xbda9503f	-0.08267259
116	0xbde4fbaf	-0.11180817
117	0x3cb3b4c2	0.021936778
118	0x3d6b6482	0.0574689
119	0xbbee7ed5	-0.007278303
120	0xbd0741a0	-0.03302157
121	0xbd3c95d2	-0.046041317
122	0x3d60e204	0.054903045
123	0xbd53e2fc	-0.05173014
124	0x3d1d2665	0.038366694
125	0x3cea83df	0.028627334
126	0xbc24e5f0	-0.010064587
127	0x3de410fc	0.11136052
128	0x3bccaa5d	0.006245895
129	0xbd54ceda	-0.05195508
130	0xbdd6ceb4	-0.10488644
131	0x3db0d1a9	0.086337395
132	0x3e0d489a	0.13797227
133	0x3d05207a	0.032501675
134	0xbb02ef71	-0.0019979144
135	0xbdce0ef6	-0.10061447
136	0xbdeb6c30	-0.114952445
137	0x3d985fdd	0.074401595
138	0x3cd3aeee	0.025840249
139	0x3c4f859c	0.012666132
140	0xbcee6495	-0.029100696
141	0xbe0727d6	-0.1319879
142	0xbd80b69c	-0.0628483
143	0x3d90de4a	0.07073648
144	0xbdcf09df	-0.10109305
145	0x3d6cbfc8	0.057800084
146	0x3dcafbdd	0.0991132
147	0x3c24b641	0.010053218
148	0xbc8349d7	-0.01602642
149	0xbe1049ea	-0.14090696
150	0xbcfb4e48	-0.030676976
151	0xbdbf954b	-0.09354647
152	0xbd08e5fc	-0.033422455
153	0xbd10fe8a	-0.035398997
154	0x3d848f67	0.06472664
155	0x3ccab35a	0.024743725
156	0xbdac1c5b	-0.08403846
157	0x3d500835	0.050789077
158	0xbe02b16c	-0.12762994
159	0xbdd7135d	-0.1050174
160	0xbc35875d	-0.011079636
161	0xbddf0136	-0.10888903
162	0x3c4d6179	0.012535446
163	0x3e03375c	0.12814087
164	0xbd11f43b	-0.035633307
165	0x3d712144	0.058869615
166	0xbdd1ace6	-0.10238056
167	0x3dcb47c2	0.09925796
168	0x3dce6298	0.10077399
169	0xbd32173e	-0.043479197
170	0xbd2e6271	-0.04257435
171	0xbe13c7de	-0.14431712
172	0x3d09a2ab	0.033602398
173	0x3cb40376	0.021974307
174	0xbd71d7db	-0.059043746
175	0x3e07c006	0.13256845
176	0xbd6dba37	-0.058038916
177	0xbde4b09f	-0.111665
178	0x3d783b25	0.06060328
179	0xbcfe54be	-0.031046268
180	0x3dde96a9	0.1086858
181	0x3d506fa1	0.050887708
182	0x3d84326c	0.0645493
183	0x3d9c3ff0	0.076293826
184	0xbdc2aa82	-0.09505178
185	0x3d7a375a	0.061087944
186	0xbd7ccbab	-0.06171767
187	0xbc8b0279	-0.016968952
188	0x3df5c038	0.119995534
189	0x3d7c26fe	0.061560623
190	0xbd91fd70	-0.071284175
191	0x3c6b8679	0.0143753225
192	0x3ce97ebf	0.02850282
193	0xbbaacc58	-0.005212348
194	0xbcfdb4f6	-0.030970078
195	0x3c36ef4e	0.011165453
196	0x3e05ca9b	0.13065569
197	0xbcfb8cd3	-0.030706799
198	0x3d3d5c1e	0.046230428
199	0xbd0c41d5	-0.03424247
200	0x3d5e87d5	0.05432876
201	0x3d385292	0.04500062
202	0x3bfae20e	0.0076563423
203	0xbdd7b79b	-0.10533067
204	0xbc965df1	-0.018355342
205	0xbd89001e	-0.066894755
206	0x3dbad9c7	0.09123569
207	0x3b8e6cd3	0.004346469
208	0xbdd7f3b3	-0.10544529
209	0x3d708f16	0.058730207
210	0xbd349839	-0.044090483
211	0xbdd22313	-0.10260596
212	0xbde306fa	-0.11085315
213	0x3dc3ced8	0.09560937
214	0x3dafe81b	0.085891925
215	0xbdbd9750	-0.09257376
216	0x3df84ace	0.12123643
217	0xbdf39177	-0.118929796
218	0x3cf68c94	0.03009633
219	0xbd6015cb	-0.054708283
220	0x3d199509	0.037495647
221	0xbd3eb975	-0.046563584
222	0xbe0c3410	-0.13691735
223	0x3dbc1ebc	0.091855496
224	0x39f06600	0.00045852363
225	0x3db87f23	0.090086244
226	0x3dcefd72	0.101069346
227	0x3dcdb9c1	0.10045195
228	0x3c5f0b0e	0.0136134755
229	0xbdc2d6f7	-0.095136575
230	0x3d9d2780	0.0767355
231	0x3dd085a7	0.10181742
232	0x3d48decd	0.049040604
233	0xbdbcee3b	-0.09225126
234	0x3d8d5e0c	0.06902704
235	0x3dced30d	0.100988485
236	0x3dab7a1f	0.08372902
237	0xbdea2d47	-0.11434417
238	0xbdb16055	-0.08660952
239	0x3cecb10a	0.028893013
240	0xbda4b8a7	-0.08043032
241	0xbdeb2083	-0.114808105
242	0xbde8cbc8	-0.11366993
243	0x3d68e84c	0.05686216
244	0x3dd8b1b3	0.105807684
245	0xbd693884	-0.056938663
246	0xbdd12612	-0.102123395
247	0xbc278f8b	-0.010227094
248	0xbccb606f	-0.024826257
249	0xbd335a35	-0.0437872
250	0x3c97901c	0.018501334
251	0xbd43a6c9	-0.04776648
252	0xbd954dfd	-0.07290266
253	0xbb8d9c01	-0.0043215756
254	0x3e118273	0.14209919
255	0xbcaf6770	-0.021411628
