SecPPIS/output/model_epoch_9.pth (torch, 222997 bytes, 12 tensors)

embedding.weight f4 [8, 32]
00000000: 9742 043c 2cdf 72bf d312 b4be 1866 9e3f
00000010: 5edd 02be 401c f53f 3008 f7bd 39e7 0340
00000020: 5f20 6bbf e9bd 30bf 466a b23e ddf9 f93f
00000030: 0b40 12c0 98ea a7bd 20b7 abbd 3a8d d0be
00000040: e503 9b3f 40e8 e7bf f6dc b43e f95a b7bf
00000050: 7ad8 eb3f a0f4 02bf f2b7 423e 8a79 afbd
00000060: de5d 3ebf 6416 9f3f 17c9 88be 9fca 13bd
00000070: 0e4c 9a3e 31b9 c33f b3cf 7d3f 8aae 07bf
00000080: d668 aa3f 67a3 233f 1fbd 80bf 8b00 ad3f
00000090: 77b9 55bf 2f7a de3d f428 f0be d934 813f
000000a0: 2417 8ebf ed9c 5a3f 7de3 d33e adee f63f
000000b0: 5593 263f 89f8 fc3e 709d ed3d d89b 923f
000000c0: ea53 273f 015d fdbf 7abe 253f 3b37 95bf
000000d0: e3e3 febe b56d c43d 5ddf 2fbf a86f 783e
000000e0: ce87 643a 6334 893a 5beb 83bf 6f7f f0be
000000f0: bd43 17bf 6878 d4be c162 1cc0 c715 c63e
00000100: 1531 8bbd 1584 cabf 5cd6 933f 62a8 943f
00000110: 4442 bebf 34b0 ab3f 4133 e4bd f7e8 1dbf
00000120: 7c40 a13f 6aba f13e f98f 80bc d693 b3bf
00000130: ab0f d53f da0f b03e ec06 f13e 1b16 9dbf
00000140: 3cd6 113e fe61 c5bf a507 4fbf 56a5 48bf
00000150: bf8d 4bbf 7bb6 08c0 5f52 183e b886 c0bf
00000160: e753 e0bf 9974 413f ee15 2ebe 5942 d23e
00000170: 3dc2 b73d e22d 543f 8a1a a13d b3e6 8abe
00000180: d9c7 b23f 6edc 5cbc d4bd 473e 1f53 893f
00000190: 8f49 78bf 2b6d 1fbf 886d 1e3f 3a11 a7be
000001a0: 33be 16be 023f a7be 846e a4be b4b9 613e
000001b0: cf59 603f 7960 8bbf 3098 bbbe 1a30 19bf
000001c0: d025 28bf 4035 5abf 5677 ac3f a7f4 3c3e
000001d0: f639 483f 9e47 513f ef00 66be db7c 4440
000001e0: 4a8e 84be 86ed e53f d92a ac3f 95ed b93f
000001f0: 2277 8cbf c409 31c0 5616 78bf c1ce b93f
00000200: 29b4 e43e efb6 b5bf 71e8 3c3f fb5e b13f
00000210: 687b 01bf 2fb3 08bf ad38 44bf 13a2 833f
00000220: a6f3 623f 0959 273f b3ce a83e 227c 9ebf
00000230: 0288 3ebe bf9d 583f a0d5 07c0 a547 e0bf
00000240: 2eb3 0940 62bf 8c3e 2dfe f03f d760 88bf
00000250: faba f5bf 2d89 03bf aa31 a0bf dd1b 8ebf
00000260: 47ce 173f 2103 c6bf a033 dcbf ad33 d43f
00000270: 78ad 0ebf b460 0240 960b 7ebf b47b 21be
00000280: 7f62 4b3f 11dc 323d edaa 823d 8eb1 883d
00000290: a29a 0f3e ed6b f73f b4aa 973f a1c9 a1be
000002a0: 518f 813e 5720 4b3f 735e f2bf c54b c83d
000002b0: 5d94 5abf 1926 e9bf d347 dc3f a241 bc3e
000002c0: 81a2 07bf 4bd8 2740 97d4 713f 16b2 c73e
000002d0: 4516 003d 2011 c23e 244b 933e 3d3a d6be
000002e0: 0444 bdbf a9a5 fc3e b2b0 c43e 707f 943f
000002f0: e8c6 1dbe 500d 7a3e e726 263f 6b7d 233e
00000300: d7e5 b8bc a88c 2640 dc51 98bf 7c06 d3be
00000310: 7aee c7be 824c f63e 4d2e 583e df95 b63f
00000320: 80cc 243f 4409 68bf d902 63be 88be 3e3d
00000330: 6f8a c43e 6cc4 8d3f bb41 92bf a1ff 2d40
00000340: 7129 fd3e aad7 d1bf ebe2 5c3e fdf8 3f3f
00000350: a8cd 893f 781e a93f 13d9 f6bf cf67 a9bf
00000360: a329 47bf 190d c73e aa0a cdbf 9ad5 9cbe
00000370: 93c6 a4bf 366b d13d dffe fcbe 3ef9 33bf
00000380: 0f93 3a3e 8aef b83d dd30 663d 1086 47bf
00000390: 76ca 9cbf ec16 333e 6a86 00be 45a9 bcbf
000003a0: 48bf b7bf e604 6fbf d66c a2bf 8427 ca3c
000003b0: 7c3f 673f 7abe 823e 67b9 08c0 d386 89bd
000003c0: b7a6 76be 3a9a f43e e82a 7abd d437 fcbf
000003d0: c645 fcbe 3983 d2bd ab19 a4bf c739 033d
000003e0: 3e22 86bf 80cc 5d3f 497b b23f 2938 913e
000003f0: 3a24 6bbf f2b6 b4bd 385c 5abe e189 323f
0.008072517 -0.94871783 -0.35170612 1.2374907 -0.12779757 1.9149246 -0.120621085 2.0609877
-0.9184627 -0.6903978 0.34846705 1.9529377 -2.2851589 -0.08199042 -0.08384538 -0.40732747
1.2110564 -1.8117752 0.3532483 -1.4324638 1.8425438 -0.5115452 0.19015482 -0.085681036
-0.7436198 1.2428708 -0.2671592 -0.036081906 0.3013615 1.5290891 0.9914505 -0.530007
1.3313243 0.6392121 -1.0057715 1.3515791 -0.8348612 0.108631484 -0.46906245 1.0094253
-1.1100812 0.853957 0.41384497 1.9291588 0.6506856 0.49408367 0.116022944 1.145381
0.6536242 -1.9794008 0.6474377 -1.165748 -0.4978324 0.095912375 -0.687002 0.24261343
0.0008717746 0.0010467883 -1.03062 -0.46972224 -0.59087735 -0.41498113 -2.4435275 0.3868849
-0.06796471 -1.5821558 1.1549792 1.1613886 -1.4863973 1.3413148 -0.111425884 -0.616836
1.2597804 0.47212535 -0.015693652 -1.4029491 1.6645406 0.34387094 0.47075593 -1.2272371
0.1424188 -1.542053 -0.8087104 -0.7837728 -0.7951316 -2.1361377 0.14875172 -1.5041113
-1.7525605 0.7556854 -0.17000553 0.41066244 0.08972595 0.8288251 0.0786639 -0.27129135
1.3967239 -0.013480289 0.19506007 1.0728492 -0.9698724 -0.6227595 0.6188588 -0.3263033
-0.14720993 -0.3266526 -0.32115567 0.22043496 0.8763704 -1.0888816 -0.36639547 -0.5983902
-0.656827 -0.85237503 1.3473918 0.18452702 0.7821344 0.81749904 -0.22461294 3.0701206
-0.25889808 1.7963111 1.3450576 1.4525629 -1.0973856 -2.766221 -0.9690908 1.4516221
0.446687 -1.4196452 0.7379218 1.3857111 -0.5057893 -0.5339841 -0.7664898 1.0283836
0.8865303 0.6537023 0.329702 -1.2381632 -0.1860657 0.846157 -2.1224136 -1.7521864
2.1515613 0.27489763 1.8827568 -1.0654553 -1.9197686 -0.5138119 -1.2515156 -1.1102253
0.5929913 -1.5469705 -1.7203255 1.657827 -0.5573344 2.0371523 -0.9923643 -0.15769845
0.7944717 0.043666903 0.06380258 0.06674491 0.14023831 1.9329811 1.184897 -0.31599143
0.25304654 0.7934622 -1.8935074 0.09780077 -0.85382634 -1.8214751 1.7209419 0.36768824
-0.52982336 2.6225765 0.9446501 0.39003056 0.031271238 0.3790369 0.28768265 -0.41841307
-1.4786382 0.4934514 0.38416058 1.1601391 -0.15407908 0.24419141 0.6490311 0.15965812
-0.022570534 2.602335 -1.1899981 -0.41215885 -0.3904913 0.48105246 0.21111412 1.4264487
0.6437454 -0.9063914 -0.22169055 0.046568424 0.38386866 1.1075568 -1.1426309 2.7187274
0.4944568 -1.639394 0.21570937 0.749893 1.0765886 1.3212423 -1.9284996 -1.3234805
-0.7779791 0.3887718 -1.601888 -0.30631715 -1.28731 0.10225527 -0.494132 -0.7030219
0.18220161 0.090300635 0.056198943 -0.7793894 -1.2249286 0.17489213 -0.12551275 -1.4739157
-1.435525 -0.9336685 -1.2689464 0.024677046 0.90331244 0.25535947 -2.136316 -0.06715169
-0.24087034 0.47773916 -0.061076075 -1.9704537 -0.49271983 -0.10278935 -1.2820333 0.032037523
-1.04792 0.8664017 1.3943874 0.2836316 -0.9185215 -0.088239565 -0.21324241 0.69741637

lstm.weight_ih_l0 f4 [256, 32]
00000000: 19cf 00be 2b8a 833d 4c18 48bd ae00 69bc
00000010: 416d 4abc 2d07 ea3d 7d19 babd 6eb9 6cbd
00000020: 71ac afbd dee8 aabb c81e a53d 57b7 ffbb
00000030: 1372 e23c 3db9 8b3b a3bb 683d c328 7cbd
00000040: a7b8 6c3d 0f9b d5ba 6aeb 82bd f648 2e3d
00000050: e13e 53bc b303 a93d 8219 9f3d 1a17 b1bd
00000060: e13c 6b3d dcf6 b93d bfcc a03d b3b5 abbd
00000070: d2e0 c0bd da3e 4dbd 6035 0b3e 1843 a43d
00000080: 5e6f 9fbc 24ad cf3d 2015 1c3c 8bbd fc3d
00000090: 3a30 c2bc 8bfe d03d 4c2e 7a3c d9cd 053e
000000a0: e9f4 d3bd 57ee f93c d4bc 46bd b9a6 c6bd
000000b0: cac6 143d d558 533d 7796 763d fbb9 8cbd
000000c0: 57ea 6ebc f452 efbc 9412 57bd 3083 5bbb
000000d0: b552 fc3d 9d2b a8bd 87d5 ad3d dbe4 ef3d
000000e0: e85e 403d cf4a 8ebd 57b5 f13d 8996 c93d
000000f0: 47e4 c4bd 6e92 f3bd 4222 54bb 384c b73d
00000100: 1e87 cc3d 67f9 0bbe 64e0 4dbd 56bc d1bd
00000110: 7814 cd3d d121 79bd 7c5f 633d 25fc f53c
00000120: f0aa a9bd 1693 a73c 895c 9d3b 68a8 51bd
00000130: 125d 633d 729e 15be 6f79 073d a91e 93bd
00000140: 68cf d73d d288 80bd 54f6 fb3d b70e 21bc
00000150: ac8e b5bd 6ba0 243d bffa 77bc c1f8 bf3d
00000160: cbcb 96bc dd6c d4bd 4439 8cbd 05d3 a33c
00000170: 7321 cabd 2f91 823c 76aa f13d 47d4 ddbc
00000180: 4939 1abe b67a cebd b5d9 d0bd 0494 473d
00000190: 48db e33d 438a 41bd 9b00 043d 5fb0 b1bd
000001a0: 5856 7bb8 739d d1bd ca01 afbd 9152 1a3d
000001b0: 115c 123d a010 9a3d 76d6 363d 8b22 073d
000001c0: 9b6f a7bd 8e0b 953d d42d 05bd 64de 0abe
000001d0: c133 d4bd d414 653c 28da c6bd 8062 47bd
000001e0: 0a20 8a3d 5ef7 c53c ccdd b03d 6165 b83d
000001f0: 0538 68bd 5767 083e 9509 9e3d ed35 853d
00000200: 335b f93d d915 dcbd 15a5 af3c 2017 1dbd
00000210: 91e7 c5bd 347f f0bd f619 753d 8aef c1bd
00000220: cfa3 fcbd 043a 48bd 4833 9b3d 78ff 043e
00000230: a351 0f3d a66a 963d 0bb3 d5bd ff9d 09bd
00000240: 543d 98bc f44f 323d 6233 afbc 422c 04be
00000250: 0cd4 29bc 9a1a 96bd d236 87bd ec08 67bd
00000260: f841 b13c d753 bc3d 3fb6 4eba 9a82 dcbd
00000270: 72b1 733d 8882 bdbd 9459 3dbc 45cc 14bd
00000280: 0dd9 7bbd 5f9c 9b3d b407 ddbc 05eb 6f3d
00000290: b701 d93c a315 48bd fc0f 8f3d 17d1 f4bd
000002a0: 17dc b2ba 1054 043e dc0f 38bd 044e bdbd
000002b0: 3e84 c13d 9e4a 573c ce27 8bbd 6d10 10bd
000002c0: c983 843d 0a8b e63c 1591 f5bc 389a 743d
000002d0: 7278 fabd d5f4 46bd c343 013d 3f1f da3d
000002e0: 8b69 353c ec36 aa3d 6d93 f53c a195 a93d
000002f0: a802 36bd ea50 a23d 7958 e6bc 490e d139
00000300: 3972 d7bd a7e6 99bd 4381 8abd 2bad 0a3e
00000310: 8d38 ab3c 1442 9abd b963 b6bd 2cc3 273d
00000320: efeb 84bd 52e1 d63d 8551 bc3d f061 bdbd
00000330: 9c73 a0bd 3eba b1bc 3d2f b1bd ae10 733d
00000340: a196 6f3c bd6c 30bd b145 89bd 6c2f 8c3d
00000350: 9459 463c ca36 c3bd ea58 ea3d f7e5 023e
00000360: 7593 bcbd fc29 823d 2c7c 01be b112 11bb
00000370: 3ac9 ae3d 2e94 8f3a 936a 81bb a389 a5bd
00000380: 8694 e13c 90dd 9c3c 643f ce3d 1277 983d
00000390: e506 d03c 80d8 c93d 4363 bbbd fb34 90bd
000003a0: 0b0e ab3d 4590 e83b 65fe 3f3c 4e57 74bb
000003b0: 4718 c13d 8db4 fcbd 1c72 b53b c0cb b53b
000003c0: 626a aa3d c401 ae3d 7f6b 393d 186e 2abd
000003d0: 957a 663c a024 e0bc 387a 1bbd 9e27 39bd
000003e0: f975 71bd ddd4 653d 5abe fc3d c2d8 21bd
000003f0: 1d08 44bb fffe e9bd 3ba4 acbd d852 b7bd
-0.12579001 0.06422838 -0.048851296 -0.014221353 -0.01235515 0.1142715 -0.09086893 -0.057794027
-0.085778125 -0.005215748 0.08062512 -0.0078038382 0.027642285 0.0042640255 0.05681957 -0.06156231
0.057793286 -0.0016296821 -0.06392558 0.04255005 -0.0128934095 0.08252659 0.07768537 -0.086469844
0.057431106 0.09080288 0.07851552 -0.08384266 -0.09417881 -0.050108768 0.1359458 0.080206096
-0.019462284 0.10140446 0.009526521 0.1234084 -0.023704637 0.102048 0.015269827 0.13066806
-0.10349447 0.030509157 -0.048519924 -0.096997686 0.036322393 0.05159839 0.06020209 -0.068714105
-0.014582238 -0.02921436 -0.05250795 -0.0033494942 0.123204626 -0.082114436 0.08487993 0.117135726
0.04696551 -0.06947862 0.11802166 0.098431654 -0.09613853 -0.118931636 -0.0032369052 0.089500844
0.09986709 -0.13669358 -0.050262824 -0.10241 0.1001367 -0.060823265 0.055510983 0.030027458
-0.08284557 0.020455878 0.004802291 -0.051185995 0.05550868 -0.14611223 0.033074792 -0.07183582
0.105376065 -0.062760964 0.12302843 -0.009830168 -0.08865103 0.04019205 -0.015135466 0.09373618
-0.018407723 -0.103723265 -0.0684686 0.019998083 -0.09869661 0.01593837 0.11800091 -0.02707876
-0.15060915 -0.10081999 -0.10197774 0.048725143 0.11125809 -0.047250997 0.03222714 -0.08676218
-5.9923477e-05 -0.10235109 -0.08545263 0.037676398 0.035732333 0.07522702 0.04463812 0.032991927
-0.08175584 0.072775945 -0.03251441 -0.13561398 -0.10361434 0.013982017 -0.09709579 -0.04867792
0.06744392 0.024165805 0.086360544 0.090037115 -0.05669405 0.13320671 0.077166714 0.06504426
0.12175598 -0.107463546 0.021441022 -0.03835213 -0.096633084 -0.11743012 0.05983921 -0.094695166
-0.123359315 -0.048883453 0.075781405 0.12988079 0.034989964 0.0734456 -0.1043454 -0.033597942
-0.018583931 0.04353328 -0.021386806 -0.12907508 -0.010365497 -0.073292926 -0.06602253 -0.056404993
0.021637902 0.09195679 -0.0007885433 -0.10767098 0.059495397 -0.092534125 -0.011557002 -0.03632762
-0.061486293 0.07598185 -0.026981212 0.05857374 0.026490076 -0.04884876 0.06985471 -0.11953943
-0.0013645914 0.12922692 -0.044937 -0.09243396 0.09449051 0.013140349 -0.067947015 -0.035171915
0.064704485 0.02814247 -0.029976407 0.059717387 -0.12230004 -0.048573334 0.031558763 0.10650491
0.011072527 0.08311257 0.029977525 0.082804926 -0.044436127 0.079255894 -0.028118359 0.0003987423
-0.10519833 -0.075146966 -0.06762936 0.13542621 0.020900989 -0.07532135 -0.08905739 0.040957615
-0.06490313 0.10492195 0.09195236 -0.09247196 -0.07834551 -0.021695253 -0.08651588 0.05934208
0.014623315 -0.04307245 -0.06702746 0.068449825 0.012106318 -0.095319346 0.1144274 0.12783037
-0.09207813 0.06355664 -0.12645024 -0.0022136385 0.08534475 0.0010954195 -0.003949472 -0.08082893
0.027536642 0.019148618 0.100706846 0.07444586 0.025393913 0.09855747 -0.09149792 -0.07041355
0.08352288 0.0070972764 0.011718367 -0.0037283483 0.09428459 -0.12339125 0.0055372845 0.0055479705
0.08321072 0.084964305 0.045268532 -0.0416089 0.014067312 -0.027361214 -0.037958354 -0.045203798
-0.058950398 0.056111205 0.12340994 -0.039513357 -0.0029912062 -0.1142559 -0.08429762 -0.08951348

lstm.weight_hh_l0 f4 [256, 64]
00000000: d00b 4cbc 70b9 b13c e28f a5bd b945 eabd
00000010: 134c bc3d 8f14 c83c cd60 cdbd 4547 9e3d
00000020: 33e5 a33d af6d 9bbd 49a8 48bd b3f0 6b3d
00000030: 72be cb3b c8e6 d7bd 1ff0 1dbc 24fc 93bc
00000040: 5f25 52bd b378 e63a b6c5 323d 04ef 9f3d
00000050: 7062 eabd 550a 3b3d 5d72 263c aaf1 fb3c
00000060: ac5b a33d 1fd9 993c 4e99 c3bd 6ea4 d63d
00000070: 9e29 3dbd c2f9 c7bd 1590 0a3e 90cb 0b3d
00000080: 2e28 ecbd c34f 683c dc1c 0ebd cb39 093e
00000090: e487 813d 3494 99bd 21cc 463d 88fa 003e
000000a0: 3060 5a3d a031 f1bb dabc fe3c 8e62 ca3b
000000b0: 3a1c 903d 3754 6e3d 160e b7bc 1d31 f3bc
000000c0: 4822 1abd e31d 1a3e 25d4 41bd 04d9 233d
000000d0: 2623 99bd 6dff 603d 3cc1 d2bd 21f9 e53d
000000e0: 1938 61bc cf67 ad3d 37f8 9bbd 9c8c aa3d
000000f0: 3972 0bbc 38bd b03d 27f1 b1bc 397f 12bd
00000100: 8556 f63d 8bc7 8e3d d9c3 d3bd a3e7 f63c
00000110: 2340 ec3d 5577 c73d 8249 e0bd 4fe5 4dbd
00000120: 2209 aabd 4196 bfbd 8f12 603d 2e23 8cbd
00000130: 3917 c53d 999b afbd 57eb c3bd aacd 8abd
00000140: fc9f d1bd 32c7 933d 561e a6bd a197 aebd
00000150: 8ac8 1f3c 40be cbbd 5a24 993c cf0f a33d
00000160: d8de a33d fd88 06bd 4ff5 d0bb 7380 8bbc
00000170: 4cb4 c73c 49e1 0e3e a16c 99bc e280 43bd
00000180: c54a c7bd 3c2a c3bd 2dcc 6d3d a7dd 99bd
00000190: 8e44 223d ae7c f73d 4d85 00be 9af9 4d3d
000001a0: b210 423c f4e0 333d 5c7e 893d 90ce 3e3d
000001b0: 7941 bb3d e458 6dbd 71a3 5f3d 7c17 1bb9
000001c0: 7b29 cbbc 37d3 45bc fa92 033e c816 8b3c
000001d0: b627 923c 73a0 00be 1198 893d d49a 8d3d
000001e0: ca00 a2bd 45e4 e5bc aec3 943b 4a2f 13bc
000001f0: f9b8 03be a1ad 78bd 9ccb c7bd 14d7 29bd
00000200: 1f3b 053d f43d c13d 8dda 043e 4db9 e6bb
00000210: 2fa8 b73c b7a9 a43d e4f0 c7bd 8dec 0b3e
00000220: 33e0 773c 070a ebbc 1b0a 37bd 697a 393d
00000230: 3362 7dbd 0435 603d ed0d cbbd a67f 9f3c
00000240: b6c2 06be 29e5 9abc a736 f2bd ce12 ea3b
00000250: 37b7 7abd 2166 e23b d386 d73d cb4b 093d
00000260: a99b e23d 3ff6 803c 6630 65bd 26c4 0b3c
00000270: c97a c2bd 6bc6 10bd 7111 893d 6061 873d
00000280: bcae c3bc d62d 02be a771 7d3d 5620 4ebd
00000290: 9d0d 2cbc 5f15 7e3d 60fc 01be 223e 223c
000002a0: d0fe b93c 5e77 abbd b528 aa3d 4b9c d3bd
000002b0: eccb 563c 738d ce3d 4c6e 74bc 8e5c 963b
000002c0: f5b1 e73c 2f7a 27bd e2fa ee3d 4f6e a53d
000002d0: ca21 33bd e86a 003c 3d80 c23c ef1f 09bc
000002e0: d97c 62bd 8d4e efbd bc5d 5abc 5c30 043e
000002f0: 244d 9a3d c4a6 e5bd b985 8e3d 69b7 ae3d
00000300: b187 1fbd 8b2f febd 1905 b53d e140 563d
00000310: 6f64 2dbd a611 a1bd 6b74 663d 72c9 7fbd
00000320: 9417 0b3d ed84 a53d 6b17 90bd 2183 f7bc
00000330: 32b3 6d3d 5d7a dd3b 1a3a bf3d f94b 123e
00000340: e5aa 063c fb49 193d 0d77 bdbb 14a6 b83d
00000350: c835 b6bd 0099 8dbd 5b8a 38bd e9ee a5bc
00000360: f3a1 873d e4c8 32bd 1c1c 063c 1425 d8bd
00000370: 3850 8f3d 3fae 8bbd 57ae 68bd 44c3 7cbc
00000380: 0c86 7b3d 881b cd3d 940f 4ebd fc48 c6bd
00000390: 7e1a 323d 2937 e03d a068 773d 7148 6fbd
000003a0: 1a5b 03be 2d93 c1bc c22f 873d 3fb0 88bd
000003b0: 6435 e1bd 39b2 d8bc b8de 01be 0997 a2bd
000003c0: 9d61 abbd 8168 ef3d 6aaa a7bc 6f26 db3d
000003d0: fada cc3d 0158 99bd 0455 d73d a548 5e3d
000003e0: 5fc6 edbd a112 563d e160 fa3c 1ee0 40bd
000003f0: 4a27 09bd 0c09 813d b971 f63b ed54 cc3c
-0.012453988 0.021694869 -0.08084084 -0.1143908 0.091941975 0.024423866 -0.10028229 0.07728437
0.08002701 -0.0758928 -0.048988614 0.057602596 0.006217771 -0.10542065 -0.009639769 -0.018064566
-0.05130517 0.0017583579 0.043645583 0.078092605 -0.11444557 0.04566415 0.010159102 0.030754883
0.079764694 0.01878029 -0.09550725 0.10480581 -0.046182267 -0.097644344 0.13531525 0.03412968
-0.11531101 0.014179173 -0.03469549 0.13400953 0.06324747 -0.07498971 0.048534516 0.1259557
0.053314388 -0.007360652 0.03109591 0.0061762994 0.07036634 0.058185782 -0.022345584 -0.029686505
-0.03763035 0.15050463 -0.047321457 0.040001884 -0.07477407 0.054931093 -0.10290763 0.11229158
-0.013746285 0.084670655 -0.076157026 0.083276 -0.0085111195 0.086298406 -0.021721436 -0.03576586
0.12028221 0.069716536 -0.10340089 0.03013975 0.115356706 0.09739558 -0.109515205 -0.050267514
-0.08302523 -0.093548305 0.0547052 -0.068426475 0.0962357 -0.085746 -0.09566372 -0.067775086
-0.10235593 0.07215728 -0.08111255 -0.08525015 0.009752402 -0.09948397 0.018694092 0.079619996
0.080014884 -0.032845486 -0.0063768993 -0.017029023 0.024377964 0.13953127 -0.018728556 -0.047730334
-0.09731058 -0.0952954 0.058056045 -0.0751298 0.03961616 0.12084328 -0.1255085 0.050286867
0.011844801 0.043915704 0.06713554 0.046583712 0.09143347 -0.0579461 0.05459923 -0.000147907
-0.024800053 -0.012074283 0.12849036 0.016978636 0.017841201 -0.12561207 0.067184575 0.06914297
-0.07910307 -0.028062949 0.0045399284 -0.008983443 -0.1286353 -0.06071246 -0.09755632 -0.04146488
0.032527085 0.09435645 0.12973996 -0.0070411325 0.022419063 0.08040183 -0.09762743 0.13664456
0.015129137 -0.028691305 -0.04468737 0.045282755 -0.06186123 0.05473806 -0.099147655 0.019470047
-0.13160214 -0.0189081 -0.1182683 0.007143355 -0.061209884 0.0069091474 0.105237626 0.033519547
0.11064846 0.01574242 -0.05595436 0.008530652 -0.09496076 -0.035345476 0.0669278 0.0661037
-0.02388703 -0.12712798 0.061875965 -0.050323807 -0.0105012925 0.0620321 -0.1269393 0.009902509
0.022704512 -0.08372377 0.083085455 -0.10332545 0.013110142 0.10085573 -0.014918875 0.00458867
0.028283099 -0.040888008 0.11668946 0.0807768 -0.043733396 0.007837988 0.02374279 -0.00836943
-0.055294845 -0.11684904 -0.013328012 0.12909073 0.07534245 -0.11213449 0.06959099 0.085310765
-0.038947765 -0.12411412 0.08838863 0.052307967 -0.04233211 -0.07864694 0.05626337 -0.062447973
0.033958033 0.08081994 -0.070357166 -0.030213894 0.058032222 0.0067589716 0.09337254 0.14286794
0.008219455 0.03742407 -0.005782014 0.09016052 -0.08896977 -0.06913948 -0.04505382 -0.020255523
0.06622686 -0.043648615 0.008185413 -0.10553947 0.069977224 -0.06820344 -0.05680689 -0.015427414
0.061407134 0.10015017 -0.050307825 -0.096818894 0.043482296 0.10948021 0.060402513 -0.058418695
-0.12827721 -0.02362975 0.06600906 -0.06674241 -0.109965116 -0.02645217 -0.12682617 -0.07938964
-0.08368228 0.116898544 -0.020467002 0.1070069 0.10002704 -0.074874885 0.10514262 0.054268498
-0.11610102 0.05226386 0.030563774 -0.047088735 -0.033484735 0.06300554 0.007520881 0.02494284

lstm.bias_ih_l0 f4 [256]
00000000: 3869 743c 48b2 34bd b726 ae3d e0d1 68bd
00000010: d933 1d3d 368e 3cbd a95d 5abd 9061 cb3d
00000020: 62d8 453c be31 40bd d8db 523d 7e04 62bb
00000030: 904e 113d de88 10bd db74 193d f1bc 0bbd
00000040: e118 99bc 32be ddbd bb03 973d e1ac e2bd
00000050: 4956 493d abb3 b2bd 0855 c73c 491f 033e
00000060: eef2 b13c 6f2a 73bd da56 5c3d b8b8 f33d
00000070: de0e 8a3d bdad a73c 5973 7abd 3795 35bd
00000080: c70e 00bd 44b8 67bc f017 1c3b 7506 ecbd
00000090: 6ed9 cebd c511 e8bd 667b b43d 292c 053e
000000a0: d957 133d 6dc8 853d f01d d8bd b625 b4bd
000000b0: 2c3d 8d3b ebc1 843d 68c3 1a3d 3d6b 8cbd
000000c0: ddd2 8f3c 59eb d1bc 11fb d83c aba8 f9bb
000000d0: 7f2d f13b da8d e1bc c87f 2e3d 63b8 ccbd
000000e0: 479a 4fbd a4c5 26bb 39e5 043d 899b 003d
000000f0: 71ef 773d e735 98bd bd79 d1bc df4d d4bd
00000100: 6ec2 92bd a944 a13d 771b 0e3e 04db 67bd
00000110: b69d 58bd b3a1 f83d cce7 f23d d0e7 e73d
00000120: bed8 d93d 9b14 f43d ce32 083d a3b7 943d
00000130: c458 f73c baf4 a03c f849 46bd 926e 36bd
00000140: 02e5 45bd 2078 05bc bf2f e33d d25c 7bbd
00000150: 6222 cf3d 43d0 293c 98c9 d93c 9603 883d
00000160: 3479 e03c f248 97bd 8ab9 103a 5ed3 d23d
00000170: e2c2 8e3d b530 05be 6571 853d a92a ac3c
00000180: 79af 253c 27da c33d a914 bf3d b1fc eabd
00000190: 4eb9 bbba 35d0 c6bd 413f c93b 1288 6dbd
000001a0: 3d31 773d b898 543d c30d 41bd 9803 c43d
000001b0: 89fb 71bc 76a4 ea3b 70da b13d 6044 423c
000001c0: 8498 433d 6df8 3f3c 0374 573d ecc1 cb3d
000001d0: 64b6 803d 1eb8 243c d5d2 893d 3afb 6ebd
000001e0: b661 e93d 4971 b5bd d92e 43bd fb1c f13b
000001f0: 5ea8 71bd afbc 1e3c 0124 4d3d 3ab5 ea3d
00000200: 06b2 463c 54a5 f13d 0990 d73c 0216 c63d
00000210: 203e 46bc 079f 873d 3b00 c13d 4129 ac3d
00000220: 2dc6 463c a222 c03d 7dea b33b b942 d23c
00000230: baec b13d fcf2 efbd 381f bcbd 3c96 10be
00000240: a267 0b3c 45d4 17be 077e a7bd 16bf c93d
00000250: 2cdd 44bd 7eaa 4e3d 390c 0bbd 05f5 6d3c
00000260: d70d 923d 9f31 ecbd 70c2 913b 757e 8b3d
00000270: a9d6 e6bb f4af 89bc 46bd b63d 0511 523d
00000280: 9ff9 aa3c 95e0 a0bd 965e 00be 92c8 febd
00000290: cf04 2f3d b94f c03d f9b3 b7bd 047a 8b3c
000002a0: d4c7 ddbd ff6b 10bc 8f03 fd3d 5f5b e4bd
000002b0: 3348 eabd 4004 a73d c0d4 61bd 58c2 1a3d
000002c0: a86c cfbd 70a3 82bc 917b dc3d 6cda b9bb
000002d0: 9163 013c d252 c53d 7d23 96bd 3124 ddbd
000002e0: b3f2 adbd ae8e bcbd 36a2 be3d 8585 acbc
000002f0: fba4 77bd 4406 503d af16 85bd 7124 de3d
00000300: 3614 b7bd 340a 91bd 6ec5 92bd 972d f63d
00000310: 00da 893d 55eb a5bc 6329 eabb 55f0 833d
00000320: 83e2 55bc 007a 863d c4ae 953b 58ba d4bb
00000330: b554 8c3d 73af 723d b7d2 5bbb 3573 d7bd
00000340: dcb4 d6bc 0926 dc3d 371e 85bd 6e7a b43d
00000350: 46b1 07bd 6b12 79bd b9ac 8b3d bc0c 023e
00000360: c076 6a3d 754b d63d 56d9 cebd 25c8 ac3d
00000370: 22c6 e7bd 907a ca3d 8752 15bb d6d7 793d
00000380: 68e2 3ebd 0a02 f53d 424d 8abd c128 213d
00000390: ba23 253d a776 ca3c 68f9 ad3b c7ac 003e
000003a0: b735 f13d 8d4f e8bc b23e afbd 42df 41bd
000003b0: 6757 aebc 5526 98bd 369d e83d d8f3 ad3d
000003c0: 625a 43bd c4ec 85bd 0986 acbc 9ee8 12bd
000003d0: 3a54 f5bc 28e8 5b3a df55 d63d ff96 a33d
000003e0: bc6b 033d fba5 c73d d912 993d 01e8 cabd
000003f0: a2cd 093e b148 95bd 6b7c d8bd 95da bb3d
0.014917664 -0.044115335 0.08503478 -0.056840777 0.038379524 -0.04603406 -0.053311978 0.09930718
0.012075515 -0.046922438 0.05147919 -0.003448754 0.035475314 -0.035286777 0.037464958 -0.034115735
-0.018688621 -0.108272925 0.073737584 -0.1106813 0.049154554 -0.08725675 0.024332538 0.12804903
0.021722283 -0.05936664 0.053793766 0.11900467 0.06741117 0.020468587 -0.06114516 -0.044331755
-0.031264093 -0.014143053 0.0023817979 -0.11524669 -0.10100065 -0.11331514 0.08812599 0.13005127
0.03597245 0.06532369 -0.10552585 -0.08796255 0.004310271 0.064822994 0.03778401 -0.068563916
0.017556602 -0.025624918 0.026486905 -0.0076189837 0.00736016 -0.02753346 0.04260233 -0.099961065
-0.05068424 -0.0025447393 0.032445166 0.03139833 0.060531083 -0.07432156 -0.025570745 -0.10366415
-0.07165991 0.07874424 0.13877665 -0.056605354 -0.05288478 0.12140217 0.11860618 0.113235116
0.106370434 0.11917993 0.033251576 0.072615884 0.030193694 0.019647945 -0.048410386 -0.04453904
-0.048314102 -0.008146316 0.11093091 -0.061367817 0.1011398 0.010364595 0.026585385 0.06641309
0.027401544 -0.0738696 0.00055208115 0.10294221 0.06970765 -0.13006862 0.06515769 0.021016436
0.010112637 0.09563094 0.093301125 -0.11473978 -0.0014322193 -0.09707681 0.0061415737 -0.057991095
0.06034969 0.051903456 -0.047132265 0.09570998 -0.014769443 0.0071607186 0.08684242 0.011857122
0.047752872 0.011716944 0.05260087 0.09949097 0.06284788 0.010053663 0.06729666 -0.058345057
0.1139559 -0.08859498 -0.0476521 0.007358191 -0.058998458 0.00968854 0.050083164 0.114603475
0.012127405 0.11799112 0.026313799 0.096721664 -0.012099773 0.06622129 0.09423872 0.08406306
0.01213221 0.09381606 0.0054905997 0.025666581 0.0868773 -0.117162675 -0.09185642 -0.1411981
0.008508595 -0.14827068 -0.08178335 0.098509 -0.04806249 0.050455563 -0.033947203 0.014523749
0.07131546 -0.11532902 0.0044482276 0.06811229 -0.0070446325 -0.016807534 0.0892282 0.051285762
0.020870982 -0.078553356 -0.12536082 -0.124405995 0.042729195 0.09390206 -0.08969874 0.017025955
-0.1082913 -0.008814811 0.123541944 -0.1115024 -0.11439552 0.081551075 -0.055134535 0.037782997
-0.101281464 -0.015947074 0.10765756 -0.00567179 0.007897274 0.09634937 -0.073309876 -0.107979186
-0.08493557 -0.092069015 0.09308283 -0.02105976 -0.060460072 0.050787225 -0.06498467 0.108467944
-0.08939402 -0.07082024 -0.07166563 0.12020414 0.06731033 -0.020253817 -0.007146047 0.06442324
-0.013054493 0.065662384 0.004567953 -0.0064919405 0.06852094 0.059249353 -0.0033542344 -0.10520021
-0.026209287 0.10749442 -0.06499904 0.08812414 -0.033128045 -0.06080858 0.068200536 0.1270017
0.057242155 0.10463611 -0.10100047 0.08436612 -0.11317088 0.09886658 -0.0022784786 0.060996853
-0.046602637 0.119632795 -0.06753017 0.039345507 0.040317275 0.024714781 0.0053092726 0.1256591
0.117778234 -0.028358245 -0.0855688 -0.047332056 -0.021281911 -0.07429186 0.113581106 0.08493775
-0.047693618 -0.065393 -0.021060007 -0.035866372 -0.029947389 0.0008388781 0.10465597 0.079877846
0.032085165 0.09748455 0.07474298 -0.099075325 0.13457349 -0.072892554 -0.10570606 0.091725506

lstm.bias_hh_l0 f4 [256]
00000000: c168 eb3d ac89 bdbd 8464 043d 68de 9a3c
00000010: ef5d 8ebd 7f84 d6bd 2e43 e53d 599c f13d
00000020: df36 44bd 82a9 023e e721 f4bd 6f42 e43d
00000030: 3e01 53bd e3fc bdbd abe9 443d 76b3 c03c
00000040: 7b8b aa3b 8ff8 4cbd d496 85bb f8f5 fcbd
00000050: 7cef a33d 8cb1 c13c 00d4 e23d 292b 9e3d
00000060: ceef c33c 06bb 80bd ea8a 09bc c4e1 fd3d
00000070: 8afd d03d 2bed 27bd 7a02 1b3c d972 a0bd
00000080: 8de3 403d 9a25 693c ef88 cfbd 6632 cd3c
00000090: c880 5bbc 0b7c 123d 3188 f03d e079 1c3d
000000a0: 606f aebd c1e9 8f3d a611 f7bd 0a8a ad3d
000000b0: 6b4f ae3c 6a75 6d3d c486 81bd 4166 51bc
000000c0: d1a5 6e3d 8649 09be baa9 a53d d20b d93d
000000d0: 2320 d53c ccf9 fd3d 2a3a 7a3d 5ce7 44bd
000000e0: b463 67bc 7d50 e63d 39cd 5f3c d03e c5bd
000000f0: d6bf fc3c fd63 97bb d4fc 943c e1f2 37bd
00000100: 3494 07bd 09a7 7abb 80b5 dbbd 0a50 033e
00000110: 25aa a8bd 1b36 c33d 7980 25bb b67b 123c
00000120: cecf ef3d 2ace fb3d 2bc8 673d 6ef1 8c3d
00000130: 8c74 0a3e 7fb8 b2bd 52eb e83d ba56 debd
00000140: 80da edbb 2e5b f13d 126f 9dba d5d9 4d3d
00000150: 5a49 953d f9aa 173e cc2e b63d 55df d73d
00000160: ce09 403d ceae db3d d41c e8bc 42ca eb3d
00000170: 767e dfbc 9cdc e9bd e840 b0bc b611 d8bd
00000180: 747f d53d cdc8 e8bc df56 923d fad9 333c
00000190: 3b52 d7bd 526d ecbc 7887 c7bd 0a5a a43d
000001a0: b6ec c538 7082 e73d 39c0 373c 46cc b2bd
000001b0: 83b3 7d3c c5fa d93d c0c2 07bd 64ba 0c3e
000001c0: 61d2 d53c 22ce 88bd b62e 083e 9975 6dbd
000001d0: aab8 1f3d f364 8f3d 583b d23d 7ac9 57bd
000001e0: e4c4 9c3c 8413 b3bc a349 7cbd 2874 1abd
000001f0: c87c 083e d690 4e3d 5d95 c43d 8b9b 7e3d
00000200: 3c89 73bc 9327 84bb d84c f2bc f24d 05bd
00000210: 2d8f cbbc 29f4 503d 65a6 203b d2bc f23c
00000220: 8e58 cbbd fab0 f13d ec5a f83d a130 b7bc
00000230: 3c3f 1cbd f205 2cbd 6e6a 1b3d 5cda c73d
00000240: deb8 83bd 8830 c23d 4623 0c3d 9830 ffbd
00000250: 1d06 9cbc 27ab 953d 6c93 2ebd 6bbb cc3d
00000260: b239 12bb 71eb 943d ee3c 59bd 43b2 e93d
00000270: 0495 e03d ce6b 7b3d aa11 60bc 07c3 253d
00000280: 18e4 4c3d 4e96 243c 43bf 86bc cabe ac3d
00000290: 8e0e c73d 7fb6 f23d cba7 573d 8b5f afbd
000002a0: 6df6 ea3c f03a 11be bf36 083e d987 ddbd
000002b0: 7920 c9bd 0678 ac3d 8cc6 e8bc 380e 463d
000002c0: 228c da3d fe02 9ebd 4489 67bd 1bd4 66bd
000002d0: 7c93 e7bc eb56 1bbd 7b3f acbd 37da 613d
000002e0: c1fe fcbd 74d1 d1bd a57e b93c 627f e73d
000002f0: 59d9 7cbd 4314 953d 7554 81bd a9f7 81bd
00000300: a809 27bd 8964 a43d e60d bf3d da90 373d
00000310: f039 b13d e843 3dbd 338e a7bc bb45 91bd
00000320: 0bcf 483d 0e20 92bd 35b1 65bd f767 11bb
00000330: e2df bdbd a468 95bc 7194 9fbd a5fd 87bc
00000340: e397 e83d cfb1 a33d ba59 87bd a8e1 093e
00000350: 0c4d c63d d85e f83d a9bf e3bd 22ae f23c
00000360: e397 a53d 8804 2fbb cf33 14bd cf98 c2bd
00000370: 10f2 8bbd 3ac4 ac3d 9428 50bc 0a7f eabc
00000380: 5c49 0d3e ce93 4dbd 8117 f43d 8738 61bd
00000390: 2a83 213d d878 e93d 79f3 76bc 0616 9d3c
000003a0: 309f 4dbd 76b4 ed3d 7ee3 a93d 123d 743d
000003b0: 0756 a0bd 25c9 2abc 3eff b5bd b0b4 cbbd
000003c0: eca5 a33c f7ff e6bd 4049 b73c 11e6 c2bd
000003d0: 6253 68bd 428d b43c c309 6f3d b0d0 f8bc
000003e0: dc33 433d 57af c4bd c0be f23d ded0 ac3c
000003f0: 3cbf 87bd c25d 6ebc caf6 e93c 5935 4bbd
0.114945896 -0.092547745 0.03232242 0.01890488 -0.0695151 -0.104744904 0.11194454 0.11797399
-0.04790389 0.12759975 -0.11920529 0.11145484 -0.051514857 -0.0927675 0.048074406 0.023523074
0.0052046156 -0.05004173 -0.004076818 -0.12351602 0.080046624 0.023644231 0.11075592 0.07723076
0.023918059 -0.06285672 -0.008394936 0.12396577 0.10204609 -0.040997665 0.00946104 -0.078344055
0.04709201 0.014230156 -0.1013354 0.025048446 -0.013397403 0.035762828 0.117447264 0.038202167
-0.08517337 0.07027007 -0.12063913 0.084735945 0.021278104 0.057973303 -0.06324533 -0.012780727
0.058263604 -0.13406953 0.080890134 0.10597958 0.0260163 0.124011606 0.061090626 -0.048072204
-0.014122892 0.11245821 0.013659769 -0.09631121 0.030853193 -0.004620074 0.018186964 -0.04490936
-0.033100322 -0.0038246533 -0.10727978 0.12823501 -0.082355775 0.09531804 -0.0025253578 0.008940628
0.117095575 0.12295182 0.05658738 0.068819866 0.13521022 -0.08726596 0.11373009 -0.108563855
-0.0072587132 0.11784969 -0.0012011251 0.05025657 0.07289381 0.14811315 0.088956445 0.10540644
0.04688435 0.10726701 -0.028334059 0.11513187 -0.027281981 -0.11419031 -0.021515325 -0.10550253
0.104247004 -0.028416062 0.071454756 0.010977263 -0.10513731 -0.028860722 -0.097426355 0.08024986
9.437783e-05 0.11304176 0.011215263 -0.08730368 0.015484693 0.106435336 -0.033144712 0.13742977
0.026101293 -0.06679942 0.13299069 -0.057973478 0.03899447 0.070016764 0.10265225 -0.052682377
0.019136854 -0.021859892 -0.061593663 -0.03770843 0.1332885 0.050431095 0.09598801 0.062160056
-0.014864262 -0.004033038 -0.029577658 -0.032545038 -0.024848545 0.0510141 0.0024513241 0.029631052
-0.09929 0.11801334 0.12126717 -0.022362055 -0.038146242 -0.041997857 0.037943296 0.097584456
-0.06431745 0.09481913 0.034213327 -0.124604404 -0.019045884 0.07308035 -0.04262106 0.09996685
-0.002231222 0.072714694 -0.053036623 0.11410954 0.109659225 0.061382107 -0.013676086 0.040469196
0.050022215 0.010045601 -0.016448623 0.084348276 0.09719573 0.118512146 0.052650254 -0.08563145
0.028681958 -0.14182639 0.13302134 -0.108169265 -0.09820647 0.0842133 -0.028414987 0.048353404
0.106712595 -0.077154145 -0.05652739 -0.056354623 -0.028268568 -0.03792469 -0.084105454 0.055139747
-0.12353278 -0.10245028 0.022643397 0.11303593 -0.061730716 0.07279255 -0.06314937 -0.063460656
-0.040780693 0.08026988 0.09328823 0.044815876 0.08653629 -0.04620734 -0.020453548 -0.07093378
0.049025577 -0.0713502 -0.0560772 -0.0022187212 -0.09271218 -0.018238373 -0.07791985 -0.01660044
0.11357095 0.07992899 -0.06608911 0.13464987 0.09682664 0.12127465 -0.11120541 0.029624049
0.08085611 -0.0026705582 -0.03618222 -0.09501802 -0.06833279 0.08435865 -0.012704987 -0.02862503
0.13797516 -0.050189786 0.119185455 -0.05498555 0.03943173 0.11400002 -0.015072697 0.01917554
-0.05020064 0.11606686 0.08295344 0.059628554 -0.078289084 -0.010423933 -0.08886574 -0.09946573
0.019976579 -0.1127929 0.022373796 -0.09516538 -0.056720145 0.022040013 0.05835892 -0.030372947
0.04765688 -0.09603756 0.11852789 0.02109569 -0.06628272 -0.014548721 0.028560061 -0.049611423

lstm.weight_ih_l0_reverse f4 [256, 32]
00000000: 4905 1abd e10c d13d f7cf 0bbe 787b a3bd
00000010: 5e1a 58bd ad50 e3bd cd71 1bbd b93d 883d
00000020: fafd 1dbd 2c92 cf3d 9149 8bbc 273c 073c
00000030: 654e d5bd 3162 85bd 6a41 143d 4989 6a3d
00000040: 9068 703c eb87 1d3c 0844 d93d 59dd a0bd
00000050: e5c8 cabd ed6b edbd 4ad3 de3c b26b 0f3d
00000060: 16d7 9cb8 c74f 073e d099 af3d 4d90 4bbc
00000070: 46e4 9cbd 7619 903d 0115 bd3c f991 023d
00000080: 3d84 02bd d120 893d 7b3b f5bd c816 a5bc
00000090: 302e 41bc 9f09 a3bd 4417 ce3d fba2 d0bd
000000a0: e985 c83c 667c b4ba 2f35 f9bd 81e1 c13d
000000b0: 6c32 c23c b1d6 c7bd 5673 093e ca7a a93c
000000c0: 59eb c83d af39 9f3d f048 41bc 5566 0c3d
000000d0: 87a7 91bd b06b f23d 68d7 2ebd 6e7f 84bc
000000e0: 026b e9bd cf6a f1bd f15f 7f3c 5a4f a9bc
000000f0: 747c 953c 364a da3d 4e00 d5bc 8825 d33c
00000100: 0cee 5c3d 559b 973d b97f bfbb 9176 9dbd
00000110: 4cfb 3fbd 8dfc e2bd c258 10bc 2f8c e33d
00000120: a272 5f3d 4599 0abd 66d4 efbd 98d7 3ebd
00000130: 45b9 5f3d 68fa 49bc 6e2e 18be 1244 d0bd
00000140: 4562 ddbb ded3 763d 45a0 d6bc a113 b93b
00000150: 2ea0 76bd b822 9bbd 4386 bb3c 5462 0bbe
00000160: 0d18 a6bc dcba 02bd 1feb cb3d 74ba f4bd
00000170: 0ebf cb3b ff8f d23d f3ff 4b3d cc86 0ebd
00000180: b7ef 8f3d e7db a53d 21a3 80bd 2a27 823c
00000190: a3b5 e9bd 25f3 c93d 62e5 9dbd d7a1 2bbd
000001a0: e95d 9dbc 7ac0 1abd ec3a 883a f179 65bc
000001b0: 1103 df3c 1cc2 26be 9760 91bd 1e88 e6bc
000001c0: 7077 183c 70b5 d63d bd42 0b3e f2c1 debd
000001d0: 08b0 4a3d 2bf3 1ebc c771 02bd 9b1e 6cbd
000001e0: 71da dcbd 3c96 e4bc f048 b93d 4d53 013e
000001f0: 30ff 2bbd 8dd3 fb3d ef0c a73d 35a3 2ebc
00000200: 5ed6 923d 41fb 603d dd07 ecbb 42c7 033e
00000210: 44ad a1bd f7ef 953d ee22 82bd 258c 193d
00000220: 30b9 b43c af39 39bd 1eb4 1b3c 8533 a7bd
00000230: 014d 973d 2160 b53b ba8f 4dbd 1256 4d3d
00000240: 9dc8 1b3b 6be7 88bd 6637 58bc 3ee4 8e3d
00000250: 0aac ec3d d16a 1f3d 144c 02bd 8c42 c2bd
00000260: 98e6 563d 2a16 a83d 9b50 e6bc c864 513d
00000270: e729 45bd 2f16 f63d 96a3 c73d f92d c0bd
00000280: faaf f63d 3e04 903d 8b08 fbbd db1d 193d
00000290: 2739 a83b ce9f adbd d8e3 e53d d32e 543d
000002a0: c423 523d 343b 03be ccd5 613d 1fa2 cd3d
000002b0: 0a17 afbd 9675 f8bc 9f55 dfbd f049 9cbd
000002c0: efcd 47bd 7dbc b63d bd2a d03c 0c6c cfbd
000002d0: 3add 033c 7923 0a3d 6def 663d e79c 2cbd
000002e0: 5197 dbbd 9b54 1bbd f158 d23c 2b63 0d3c
000002f0: 2598 57bd eab2 d63d ce3c a1bd 34ec bbbd
00000300: 4f3b 063d b641 8d3d 6ba1 98bd 82a2 f83c
00000310: 3748 b93d 2701 9ebd 576a e03d 8d8c bc3c
00000320: b4e5 96bd a7cf 8cbd 2bf4 debd e0a8 e03d
00000330: 394a 1dbd e1c8 4ebd ff7e 3c3d 6980 f63d
00000340: 2034 dbbd 0001 84bd 5297 1ebd faa9 24bd
00000350: b034 303d f94c f73d fb6e 0cbe 0366 a33d
00000360: 431e f7bd 6c63 0e3d 587a e9bd 7678 67bb
00000370: 3840 11be d58d f1bc e2e2 503d e446 70bd
00000380: d328 993c a6a7 c6bd 5c6f b6bd a75d f23d
00000390: 4513 973c c8cb 043c 9085 fd3d 8d5c 8fbd
000003a0: ff22 00be 3906 55bd 883d a83d 5df5 d4bd
000003b0: 1627 f6bd f625 8ebd c295 2bbd 6042 d93d
000003c0: e534 efbd 3226 e1bd 6dd1 d9bd f33b 66bd
000003d0: 439d 613d 3770 b2bc 7ee0 753c 2047 a8bc
000003e0: b730 4a3d b1cc 8a3d 8023 ab3d 73bf 19bc
000003f0: 4178 bb3d aace b5bd 10f7 dd3d 3aa6 a5bd
-0.037602697 0.102075346 -0.13653551 -0.07982534 -0.05275952 -0.11099372 -0.037950326 0.06652398
-0.03857229 0.10135302 -0.017002853 0.0082540875 -0.10415343 -0.06512869 0.036195196 0.05725983
0.014673367 0.009614925 0.10608679 -0.07854719 -0.09901599 -0.11592851 0.02720036 0.035014816
-7.4787225e-05 0.13214026 0.08574259 -0.012424541 -0.07660727 0.07036106 0.023081305 0.03187749
-0.031864394 0.06695712 -0.119742356 -0.020152465 -0.011790797 -0.079608195 0.10063031 -0.10187336
0.024477916 -0.0013769984 -0.12168347 0.094668396 0.023705684 -0.09757746 0.13422903 0.020688433
0.09810514 0.07774674 -0.011797175 0.03427728 -0.071120314 0.11836946 -0.042685896 -0.016174044
-0.11397363 -0.1178795 0.015586839 -0.02066772 0.01824782 0.10658686 -0.026001122 0.025774732
0.053937957 0.07402674 -0.005844083 -0.0768863 -0.046870515 -0.110833265 -0.008810224 0.11110722
0.05455268 -0.033837575 -0.11710434 -0.046592325 0.054620046 -0.012327768 -0.14861462 -0.101692334
-0.0067560994 0.060260646 -0.02619947 0.005648092 -0.060211353 -0.075749815 0.02289117 -0.13611728
-0.02027514 -0.031916484 0.09956955 -0.119496256 0.006217844 0.10281371 0.04980464 -0.03479652
0.07028144 0.08098584 -0.06281114 0.015887816 -0.114115976 0.09860829 -0.07709767 -0.04190239
-0.019209819 -0.037781216 0.0010393537 -0.014006124 0.027223142 -0.16284984 -0.07098501 -0.028141078
0.00930582 0.10483825 0.13599677 -0.10876836 0.049484283 -0.00970153 -0.031846788 -0.057646375
-0.10783852 -0.027903669 0.09047115 0.12629433 -0.041991413 0.122962095 0.08156764 -0.010659029
0.071697935 0.054927114 -0.007203086 0.1286898 -0.07894376 0.0732116 -0.063543186 0.037487168
0.02206096 -0.045221027 0.0095033925 -0.081641234 0.07387734 0.005535141 -0.050185896 0.05013091
0.0023770698 -0.066847645 -0.013196802 0.069771275 0.11556251 0.038920227 -0.031810835 -0.09485349
0.052466005 0.082073525 -0.028114608 0.051121503 -0.048135664 0.1201595 0.097479984 -0.093837686
0.120452836 0.07032059 -0.12257489 0.037381988 0.005133766 -0.08477746 0.11225098 0.051802468
0.05130364 -0.12815553 0.055135533 0.10040688 -0.08549316 -0.030329507 -0.10905003 -0.0763129
-0.048780378 0.0892267 0.025411004 -0.1012803 0.00804835 0.033725236 0.056380678 -0.04214182
-0.10722221 -0.037922483 0.025677176 0.0086296005 -0.05263533 0.10483344 -0.07872926 -0.091759115
0.032771405 0.06897299 -0.07452663 0.030350927 0.09046977 -0.077150635 0.10957783 0.023016239
-0.07368031 -0.06875544 -0.10886415 0.1096971 -0.038400862 -0.05048454 0.04601955 0.12036211
-0.107033014 -0.06445503 -0.03871853 -0.040201165 0.043018997 0.12075228 -0.1371421 0.079784416
-0.12066319 0.034762785 -0.11400288 -0.0035319603 -0.14184654 -0.029486576 0.050997622 -0.058661357
0.018696224 -0.09699945 -0.08907959 0.11834269 0.018441806 0.008105226 0.12378991 -0.070000745
-0.1251335 -0.052007888 0.08214861 -0.10398362 -0.12019174 -0.06940834 -0.041890867 0.10608363
-0.11680011 -0.10993613 -0.10635648 -0.056209516 0.055081617 -0.021782024 0.015007136 -0.020541728
0.049362864 0.06777323 0.083563805 -0.009384024 0.09153796 -0.08877309 0.10838139 -0.08088346

lstm.weight_hh_l0_reverse f4 [256, 64]
00000000: 2ab9 b93d bd1c c0bd 3b71 9d3d 1683 b33c
00000010: 0e99 d13c 79f9 1a3d b387 083d 35b9 d43d
00000020: cdf0 9c39 e09f dabc e711 fb3d 2ffe 3b3c
00000030: e75f 153e be66 82bd 777a 97bc 8fd4 1dbd
00000040: 9cd0 02be 03d5 d33c 6276 bb3d 23bf 023e
00000050: 4fff bfbd 4800 dcbd 94f5 0e3e 532c b63c
00000060: d992 30bd 12f6 f03b 91fa 633d 616a bd3d
00000070: 7d9f 7e3d 968f 213d 979b 05bd 77a3 1a3d
00000080: f9b7 a2bd 4d51 833b fa7e 0b3e a584 953c
00000090: 8d07 19be 4cb2 afbd 0c75 febd 1b86 72bd
000000a0: 25be 5c3d 84a9 2cbd d28c d03b 38f7 f9bd
000000b0: c0de 8dbd 8a97 d5bd 27f2 c7bd 4ddd 213b
000000c0: 7e9d b83c 0b79 81bd 0635 9cbc 114f aa3d
000000d0: 0d39 c93d 454e a93c 19f3 053e 6ebd 1f3d
000000e0: 5b6d 443c 02c4 533c 9132 593d 105a 1bbc
000000f0: 6f9c cebd d581 db3d db87 81bd 88fd 02ba
00000100: d76e f93c 0798 97bd cb47 83bd 83a7 b03c
00000110: bd39 703d 6c88 4c3a eb15 9cbd a73c 5f3c
00000120: 044a f3b8 98c9 0fbd eea2 023e d06c 54bd
00000130: 5676 cabd f597 eabc 204c b8bd 30e1 f23d
00000140: e1c5 943c f9cf e5bd 9c04 8b3d 0153 acbd
00000150: f420 ce3d a5e2 6e3d a592 a33d 3e01 d43d
00000160: 36b9 d2bd 93e3 f03c 9554 f53d a936 963d
00000170: a071 97bd 5e48 9dbd 07ab bebd 29be 8e3c
00000180: ed7f 823d 400b 2d3d 3df1 7abd 906c ed3d
00000190: f452 e2bd 6493 dd3d 6564 97bd 71b0 e23d
000001a0: 82da 113d 0cd7 693d 25ae e8bd c819 803c
000001b0: 324d 943d f2d5 cb3d eac2 27bd 6e95 37bd
000001c0: b32f bbbc b4ff 57bd 4506 83bd 5662 97bd
000001d0: 8ea8 dabd fbce 963c 6af1 773d ac87 cd3b
000001e0: 3cf5 19bd efd5 3cbd 8464 6e3d a697 5fbd
000001f0: f536 233d 9f35 0e3d df13 85bb 7045 e13d
00000200: 87d9 bb3b 1823 6ebd cdbe d3bd 4922 b53d
00000210: 2e92 0a3e 39f5 dc3c 5b51 b3bc c60d cebd
00000220: 0e3f debd 3f42 9f3d c2bb c63c 5ca8 773c
00000230: 1fe1 01bd e776 22be ef48 81bd e9b5 8a3d
00000240: c918 d3bd c419 1b3d b0d7 d83d 8a53 333c
00000250: c473 92bc 0eb3 0cbe 1b69 0cbd 0a43 cabd
00000260: 7781 1cbd 4011 0cbd 71fb 7e3d 8190 053d
00000270: 784a a6bd a641 513d f791 10be 64fa f7bd
00000280: 14cb 80bc 951b e4bd cee8 363c 3e8c fe3d
00000290: d5c0 12bd ef0f 763d 1bda c4bd c0af d33d
000002a0: 3ec3 cc3d 9221 2abd ec32 32bd 05d2 17be
000002b0: 7b2b 1e3d 55b1 c43c d70a 60bd 48e4 0a3e
000002c0: e17c 3abd 8631 d9bd e694 893d 857d 22bd
000002d0: 961f df3d 041f 313d c36c 753d 58b6 a33d
000002e0: 3147 c0bd 718f 8b3d c679 83bd 87e4 56bc
000002f0: 2111 043e a5a9 713d 7b72 94bd 3f08 003c
00000300: 8666 e43c 65ab f1bb 1b88 f8bc b84e 5a3c
00000310: 77e9 033e 9629 0fbd 8052 153d 42ad 08bd
00000320: f655 743d 730f 453d a8ac ea3b ae00 d0bd
00000330: a3d9 b7bc 7a18 b4bd 6a9a ba3d b394 283b
00000340: 74e5 dbbd 8e57 173d 4268 15bd 764d d2bd
00000350: 4890 e7bd 53f5 c93d 9c61 aa3d 6510 ccbd
00000360: 4114 ed3d 9cd9 efbd e5f1 e53c e2eb 60bd
00000370: 380d 223d 4aea 3dbd bf12 10be c2f4 a23d
00000380: aee6 81bb 7b6d b03d fdc9 cc3d dc5b c73d
00000390: 5bc4 5d3c cfb4 c1bd cad3 a83d 349e d63d
000003a0: 9aeb 523d a5cc bdbd 7c89 8b3d 2f12 c73d
000003b0: a7ca b33d d900 e7bd e9c0 aabd b26d ff3c
000003c0: 57f8 a0bd d6fd e6bd c4de dbbd 974b 3d3d
000003d0: d6a1 d93d 74fc 82bd f526 d7bd 276e 8bbc
000003e0: 8bc6 c5bc ad38 1bbd 73d5 873c 97e6 3abd
000003f0: 2051 8cbd ee37 1fbc 86fa 0f3e 182d b1bc
0.0906852 -0.093804814 0.076876126 0.021913093 0.025585677 0.037835572 0.033332538 0.10386888
0.0002993405 -0.026687562 0.12259274 0.011474176 0.14587365 -0.06367253 -0.018491013 -0.03853279
-0.1277489 0.025858408 0.09153439 0.12768225 -0.09374868 -0.10742241 0.13960868 0.022237932
-0.043108795 0.0073535526 0.05565888 0.09248806 0.06216382 0.039443575 -0.032619085 0.03775355
-0.07945246 0.0040074945 0.13622656 0.018251726 -0.14944287 -0.08578929 -0.12424669 -0.059209924
0.053892273 -0.04215385 0.0063644433 -0.12205356 -0.06927252 -0.104292944 -0.09762984 0.0024698556
0.022536036 -0.06321915 -0.019068252 0.08315862 0.09825335 0.020667205 0.13081016 0.038999014
0.011988963 0.01292515 0.05302674 -0.009481922 -0.10088431 0.10718123 -0.063247405 -0.00049968855
0.03044836 -0.07402044 -0.06410178 0.02156425 0.058648814 0.0007802311 -0.07621368 0.0136253005
-0.000116009294 -0.035104364 0.12757465 -0.051861584 -0.09885852 -0.028636912 -0.08998895 0.11859357
0.018160762 -0.11221308 0.067879885 -0.08414269 0.10064879 0.058321614 0.079869546 0.103517994
-0.102892324 0.02940539 0.11979023 0.07334644 -0.07394719 -0.076798186 -0.093099646 0.01742466
0.06372056 0.042247057 -0.06126522 0.11592972 -0.11050978 0.10819128 -0.073921956 0.1106881
0.035608776 0.05708985 -0.113613404 0.015637293 0.07241286 0.09952916 -0.04095737 -0.04482024
-0.022849893 -0.052734092 -0.0639768 -0.07391803 -0.106766805 0.018409243 0.060532965 0.006272277
-0.03758739 -0.04610246 0.058201328 -0.054587983 0.039847333 0.034719106 -0.0040612067 0.10999572
0.0057327184 -0.058138937 -0.10339127 0.0884443 0.13532326 0.0269724 -0.02188938 -0.10061221
-0.108518705 0.07776307 0.024259452 0.015115824 -0.031708833 -0.1586567 -0.06312739 0.06772978
-0.10307462 0.03786637 0.10588014 0.01094521 -0.017877467 -0.13740179 -0.034279924 -0.09876068
-0.038209405 -0.03419614 0.062251512 0.032608513 -0.081196725 0.051087998 -0.14118181 -0.12108305
-0.015721835 -0.11138073 0.011163903 0.12429093 -0.03582843 0.06007379 -0.09611913 0.10336256
0.09998177 -0.04153592 -0.043505594 -0.1482621 0.038615685 0.02401034 -0.054697838 0.13563645
-0.04552925 -0.10605149 0.06717853 -0.039670486 0.108946964 0.04324247 0.059918176 0.07993764
-0.09388579 0.06814469 -0.06419711 -0.013116009 0.12897159 0.058999676 -0.07248398 0.007814466
0.027880918 -0.007375168 -0.030338338 0.013324432 0.12882029 -0.03495177 0.03645563 -0.033368357
0.05965229 0.048110437 0.0071616955 -0.1015638 -0.022442644 -0.08793731 0.091114834 0.0025723397
-0.10737124 0.036948733 -0.03647638 -0.10268681 -0.11306816 0.09861245 0.08319399 -0.099640645
0.11576129 -0.117114276 0.028069446 -0.054912455 0.039563388 -0.046366014 -0.14069651 0.0795684
-0.0039642667 0.08614632 0.09999464 0.09734318 0.013535584 -0.094583146 0.082435206 0.104793936
0.05149422 -0.092675485 0.068133324 0.09720265 0.08778887 -0.112794586 -0.08337576 0.031180236
-0.07859867 -0.11278884 -0.107358485 0.046214666 0.10626571 -0.06395808 -0.10505477 -0.017020298
-0.024142524 -0.037895847 0.016581273 -0.045630064 -0.06851411 -0.0097179245 0.14060411 -0.021627948

lstm.bias_ih_l0_reverse f4 [256]
00000000: 00dd 783c 66b4 8bbd d372 f23d d227 babc
00000010: af61 babd b2c1 ac3d 196b ca3d 54de 8e3c
00000020: a0e0 b2bd 85f8 90bd 32e2 7bbc c988 663d
00000030: 2324 dfbd bf58 9abd f334 c83d bd8b 8cbc
00000040: 38a0 60bb d150 41bd 2980 5d3c 4b87 e9bc
00000050: e7df ef3d 37be 8b3c 4c10 f6bc 9c28 af3d
00000060: 133e e43d ed3e 6ebd aa60 c33d 1302 e2bd
00000070: f949 e1bc 44a3 7dbd 9628 f6bc fb74 a5bd
00000080: cefd b9bd 939d 9bbd a5e6 d53d 66b9 ed3d
00000090: 041b 23bd 9f6b 9e3a 18bb 9c3d 47cc c8bb
000000a0: 9c92 793d e630 c6bb c98f 7dbd 7c24 a43d
000000b0: 818c 053e 7a28 59bd 5085 f7bc 4ff9 963b
000000c0: 481b c63d 940e de3b df7f a1bd c426 d4bc
000000d0: 3e26 bf3b f27c 67bd 8cec 253d 9499 efbd
000000e0: 38e5 1e3d 106f 733d c66f 92bb a523 2a3d
000000f0: 6386 99bc 394b 85bd e13e 1d3d 8594 a53d
00000100: d4ec d1bc 17a6 803d 3c5e c1bd c8b4 093e
00000110: a733 95bd 3ee2 b73c d2d9 9d3d 829b 933d
00000120: 9296 bcbd cf95 d1bd 3627 493c 24d4 afbd
00000130: d801 a3bd 9695 36bd 0fe9 46bd af2b a93d
00000140: d120 033e 5fb1 dbbd 62ca 533d 929c c7bb
00000150: 0056 67bd 95a2 9b3d 85fc 97bd 3e5a 8cbd
00000160: e1bb a3bd b80a c93c be6c 803d a70c 8cbd
00000170: 95be a4bd 8732 b83d 3cfe 8fbb 14c6 b9bd
00000180: 239c b6bc 9b48 a0bb 54c3 dd3b 213f 733d
00000190: a74d 0b3e 0465 adbd 5250 073c 9083 91bc
000001a0: 655b 9ebd 6e17 743d 6fda 293d 5bd8 133d
000001b0: 9255 943b d9cf 77bd 363d f93d 1063 09bd
000001c0: 6d3e cabc 129f ec3d 97f0 da3d 5d99 dcbd
000001d0: 538a 493d bc37 cbbd 51f8 863d 6c52 04bd
000001e0: 87f6 8e3c 664f 01b9 169e dcbd 9dae 2fbd
000001f0: 1838 84bd 5d1d d13d f9d2 b23d 155d f3bd
00000200: 6b7d 8f3c 559e e33c 206a 8fbc 9173 1c3c
00000210: 6784 8abd 1f54 cb3c a1bf 9c3d c521 c1bd
00000220: 25f4 a73d b456 903d 0beb bdbd 9641 8cbb
00000230: d3ca a63d 651c fdbc b7d9 ef3c 4fe8 cdbb
00000240: 9da9 bfbc 3761 683d 6eb3 f8bd a1cd 933d
00000250: 275f 02bd 4371 84bc 343a 163c 9132 ef3d
00000260: f459 043e f295 b63d 8808 62bd e5aa 173d
00000270: 42ad afbd 2a02 283c 36ff 083e c8a7 7abd
00000280: 5d96 6c3d 8128 c53d edb3 12bd 18f1 773d
00000290: 1361 673d aa3f 94bd e5ed 6bbb 5c77 c2bd
000002a0: 87c2 4c3c c20a 6abd 38fd 403b b92a 573d
000002b0: 5792 583d f588 803d 22c6 42bd ad24 34bc
000002c0: 59ff c33c a311 c1bd a2a7 eb3c f45e 45bd
000002d0: f8b4 f1bc dc91 d6bd 978f fb3c fb24 d4bd
000002e0: 896b 80bd 01bd e4bd 14fe eb3d f29c 243d
000002f0: 81ae 8a3d 87d9 fabc 1346 db3d 906e 09bc
00000300: 8462 0bbd 866a c93d 3e59 63bd a889 46ba
00000310: f811 d53c e102 8cbc 38cc 09bd 075a b13d
00000320: 6e11 373d 74ba bcbd fbbf 7d3c 4692 6f3d
00000330: 872a 2e3d 4076 e4bd 5abc 0e3e a62d 303d
00000340: a367 b5bd 72ec a93d eb3a c03d cfef ed3c
00000350: 086d a7bd d403 c0bd bd36 ebbc 5d8e 93bd
00000360: 579b b7bc e4f2 ec3d acd9 f13c 153f d03d
00000370: b2e0 673d 2c94 9dbd 8086 793d 0c2c 34bd
00000380: 668b 203d dcd2 763d 81bc 45bd 6eb6 0abd
00000390: c695 ea3d 39bc ccbd 3aa1 a1bd af99 3b3d
000003a0: c674 e53d 9990 923d 69f3 f33d 8a7b a33c
000003b0: cc5c adbd 7598 253d 4087 9f3c 7cd1 ca3d
000003c0: e18d 4ebd ee83 d33d 1635 4fbd 1d4d 813d
000003d0: fe2d cf3d fc15 a3bd 76d3 b13d 03d1 143d
000003e0: 819e 9e3d 1a0b cebd c890 d5bd a1d0 2e3b
000003f0: 264f f8bc 8c46 2e3d 021b 463d 0dc4 8f3c
0.015189409 -0.06821518 0.11838307 -0.022724066 -0.09100663 0.08435382 0.098837085 0.017439999
-0.0873425 -0.07078651 -0.015373753 0.056282792 -0.108955644 -0.07536458 0.09775724 -0.017156476
-0.0034275185 -0.047196213 0.013519325 -0.028506896 0.11712628 0.017058475 -0.030037068 0.085526675
0.11144652 -0.05816548 0.095399216 -0.11035552 -0.027501093 -0.06192328 -0.03004865 -0.08078953
-0.090816125 -0.07598414 0.104443826 0.116076276 -0.039820686 0.0012086517 0.07652873 -0.0061278674
0.060930833 -0.0060483096 -0.061904702 0.08014771 0.13041879 -0.053017117 -0.030214936 0.0046073566
0.09673172 0.00677664 -0.078857176 -0.025897391 0.0058334162 -0.05651564 0.04050879 -0.116992146
0.03879282 0.05943209 -0.004468891 0.0415379 -0.018740838 -0.06508488 0.038390044 0.080849685
-0.025625624 0.06281679 -0.09441802 0.13447869 -0.072852425 0.022446748 0.077075616 0.07207395
-0.092084065 -0.10233652 0.012277415 -0.085853845 -0.07959336 -0.04457625 -0.048562106 0.08260285
0.12805487 -0.1072719 0.05170668 -0.0060916627 -0.0564785 0.075993694 -0.07421211 -0.0685315
-0.079948194 0.024541244 0.06270741 -0.06838351 -0.08044163 0.08994012 -0.004394321 -0.090709835
-0.022291249 -0.0048914677 0.0067676697 0.059386376 0.13603841 -0.08466533 0.008258896 -0.01776293
-0.07732276 0.059592657 0.04146808 0.036095005 0.0045268023 -0.060500953 0.12169878 -0.03354174
-0.02468797 0.11553778 0.1069042 -0.10771439 0.049204182 -0.0992274 0.06590331 -0.032305166
0.017451538 -0.00012331977 -0.1077234 -0.042891134 -0.064560115 0.10210679 0.08731646 -0.11882988
0.017515859 0.02778546 -0.017506659 0.009549038 -0.06763535 0.024820386 0.07653738 -0.09430269
0.08200864 0.07047787 -0.092733465 -0.0042802794 0.081441544 -0.030897329 0.02927862 -0.006283797
-0.023396308 0.056733336 -0.121435985 0.07216955 -0.031829026 -0.016167289 0.00916915 0.11679567
0.1292494 0.089153185 -0.055183917 0.037028212 -0.08577968 0.010254422 0.13378605 -0.061195165
0.057760585 0.09626866 -0.03581612 0.06053266 0.05648906 -0.072387055 -0.003599995 -0.09495422
0.012497551 -0.057139166 0.0029447805 0.052530978 0.052873936 0.062761225 -0.047552235 -0.010995072
0.02392547 -0.09427192 0.028766457 -0.048186257 -0.029505238 -0.10477039 0.030708117 -0.10358616
-0.06270511 -0.11168862 0.11523071 0.040188737 0.06771565 -0.030621303 0.10706725 -0.008388177
-0.0340295 0.09834771 -0.05550503 -0.0007573613 0.026009545 -0.017091217 -0.033642024 0.086597495
0.044694357 -0.092152506 0.015487666 0.058489107 0.042521026 -0.11155367 0.13939038 0.043012284
-0.08857658 0.082970515 0.09386238 0.029045014 -0.08175093 -0.0937573 -0.028712625 -0.07204888
-0.022412939 0.11569765 0.02952274 0.10168282 0.05661077 -0.07694277 0.060919285 -0.04398732
0.03919544 0.060259685 -0.048275474 -0.033865385 0.11454348 -0.09996838 -0.0789208 0.04580086
0.112039134 0.07156486 0.11911661 0.019956369 -0.08464965 0.040428597 0.019473672 0.09903237
-0.050428275 0.10327898 -0.050587736 0.06313536 0.10116194 -0.079631776 0.08682911 0.03633214
0.07745076 -0.10060711 -0.104280055 0.0026674645 -0.030311178 0.042547747 0.0483656 0.017549539
