SecPPIS/output/model_epoch_1.pth (torch, 222997 bytes, 12 tensors)

embedding.weight f4 [8, 32]
000000 70 38 b8 bc e0 c1 77 bf 66 68 b0 be 33 78 9e 3f
       -0.022487849 -0.96780205 -0.3445465 1.2380432
000010 7f 59 e5 bd db 58 f4 3f ec df ed bd c4 ab 03 40
       -0.11198711 1.9089617 -0.11614975 2.0573587
000020 ba 08 68 bf 5e 9b 2f bf 31 e6 ae 3e 77 55 f9 3f
       -0.90638316 -0.68596447 0.34159997 1.9479207
000030 b0 04 12 c0 8b f1 9c bd 6e f2 8e bd 21 9a cd be
       -2.281536 -0.07663258 -0.069798335 -0.40156654
000040 c7 62 9c 3f c3 1c e7 bf 59 bb ad 3e ad 7a b6 bf
       1.2217644 -1.8055652 0.33931997 -1.4256188
000050 f6 1a ec 3f 76 71 01 bf 2d 29 3b 3e 45 90 a7 bd
       1.8445728 -0.5056375 0.18277426 -0.08181814
000060 4e 80 3c bf cb 37 9e 3f 92 3d 82 be f0 53 7d bd
       -0.7363328 1.2360777 -0.254376 -0.061847627
000070 2d 3b 97 3e 18 7c c4 3f bc 97 7c 3f 6c a4 05 bf
       0.29537335 1.535037 0.9866903 -0.5220401
000080 c6 69 a6 3f 8b 6a 20 3f 1a 6d 81 bf 87 8c ad 3f
       1.300103 0.6266257 -1.011142 1.355851
000090 17 0e 57 bf 69 4f ff 3d fb 8d fb be 68 88 82 3f
       -0.84005874 0.12466318 -0.4913176 1.0197878
0000a0 58 3e 8f bf 98 f7 56 3f 31 ce d7 3e 4c 43 f8 3f
       -1.1190901 0.8397155 0.421495 1.9395537
0000b0 84 36 24 3f 69 2d f6 3e a1 e0 d6 3d d1 1a 91 3f
       0.64145684 0.4808152 0.10492063 1.1336309
0000c0 46 d7 29 3f d4 01 fe bf f9 ac 27 3f 0d 36 96 bf
       0.66344106 -1.9844308 0.6549831 -1.1735245
0000d0 7d b6 fa be 72 a5 ad 3d 8a 14 2d bf ac 26 70 3e
       -0.48967353 0.08478822 -0.67609465 0.23452252
0000e0 20 49 42 bc 93 22 42 3c be 60 85 bf a3 a1 fc be
       -0.011858255 0.011849063 -1.0420148 -0.4934207
0000f0 3e 83 14 bf 60 c0 cf be 57 b1 1b c0 5e 81 c0 3e
       -0.5801276 -0.40576458 -2.432699 0.375987
000100 7d 58 d7 bd 4e be cf bf 83 06 90 3f 48 33 98 3f
       -0.10514925 -1.6229951 1.1251987 1.189065
000110 b2 cb bc bf 30 02 b0 3f 6b a4 18 be 6c b8 15 bf
       -1.4749663 1.3750668 -0.1490647 -0.5848453
000120 1a 5a 9d 3f c6 12 e1 3e d7 ea aa 3c c6 97 af bf
       1.2293122 0.43959635 0.020863933 -1.3718193
000130 00 c6 d0 3f a5 8b 9d 3e af 99 e5 3e b2 65 a1 bf
       1.6310425 0.30770603 0.44843814 -1.260916
000140 63 ad 31 3e 37 0f c9 bf d5 f4 47 bf 30 8d 50 bf
       0.17351298 -1.5707768 -0.7810796 -0.81465435
000150 f9 91 43 bf 6b df 0a c0 b3 a1 3c 3e 8c c5 c4 bf
       -0.7639461 -2.1698864 0.18421058 -1.5372787
000160 50 02 e4 bf 76 ae 48 3f 21 ba 4e be f4 57 ba 3e
       -1.7813206 0.78391206 -0.2018819 0.36395228
000170 e5 6d 00 3e 70 51 5c 3f d1 3b e4 3d 7a bd 9d be
       0.12541921 0.86061764 0.111442216 -0.30808622
000180 49 09 ae 3f 0c 97 22 bd 7d a1 39 3e 97 f9 8a 3f
       1.3596584 -0.03969483 0.18128009 1.0857419
000190 f3 d1 7a bf f1 b5 19 bf 06 d9 16 3f 2d d9 9a be
       -0.9797661 -0.60043246 0.589249 -0.30243817
0001a0 15 fc 23 be 8b 46 b2 be eb 53 96 be 76 24 76 3e
       -0.1601413 -0.34819445 -0.293609 0.24037346
0001b0 1f 82 5a 3f ee 94 8f bf 27 07 b8 be 9f 46 1f bf
       0.853548 -1.1217325 -0.35942957 -0.62217134
0001c0 30 34 23 bf 0c d8 5d bf c2 4f ae 3f 1f 6d 2a 3e
       -0.63751507 -0.86657786 1.361809 0.16643189
0001d0 39 af 4c 3f 12 13 4c 3f 5a 69 4c be 3d 5a 42 40
       0.7995487 0.797166 -0.19962063 3.0367577
0001e0 27 79 8d be cc f7 e7 3f c5 e1 a8 3f 62 e6 b4 3f
       -0.27631494 1.8122497 1.3193899 1.4132807
0001f0 54 61 89 bf 51 ab 2f c0 e9 d3 72 bf 49 f8 b6 3f
       -1.0732827 -2.7448313 -0.948546 1.4294521
000200 2c f0 d6 3e 21 63 ba bf e3 67 38 3f 7a 77 b3 3f
       0.41980112 -1.4561502 0.7203352 1.4020836
000210 77 8c fe be ae a8 02 bf 9c 2a 4b bf e8 9f 86 3f
       -0.4971654 -0.51038635 -0.7936189 1.051755
000220 ba 61 5d 3f 69 44 21 3f a6 89 b4 3e e1 ca 9b bf
       0.86477244 0.6299501 0.35261267 -1.2171289
000230 d1 2d 56 be 34 67 50 3f df 56 08 c0 5a 47 e3 bf
       -0.20915915 0.81407475 -2.1303022 -1.775615
000240 41 ff 0a 40 84 95 82 3e 6d 03 f3 3f 13 eb 8a bf
       2.1718295 0.25504696 1.898542 -1.0852989
000250 41 18 f3 bf 71 43 09 bf 8c 04 9d bf 0e 08 91 bf
       -1.8991777 -0.5361853 -1.2267013 -1.1330583
000260 1b 90 12 3f 9c 70 c3 bf d3 8b de bf 29 ff ce 3f
       0.5725114 -1.5268741 -1.7386421 1.6171619
000270 0b a3 08 bf 0a ca 03 40 37 5f 78 bf 0d 19 3c be
       -0.53373784 2.0592065 -0.97020286 -0.18368931
000280 f1 0b 4b 3f 87 05 1b 3d c4 89 75 3d 48 d0 8d 3d
       0.79315096 0.03784707 0.059945837 0.06924492
000290 9f 67 05 3e 24 89 f7 3f 1d 84 96 3f 36 b3 9f be
       0.1302781 1.9338727 1.1759068 -0.31191415
0002a0 70 5a 7f 3e 2b 69 4a 3f 39 1a f2 bf ff 1b cf 3d
       0.24936843 0.79066724 -1.8914253 0.10112762
0002b0 52 f6 5a bf 96 40 ea bf 04 96 db 3f 97 93 ba 3e
       -0.85532105 -1.830096 1.7155156 0.36440727
0002c0 88 ac 07 bf 6b cd 27 40 62 7c 72 3f ee ef c5 3e
       -0.52997637 2.6219127 0.94721043 0.38659614
0002d0 3a 13 0a 3d bb ce bf 3e e0 f6 93 3e 4d 35 d8 be
       0.033709742 0.3746241 0.28899288 -0.42228165
0002e0 16 f1 bd bf 98 b9 ff 3e a5 64 c3 3e a5 d1 92 3f
       -1.4839199 0.49946284 0.38162723 1.1470228
0002f0 6d d4 1a be 5d cd 7b 3e 87 13 27 3f 42 36 20 3e
       -0.15120097 0.24590059 0.6526417 0.15645698
000300 fd 2a 5d bd f2 c2 24 40 77 6d 9b bf 2d 98 c7 be
       -0.053996075 2.5743985 -1.2142781 -0.38983288
000310 64 7c c2 be 54 17 02 3f 33 46 37 3e 72 4d ba 3f
       -0.37985528 0.50816846 0.17897873 1.4554884
000320 83 92 1f 3f 4d 66 6e bf 76 e5 4a be 88 f7 92 3d
       0.62332934 -0.9312485 -0.19814095 0.07176119
000330 6d 26 b7 3e c4 11 8a 3f cf 87 92 bf 5b 38 2c 40
       0.35771504 1.0786672 -1.1447695 2.6909397
000340 6e 44 05 3f 3a 87 d4 bf 1a 68 72 3e a2 83 39 3f
       0.5205754 -1.6603768 0.23672524 0.7246648
000350 19 f2 8c 3f 39 e7 a5 3f d9 d3 f2 bf 27 f8 ac bf
       1.1011382 1.2961189 -1.8970901 -1.351323
000360 91 ac 4d bf 75 c9 d2 3e 5d 1c d0 bf f9 a1 b0 be
       -0.8034144 0.41169325 -1.6258656 -0.34498575
000370 e7 2f a1 bf 88 96 02 3e 22 9e ef be bc e8 3a bf
       -1.2592744 0.12752736 -0.46800333 -0.73011374
000380 d2 10 10 3e 78 95 69 3d 56 06 ea 3c 9f 75 41 bf
       0.14068916 0.05702731 0.028567474 -0.755701
000390 9d cf 9c bf b2 25 52 3e 63 70 27 be ac 09 b9 bf
       -1.2250859 0.20522192 -0.16351466 -1.4456077
0003a0 31 02 bb bf cf ca 76 bf 61 e9 9c bf 5f 70 56 3d
       -1.4610044 -0.9640321 -1.2258722 0.05235326
0003b0 53 79 5f 3f 3f 84 62 3e a3 cb 08 c0 75 64 c8 bd
       0.872945 0.2212076 -2.137429 -0.09784786
0003c0 f9 72 5b be 9a 38 e8 3e 7d 4f 1c bd 39 95 ff bf
       -0.21430577 0.45355684 -0.038161743 -1.9967414
0003d0 10 b8 ee be 65 a4 06 be 75 d5 9f bf e4 ac 06 ba
       -0.46624804 -0.13148649 -1.2487017 -0.0005137457
0003e0 42 96 89 bf 52 fd 63 3f ba db ae 3f 10 1b 71 3e
       -1.074898 0.8905841 1.3660805 0.2354548
0003f0 0e a3 62 bf 2a 61 71 bd 74 61 3b be 56 54 2a 3f
       -0.8853005 -0.058930553 -0.18298894 0.66534936

lstm.weight_ih_l0 f4 [256, 32]
000000 f9 04 d2 bd 9a 5e a0 3d 27 5c 1d bd 62 f0 da bc
       -0.10254855 0.07830544 -0.03841796 -0.026725952
000010 75 4b 8a bc d7 d0 d2 3d e5 f7 86 bd fa 08 91 bd
       -0.016881684 0.10293739 -0.06590251 -0.0708179
000020 0d d3 9b bd 6e fc f5 3a 4e a7 7b 3d 15 51 9c bc
       -0.07608614 0.0018767247 0.06143885 -0.019081632
000030 ca 8f 25 3d 89 9a 44 3b 48 c0 63 3d 63 20 3f bd
       0.04042033 0.0029999337 0.055603296 -0.046661746
000040 7e 0b 31 3d 47 ed 13 3c d3 a6 9a bd 72 6e 5d 3d
       0.04322385 0.009028739 -0.075513504 0.054060407
000050 b2 4d b8 bc 0f c9 c8 3d 20 f5 75 3d 7e 3c 82 bd
       -0.022497986 0.09803974 0.060048223 -0.06359194
000060 67 b7 84 3d 25 e1 ab 3d 57 ea d7 3d b7 0c 89 bd
       0.06480294 0.08392552 0.10542744 -0.06691878
000070 88 2d ea bd f5 f3 86 bd fd 69 ff 3d 02 29 c6 3d
       -0.11434466 -0.065895 0.124713875 0.0967579
000080 68 4f 38 bd 21 6a c7 3d 51 56 90 3c be 3c f9 3d
       -0.044997603 0.09737039 0.017619284 0.12169789
000090 90 fe 63 3c 7d 30 ce 3d 00 3d 8b 3b ca 63 04 3e
       0.013915673 0.10067842 0.004249215 0.12928692
0000a0 03 a1 cc bd bf e3 23 3d d5 1a 28 bd 5c ec ca bd
       -0.09991648 0.040012117 -0.041041214 -0.09908363
0000b0 63 ca 13 3d 74 6b 70 3d 01 18 e2 3d 10 75 9c bd
       0.036081683 0.058696225 0.11039735 -0.076395154
0000c0 98 34 77 bc 51 f0 cc bc b5 24 8a bd d5 6c 82 ba
       -0.015088223 -0.025016936 -0.067452826 -0.0009950647
0000d0 bc 3f f4 3d 27 09 b7 bd f7 74 d3 3d 65 64 c5 3d
       0.11926219 -0.089372925 0.10325044 0.09638289
0000e0 de 89 5f 3d 06 22 9f bd c4 a1 e2 3d 4d 9d 9e 3d
       0.05457484 -0.07770161 0.110660106 0.077448465
0000f0 b7 f0 a7 bd 44 91 ed bd fe 97 c7 ba 03 40 ae 3d
       -0.082002096 -0.11599973 -0.0015227792 0.08508303
000100 5e 20 e3 3d e2 10 fe bd 0a b5 40 bd 90 8a de bd
       0.11090158 -0.12405564 -0.047047652 -0.108662724
000110 27 d3 df 3d 59 df 8b bd 80 a3 85 3d 99 e2 c9 3c
       0.10928946 -0.068297096 0.06525326 0.024644183
000120 ca 91 8f bd 7e 17 f2 3c 48 54 0b 3b 56 a2 72 bd
       -0.07010229 0.029552218 0.0021259952 -0.059236847
000130 dd 6c 82 3d c4 cd f4 bd c2 e7 77 3d 1f ab 51 bd
       0.0636842 -0.11953309 0.060523756 -0.051188584
000140 b7 d0 ca 3d 0f 03 6c bd 74 51 f2 3d 56 9b 86 3a
       0.099030904 -0.057620104 0.11831942 0.0010269682
000150 df cf c3 bd 2c 12 54 3d 77 f8 0a bd 70 49 b0 3d
       -0.09561133 0.051775143 -0.03392836 0.08607757
000160 a8 d7 32 bc f0 c2 e5 bd b1 08 96 bd d6 a1 c8 3c
       -0.010915674 -0.11218822 -0.073258765 0.024491232
000170 46 3e e4 bd 45 32 07 3c 40 14 dc 3d 51 32 bf bc
       -0.1114469 0.008251731 0.1074605 -0.023339422
000180 26 02 00 be ff c3 ba bd 2a 57 c7 bd ed d8 2f 3d
       -0.1250082 -0.091194145 -0.09733422 0.042931486
000190 82 a6 df 3d 0f 80 60 bd e3 df 2a 3d 64 85 bf bd
       0.10920431 -0.054809626 0.04171742 -0.09351614
0001a0 88 17 07 3c 6b fc c1 bd 42 28 bd bd 48 39 f9 3c
       0.008245356 -0.09471973 -0.09236194 0.030422822
0001b0 fc 2f 35 3d 55 6b af 3d 0c 23 3e 3d 90 df 37 3d
       0.044235215 0.08565394 0.046420142 0.04489094
0001c0 ed f9 b5 bd a4 5c a0 3d 02 5d 0f bd a0 e9 02 be
       -0.0888556 0.0783017 -0.03500081 -0.12784433
0001d0 b5 0a e3 bd bc 61 c3 3c ed 7e ea bd 29 11 02 bd
       -0.110860266 0.023850314 -0.114499904 -0.031754646
0001e0 48 ab 96 3d 50 5d 92 3c e4 f6 b3 3d c7 48 e5 3d
       0.07356888 0.01786676 0.08787325 0.11195522
0001f0 f8 02 93 bd 85 2c fe 3d ae 22 88 3d 46 5c 97 3d
       -0.071783006 0.12410835 0.066472396 0.07390647
000200 05 b4 e2 3d cf 88 d7 bd c2 83 81 3c f2 b3 16 bd
       0.11069492 -0.10524141 0.015809897 -0.036792703
000210 bd c1 6b bd 3f b7 ee bd 73 a3 4e 3d 20 70 ba bd
       -0.05755781 -0.11656045 0.050448846 -0.091034174
000220 59 6e f3 bd a1 52 22 bd 65 17 b0 3d e1 24 06 3e
       -0.118862815 -0.039629582 0.08598212 0.13100006
000230 83 0f 08 3d c1 56 d6 3d 14 ac 68 bd 72 1e 8d bc
       0.033217918 0.10465766 -0.05680473 -0.017226432
000240 89 0d 78 bc 94 4a 2b 3d 1a 12 e1 bc eb 70 01 be
       -0.015139946 0.04181917 -0.027474452 -0.12640731
000250 a9 4b 38 bc 30 3d 9b bd 7b 57 7f bd ea 44 94 bd
       -0.011248508 -0.0758003 -0.062339287 -0.07239707
000260 61 32 e1 3c 0c 4d ab 3d 17 6e 70 bc 68 e3 fc bd
       0.027489843 0.08364305 -0.014674685 -0.12348062
000270 fe af 8b 3d 38 5d b4 bd 7a af 5b bc b0 96 35 bd
       0.06820677 -0.088068426 -0.013408536 -0.04433316
000280 2f 82 b5 bd 27 71 95 3d e7 e4 9f bc 83 bd 38 3d
       -0.08862721 0.07296973 -0.019518329 0.045102607
000290 a2 8c 64 3d 0d cc 29 bd fe 20 41 3d 9a f4 ed bd
       0.05579818 -0.041454364 0.047150604 -0.1161892
0002a0 d8 4a 47 3c 78 30 fd 3d 98 e2 23 bd 8d 97 cd bd
       0.01216384 0.1236276 -0.04001102 -0.10038672
0002b0 5c a4 b1 3d 70 2d 4e 3d 35 91 98 bd 04 3c e6 bc
       0.08673927 0.0503363 -0.07449571 -0.02810479
0002c0 81 e9 95 3d cc a8 12 3d 88 0f 72 bd 83 bb 7d 3d
       0.07319928 0.03580551 -0.059096843 0.061946403
0002d0 92 f8 fc bd df d4 89 bd 5e 5f 1d 3d 31 19 95 3d
       -0.123520985 -0.06730055 0.038421027 0.072801955
0002e0 51 71 03 3c 6c 5b 89 3d b2 03 d0 39 aa 29 41 3d
       0.008022622 0.067068905 0.00039675605 0.047158875
0002f0 26 7e 95 bc 69 9d cc 3d b4 03 22 bc 47 62 ca bc
       -0.018248629 0.09990961 -0.009888578 -0.024705065
000300 87 b6 aa bd f3 7d 88 bd 27 93 8c bd 55 a2 05 3e
       -0.083355956 -0.06664648 -0.068640046 0.13050206
000310 70 78 f6 3b cc f7 a2 bd 23 d5 c3 bd 4e 29 13 3d
       0.0075216815 -0.0795742 -0.09562137 0.035928063
000320 cd 9f 82 bd fb 1f e0 3d d8 31 a5 3d 03 93 c5 bd
       -0.06378136 0.109436 0.080661476 -0.09647181
000330 18 3d 92 bd 02 16 e2 3b 66 e5 d0 bd 74 9e 9b 3d
       -0.07140559 0.006899596 -0.10200004 0.07598582
000340 5e fa 41 3c b6 6e 23 bd e1 24 8f bd a5 38 8d 3d
       0.011839477 -0.039900504 -0.06989456 0.0689557
000350 60 6a 9c 3b 85 81 bb bd 88 12 a9 3d 7d 7d f1 3d
       0.004773423 -0.09155563 0.08255488 0.11791513
000360 a4 c8 ba bd a1 2e 6e 3d 94 62 04 be 70 8b 9c bb
       -0.091203004 0.058149938 -0.1292823 -0.0047773644
000370 6f 77 89 3d 8e 5d 08 bb e7 72 78 bc 4b 35 9b bd
       0.06712233 -0.0020807716 -0.015164114 -0.07578524
000380 18 d3 35 3d dd b0 fc 3c 6f e3 c3 3d 5f 71 91 3d
       0.044390768 0.030846054 0.09564864 0.07101702
000390 3a 13 8b 3c bf 8e c1 3d dc 98 bd bd 9e 54 95 bd
       0.016976941 0.09451055 -0.09257671 -0.0729153
0003a0 df 97 b3 3d 1e c3 30 3c 81 f5 e1 3b 80 2c e8 bb
       0.087692015 0.010788707 0.0068957214 -0.007085383
0003b0 62 0e cd 3d 71 bc a8 bd f6 98 4b bc e5 ad eb 3c
       0.10012509 -0.08239067 -0.012426605 0.028769443
0003c0 2d 7b a5 3d 3f 4c b0 3d a7 28 3d 3d da 0c 1b bd
       0.080801345 0.08608293 0.046181347 -0.037854053
0003d0 8c 5d 1e 3c 5b 6e 8d bc a8 e0 8f bd ea 08 56 bd
       0.009665858 -0.017264536 -0.07025272 -0.052254595
0003e0 22 36 6a bd bc e7 54 3d f5 72 e5 3d 33 d6 27 bd
       -0.05718053 0.05197881 0.11203567 -0.04097576
0003f0 0a ec b6 bc e6 67 f3 bd a9 aa c2 bd 46 d4 b0 bd
       -0.02232935 -0.118850514 -0.09505207 -0.08634238

lstm.weight_hh_l0 f4 [256, 64]
000000 78 1f d2 bc b5 93 33 3d 8e 2f cc bd f0 d3 c2 bd
       -0.025649771 0.043842036 -0.09970008 -0.0951308
000010 2f c3 8c 3d e2 4a ff bb d1 95 ab bd 1f 36 82 3d
       0.06873166 -0.007790909 -0.083781846 0.06357979
000020 df da c6 3d 9c 2a ba bd 88 dd 85 bd 9e d3 1b 3d
       0.09709715 -0.09090158 -0.06536394 0.03804361
000030 61 09 b3 3c 34 5d b9 bd 50 da f5 bc 63 35 1a bd
       0.021855058 -0.0905098 -0.030011326 -0.03764857
000040 f0 78 fc bc 7b 39 d7 bc 97 ac 6b 3d 21 c9 6a 3d
       -0.030819386 -0.026272526 0.05753764 0.057320718
000050 3e fc d2 bd ef 85 ae 3d 01 03 05 bc d5 0e 47 3d
       -0.10302018 0.085216396 -0.008118392 0.04859813
000060 39 be 80 3d fb 51 0f 3d f2 d3 a1 bd 2b b5 b8 3d
       0.06286282 0.034990292 -0.079017535 0.0901893
000070 ac 90 ca bc 3c 59 d6 bd 2d 00 fc 3d 4d cc a3 3c
       -0.024727188 -0.10466239 0.12304721 0.01999488
000080 67 dd ca bd 3f 09 0d 3d a4 2d 65 bd 08 49 ed 3d
       -0.099055104 0.034432646 -0.05595173 0.11586195
000090 55 94 9c 3d f9 26 bc bd 8c 69 8f 3d f0 ad dd 3d
       0.076454796 -0.09187121 0.07002553 0.108241916
0000a0 98 46 91 3d 73 8b 3f bd 7b b5 9b 3c c0 32 b6 3c
       0.07093543 -0.04676385 0.019007435 0.022240996
0000b0 6a 3f a8 3d 08 e3 3e 3d e0 09 ec bb 87 0e 33 bd
       0.0821522 0.046603233 -0.0072033256 -0.043715026
0000c0 eb 91 8e bc 61 f6 01 3e 44 98 7e bd 6f d2 53 3d
       -0.017403563 0.12691642 -0.06215693 0.051714357
0000d0 61 35 66 bd 84 c3 9b 3d 92 ba ad bd 8a 35 f2 3d
       -0.05620325 0.07605651 -0.08482851 0.11826618
0000e0 80 41 a8 3b 39 82 97 3d 39 12 c3 bd aa dd 84 3d
       0.0051347613 0.07397885 -0.0952496 0.064875916
0000f0 81 4d 33 3c 44 2b 9d 3d 38 66 c6 3b e4 6f b5 bc
       0.010943771 0.07674268 0.006054666 -0.02214808
000100 f3 d8 e4 3d 6a 81 ae 3d 17 6b ee bd 63 c2 38 3d
       0.11174192 0.085207775 -0.116415195 0.045107257
000110 9a 77 cb 3d c5 71 a7 3d d9 b7 cb bd 79 6f 77 bd
       0.099349216 0.08175997 -0.099471755 -0.060409043
000120 5f 7e 90 bd 08 35 d5 bd 0f 24 2a 3d 3e 51 aa bd
       -0.070553534 -0.104105055 0.041538294 -0.08316277
000130 43 e3 d8 3d 8c 76 98 bd 04 1f e6 bd 80 75 ac bd
       0.10590222 -0.07444486 -0.112363845 -0.08420849
000140 f8 58 b0 bd 87 b7 5f 3d a0 8b 91 bd 0a 98 d2 bd
       -0.086107194 0.054618385 -0.071067095 -0.102829054
000150 d2 41 97 3c 59 bf 85 bd 0e 98 e8 3b 14 1a ba 3d
       0.018464003 -0.06530637 0.0070982045 0.09087005
000160 0b c0 87 3d 01 0b aa bc 77 5f ae 3b a1 54 ec bc
       0.06628426 -0.0207572 0.005321439 -0.028848948
000170 82 ac eb 3c 6d c2 ff 3d be 32 e4 bc 1c 03 5c bd
       0.028768782 0.12488256 -0.027856227 -0.053713903
000180 46 74 af bd 6c bc a1 bd 31 35 39 3d 52 55 af bd
       -0.08567099 -0.07897267 0.045216743 -0.085611954
000190 4f 8d 40 3d 31 69 dd 3d 12 ee dd bd 9c 8a 1a 3d
       0.047009762 0.10811079 -0.10836424 0.037729844
0001a0 ce 13 d2 3c 35 d0 9e 3c 24 b5 7a 3d c0 09 6e 3d
       0.02564421 0.01938639 0.061207905 0.058114767
0001b0 d0 d4 c9 3d cc 0f 85 bd a8 21 81 3d 4e 5f 48 bc
       0.09855044 -0.06497154 0.063052475 -0.012229754
0001c0 f8 b4 1e bc 2c a2 aa bc 3c 2b ef 3d 03 69 be 3c
       -0.009686701 -0.020829283 0.11678168 0.023243433
0001d0 0f 1f fc 3c 93 f3 e5 bd 48 6b a5 3d cb 59 8a 3d
       0.030776529 -0.11228099 0.08077103 0.06755408
0001e0 02 c4 86 bd 36 65 0c bd 92 ea 10 bc b6 d4 b3 bc
       -0.06580354 -0.03427621 -0.008844988 -0.021952014
0001f0 a4 5d ef bd 58 89 8a bd 83 fd 9e bd 2a 05 03 bd
       -0.116877824 -0.067644775 -0.07763197 -0.031987347
000200 5d 53 c6 3c 13 32 e5 3d 54 fd ec 3d dc 90 05 3c
       0.024209673 0.111911915 0.11571756 0.008152213
000210 7c f4 ac 3b 22 a9 63 3d 90 75 af bd da 88 01 3e
       0.0052781682 0.05558122 -0.08567345 0.12649861
000220 cc 13 e3 3c 3e c1 1f bd ea ac 6b bd df 0d f4 3c
       0.0277194 -0.03900265 -0.05753795 0.02979177
000230 db be 56 bd da 3d 83 3d 64 3e ee bd de 26 47 3b
       -0.052428108 0.064082816 -0.11632994 0.0030388157
000240 3e fe e4 bd f5 98 2e bd eb b7 de bd 84 46 3a bc
       -0.11181305 -0.04262634 -0.10874923 -0.011369351
000250 e3 f0 5d bd 4c 27 38 3d c0 51 bc 3d 66 f2 40 3d
       -0.054184806 0.04495935 0.0919528 0.04710617
000260 6c 24 c5 3d 83 12 b9 3c a7 7b 32 bd 79 93 29 bb
       0.096260875 0.022591835 -0.043574955 -0.0025875254
000270 d8 85 a4 bd fc 36 33 bd b4 89 74 3d 12 0f 65 3d
       -0.08033341 -0.04375361 0.059701636 0.055922575
000280 20 30 32 bc f1 c6 de bd 2e b0 3c 3d 2f 61 81 bd
       -0.010875732 -0.10877789 0.046066456 -0.063173644
000290 d0 70 eb ba 2a 68 48 3d 2f d8 e1 bd 06 a4 6a bb
       -0.0017962698 0.048927464 -0.11027562 -0.0035803332
0002a0 34 42 14 3d c7 b1 ee bd 0e 8f b1 3d b9 a3 b7 bd
       0.03619595 -0.11655002 0.08669864 -0.089667745
0002b0 52 de a2 3c 8a ae c2 3d 72 d3 c2 bb d3 9a cf bb
       0.019881401 0.09505947 -0.0059456164 -0.006335595
0002c0 6f ec 27 3d b3 c2 65 bd c1 6a d7 3d f6 4b af 3d
       0.040996965 -0.056093883 0.105184086 0.0855941
0002d0 76 dd fc bc 2c 0f de 3c df 3c 1f 3d 8e c8 0b bc
       -0.03086732 0.027106844 0.03887641 -0.008531703
0002e0 03 c0 22 bd 1d 46 f2 bd 8d c4 f0 bc 00 e2 eb 3d
       -0.039733898 -0.11829779 -0.029390598 0.115177155
0002f0 55 a0 bc 3d cb 4c f2 bd c2 e0 bc 3d a3 0a bf 3d
       0.092102684 -0.11831053 0.09222557 0.09328201
000300 05 e9 1f bd 16 9f e6 bd 3f db a2 3d 4d 9a 7e 3d
       -0.039040584 -0.11260812 0.07951974 0.06215887
000310 fa a4 5f bd 84 46 c6 bd f4 ec 83 3d c3 94 8d bd
       -0.054600693 -0.096814185 0.064416796 -0.0691314
000320 38 d5 2e 3d 77 1b 98 3d 75 ca a0 bd c4 02 24 bd
       0.04268381 0.074271135 -0.078511156 -0.0400417
000330 5f 77 80 3d b1 8d 2e 3c b9 40 a5 3d 50 1e 01 3e
       0.06272768 0.010653899 0.080689855 0.1260922
000340 df 9b ef 3c 63 f7 a5 3c 8c 51 a8 39 79 e3 b3 3d
       0.02924913 0.020259565 0.00032104214 0.08783621
000350 ca a3 b0 bd b7 dc 21 bd df fa 5e bd 01 4a 4c bc
       -0.0862499 -0.03951713 -0.054438468 -0.012468816
000360 bb 3d 66 3d 55 af 36 bd 4d 78 8e 3c 79 d2 e7 bd
       0.056211215 -0.044600803 0.017391348 -0.11319441
000370 0c 2b 99 3d 30 ef 9d bd 20 ec 74 bd ea 31 97 bc
       0.07478914 -0.07711637 -0.0597955 -0.018456418
000380 aa 85 90 3d 55 29 e9 3d 90 4f 63 bd 24 59 e2 bd
       0.070567444 0.113848366 -0.0554958 -0.110521585
000390 1e 96 3f 3d 95 37 d3 3d 2f 9b 95 3d 3a f0 8a bd
       0.046774022 0.10313336 0.073049895 -0.06784101
0003a0 68 fe f3 bd 30 0b 46 bd e0 80 9b 3d 58 40 6e bd
       -0.119137585 -0.048350513 0.0759294 -0.05816683
0003b0 e3 ba db bd a1 7a d0 bc 5f 02 fb bd 24 49 b1 bd
       -0.10729005 -0.025449099 -0.122563116 -0.086565286
0003c0 02 bf 9c bd d3 7e d3 3d 92 2a ee bc e1 e3 d8 3d
       -0.07653619 0.10326924 -0.029073033 0.105903395
0003d0 ea 96 de 3d 43 ee 86 bd fb 6a ee 3d da 52 3e 3d
       0.10868628 -0.065884136 0.11641499 0.046465732
0003e0 8d f1 d8 bd 67 0e 66 3d 13 b1 9a 3c 00 b3 6a bd
       -0.10592947 0.05616608 0.018883264 -0.057299614
0003f0 95 97 e0 bc f7 b2 75 3d 69 7e eb 3c 19 9b df 3c
       -0.02741603 0.059985127 0.0287468 0.027295636

lstm.bias_ih_l0 f4 [256]
000000 28 76 b3 3b 11 80 58 bd ce 6c a0 3d 97 55 7e bd
       0.005476732 -0.05285651 0.07833253 -0.062093344
000010 3c c3 0d 3d fb 43 6e bd 16 3f 5c bd 59 93 ca 3d
       0.034610018 -0.0581703 -0.0537711 0.098913856
000020 34 c5 04 3c 0a 34 51 bd dd 39 5a 3d 82 18 3d bc
       0.0081036575 -0.05107502 0.05327784 -0.011541488
000030 d8 9a da 3c 9f 1d 17 bd 56 94 01 3d eb c4 d3 bc
       0.026685163 -0.036893483 0.031635605 -0.025850734
000040 57 e2 85 bc 0c 8f ff bd 39 01 a2 3d fb 8b ee bd
       -0.016343279 -0.12478456 0.079103895 -0.11647793
000050 10 c9 27 3d 77 15 f1 bd eb fd b1 3c 90 67 fb 3d
       0.040963233 -0.11771672 0.021727523 0.12275612
000060 d9 d2 a2 3c 8b 53 7d bd 10 ac 6f 3d 61 76 f3 3d
       0.01987593 -0.06184725 0.0585137 0.11887813
000070 fe 06 3c 3d 12 2e 09 3d d6 a4 92 bd 9a 87 40 bd
       0.045905106 0.0334912 -0.07160346 -0.04700432
000080 d6 b7 07 bd f0 15 ae bc b3 82 83 ba 3f 51 dc bd
       -0.033134304 -0.021250695 -0.0010033458 -0.10757684
000090 90 ec d6 bd da 03 f0 bd 8f 8b b0 3d 76 96 f9 3d
       -0.104943395 -0.117194846 0.08620369 0.12186901
0000a0 bc d1 1c 3d bb 92 61 3d 86 f0 de bd eb 18 aa bd
       0.038285956 0.055071574 -0.1088572 -0.08305534
0000b0 e6 64 2d 3b ca e9 86 3d 9a b3 06 3d 1e d1 96 bd
       0.0026457845 0.065875605 0.032886125 -0.07364105
0000c0 da 08 e6 3b 16 55 88 bc 61 0f b1 3c 55 b5 52 bc
       0.007020098 -0.016642135 0.021613779 -0.012860616
0000d0 09 c1 0a 3c a3 ce 72 bd ce 6f 14 3d 5d bc be bd
       0.008468875 -0.059279095 0.036239438 -0.09313271
0000e0 86 b6 65 bd ab e6 e3 bb 9d c4 e5 3c 8e f7 db 3c
       -0.05608227 -0.006954988 0.028047854 0.026851442
0000f0 05 d8 53 3d f7 a1 91 bd df 3a bd bc 65 e9 dd bd
       0.051719684 -0.071109705 -0.023099361 -0.10835532
000100 37 bf a8 bd de cc 6e 3d be 4a 02 3e fe 54 89 bd
       -0.08239596 0.058300845 0.12723824 -0.06705664
000110 9b e1 72 bd ae 5b c4 3d 21 4d e6 3d 26 63 df 3d
       -0.059297185 0.09587799 0.1124518 0.10907583
000120 00 6e cb 3d 14 77 e1 3d f1 e8 eb 3c b8 a0 74 3d
       0.0993309 0.110090405 0.028797599 0.059723586
000130 74 6c b0 3c 82 60 43 3c da fd 7a bd 6d 77 16 bd
       0.02153609 0.011924865 -0.061277248 -0.036734987
000140 14 7c 2e bd 8c b6 cc bc 0f f6 e3 3d cf ad bc bd
       -0.0425988 -0.024989389 0.11130916 -0.09212839
000150 6f 29 bc 3d e3 dc f4 bc 38 95 aa 3c 43 da 66 3d
       0.0918759 -0.029890483 0.020823106 0.056360494
000160 7b bb bf 3c 62 6e a1 bd 5b 1d c6 ba 42 23 ce 3d
       0.023404827 -0.07882382 -0.001511495 0.10065319
000170 0f b2 62 3d 15 2c f3 bd 11 9b 59 3d 12 03 4f 3c
       0.05534559 -0.11873642 0.0531264 0.012635009
000180 88 3e 76 3b 86 4c 9a 3d cf 99 a4 3d da 38 db bd
       0.0037573893 0.07534127 0.08037149 -0.10704203
000190 6c b5 19 bc 9e 7b db bd 56 c9 57 ba b8 87 87 bd
       -0.009381633 -0.107169375 -0.00082316005 -0.06617683
0001a0 71 1c 60 3d d5 7e 21 3d 0e 63 83 bd 8c 36 c1 3d
       0.054714624 0.039427597 -0.064153776 0.09434232
0001b0 de 55 a9 bc 60 49 8d 3b 58 4c a2 3d 68 3b b1 3b
       -0.020670827 0.0043117255 0.07924718 0.005408693
0001c0 bb 5d 1d 3d e3 66 a6 3c 21 8e 3f 3d 46 e3 c0 3d
       0.038419466 0.020312732 0.046766404 0.09418349
0001d0 c5 3b 6c 3d cd d8 e7 bc 3e c0 74 3d 28 d3 8e bd
       0.05767419 -0.02830162 0.05975365 -0.069738686
0001e0 c6 88 d6 3d 83 37 c0 bd 04 d7 6b bd 04 0f 2d ba
       0.10475306 -0.09385588 -0.0575781 -0.0006601664
0001f0 ed fa aa bd ff 2f 71 3c 26 8c 57 3d 60 8d e7 3d
       -0.083486415 0.014720916 0.05262389 0.11306262
000200 6d 00 bb 3b 87 25 e4 3d 9a 22 9a 3c 07 14 a6 3d
       0.005706838 0.1113997 0.018815327 0.08109289
000210 78 79 35 3a ad c7 a3 3d 33 0d bb 3d ac 9f cf 3d
       0.00069227023 0.079970695 0.09133377 0.10137877
000220 12 23 5b 3c 08 c7 b1 3d 8c 72 2b 3c e8 3e ef 3c
       0.013375061 0.0868054 0.010464322 0.0292048
000230 aa df bb 3d 94 6a de bd b4 22 9a bd 85 c6 ff bd
       0.0917352 -0.10860172 -0.0752615 -0.124890365
000240 a6 da 3d bc 7a fb 00 be d0 26 b9 bd 12 cd d5 3d
       -0.011587774 -0.1259593 -0.09040606 0.10439505
000250 94 3c 1f bd f1 13 17 3d 39 3b 9e bc ad 3e 8b 3c
       -0.03887613 0.036884252 -0.019315349 0.01699766
000260 fb 12 a8 3d f8 4e ea bd 4b 00 ca bb b7 ed 90 3d
       0.08206745 -0.11440843 -0.0061645857 0.070765905
000270 66 c5 00 bc 1b 7c 7e bb 63 28 a1 3d 51 21 69 3d
       -0.007859563 -0.0038831297 0.07869031 0.05691654
000280 b6 5d 77 3c c2 3d c8 bd 97 6c fa bd b4 40 e0 bd
       0.015098026 -0.09777404 -0.12227743 -0.10949841
000290 61 a0 4c 3d 7c d7 c0 3d de b6 c3 bd fb 46 49 3c
       0.049957637 0.094161004 -0.095563635 0.0122849895
0002a0 ca 49 ed bd e4 ce 2c 3c e6 66 e0 3d 0a 36 03 be
       -0.1158634 0.010547373 0.10957126 -0.12813583
0002b0 1c 8b e2 bd 9c 50 ad 3d 58 9c 56 bd 67 d3 0e 3d
       -0.11061689 0.08462641 -0.052395195 0.034869578
0002c0 a8 4b cc bd 41 f7 50 3b a7 e6 d8 3d 7a 39 04 bb
       -0.09975368 0.0031885656 0.105908684 -0.002017586
0002d0 93 98 b0 3b d7 0c a3 3d e5 a9 a4 bd ee e1 ca bd
       0.005389282 0.079614334 -0.08040217 -0.09906374
0002e0 3b c1 b6 bd 74 ee cd bd 33 d5 d4 3d 94 6a 83 bc
       -0.089235745 -0.10055247 0.10392227 -0.016042031
0002f0 f0 86 8d bd 62 54 62 3d f0 75 c7 bd 28 9a cb 3d
       -0.06910503 0.055256255 -0.09739292 0.09941512
000300 c8 aa c7 bd d0 85 ba bd 44 83 a7 bd af 2c d8 3d
       -0.09749371 -0.09107554 -0.08179334 0.10555398
000310 ab d9 61 3d f7 06 1c bd 2f f5 9e bc 15 cf 56 3d
       0.055139225 -0.03809258 -0.019404022 0.052443583
000320 98 c2 c9 bc 04 e8 6b 3d 32 b2 db bb 2c 56 af bc
       -0.024628922 0.057594314 -0.006704592 -0.021403395
000330 37 c7 63 3d d5 0b 52 3d 14 bd 92 bc db 41 ca bd
       0.055609908 0.051280815 -0.017912425 -0.09875842
000340 ce 56 af bc 83 b4 c6 3d 66 d7 8e bd f4 83 93 3d
       -0.021403696 0.09702399 -0.06974678 0.072029024
000350 93 aa 39 bd 23 88 c7 bd 83 7d 86 3d ac ff ec 3d
       -0.045328688 -0.09742763 0.06566908 0.11572203
000360 92 5e 34 3d 13 96 cb 3d f9 ee e5 bd 04 be 9d 3d
       0.0440355 0.09940734 -0.11227221 0.07702258
000370 1e 49 f8 bd 81 56 e2 3d 90 98 8e bc 47 53 65 3d
       -0.12123321 0.110516556 -0.017406732 0.055987623
000380 51 6d 6e bd 5c 72 e1 3d 9c a8 9a bd a6 eb 40 3d
       -0.05820972 0.110081404 -0.07551691 0.04709973
000390 5e c4 06 3d 68 66 5f 3c 00 ce 39 bb ee da f4 3d
       0.032902114 0.013635255 -0.0028351545 0.1195582
0003a0 67 87 da 3d 7b 62 28 bd b2 15 cb bd 67 08 57 bd
       0.10670357 -0.041109543 -0.099162474 -0.052498247
0003b0 6c 74 f7 bc ae 10 a8 bd 8f 2e dc 3d d4 48 95 3d
       -0.030206881 -0.082063064 0.10751068 0.072892815
0003c0 cc 3f 75 bd a2 73 67 bd 1b 4c f4 bc c3 0b 35 bd
       -0.059875295 -0.05650676 -0.029821446 -0.04420067
0003d0 8a 13 21 bd 63 f3 06 bd 13 f2 bc 3d 6e fe a7 3d
       -0.039325275 -0.032946955 0.092258595 0.082028255
0003e0 cc be ce 3c e4 d0 bb 3d be e7 7e 3d b3 af dd bd
       0.025237463 0.09170702 0.062232725 -0.108245276
0003f0 bc e5 f0 3d f3 84 8f bd 71 00 d2 bd 60 e4 bf 3d
       0.11762568 -0.0700778 -0.102539904 0.09369731

lstm.bias_hh_l0 f4 [256]
000000 fd 12 d8 3d 91 70 cf bd 66 e1 d1 3c ec ad 5f 3c
       0.10550497 -0.10128892 0.025620174 0.013652306
000010 3c 16 96 bd 65 5f ef bd 79 52 e4 3d 1d ce f0 3d
       -0.073284596 -0.11688117 0.11148543 0.11758063
000020 aa 7b 54 bd e2 d1 fc 3d e1 72 f0 bd 80 af d3 3d
       -0.051875748 0.123447195 -0.117406614 0.10336208
000030 63 02 77 bd 43 47 c1 bd 26 09 2d 3d 36 34 02 3d
       -0.06030501 -0.0943742 0.042245053 0.031788073
000040 a4 65 f7 3b 24 4d 88 bd fd 02 a9 3a 8a 6a 04 be
       0.0075499583 -0.066553384 0.0012894567 -0.12931266
000050 e4 28 93 3d 75 56 df bb 3d 7e dd 3d 28 54 93 3d
       0.07185534 -0.0068157264 0.10815094 0.07193786
000060 b9 cf b4 3c 94 cf 85 bd 36 d8 70 bb 6d 9f fd 3d
       0.022071706 -0.06533733 -0.0036749966 0.12383924
000070 2f f2 a4 3d ec 2b e5 bc dd b6 82 ba 0c ec a5 bd
       0.08054005 -0.027975045 -0.000997271 -0.08101663
000080 7a 3a 39 3d 00 64 e9 3b b8 77 d6 bd 9f 03 06 3d
       0.045221783 0.0071225166 -0.10472053 0.032718297
000090 e3 0c 8e bc da 97 02 3d 5b 98 ec 3d 3b ec f5 3c
       -0.01734013 0.0318831 0.11552497 0.03001987
0000a0 6d b2 a9 bd 61 d5 75 3d 3c e4 fd bd d5 96 b7 3d
       -0.08285985 0.060017947 -0.12397048 0.08964316
0000b0 bd ac a0 3c 24 c5 71 3d aa 8e 8b bd ac 4a 92 bc
       0.019613618 0.0590259 -0.068143204 -0.017857872
0000c0 7e 7d 43 3d bd 16 00 be cc ae 9b 3d b3 4f ce 3d
       0.0477271 -0.12508674 0.07601699 0.10073795
0000d0 46 35 de 3c f3 f5 bc 3d 32 2a 60 3d 4c ef 28 bd
       0.027125012 0.092265986 0.05472774 -0.041243836
0000e0 57 ea 9f bc 40 48 dd 3d 89 c1 17 3c b0 8e ce bd
       -0.019520922 0.10804796 0.009262451 -0.10085809
0000f0 fb 90 b4 3c cd 94 b8 ba b1 3b a9 3c f0 29 4b bd
       0.022041788 -0.0014082432 0.020658346 -0.04960054
000100 c3 8d 33 bd c8 cd c6 bc f3 56 f3 bd 9c 38 f1 3d
       -0.043836366 -0.024268046 -0.118818186 0.117783755
000110 15 cc b5 bd 16 f0 8e 3d 60 35 0e bc d8 ac 9c 3b
       -0.08876816 0.069793865 -0.008679718 0.004781347
000120 10 65 e1 3d a0 30 e9 3d d7 89 55 3d 4c 14 65 3d
       0.11005604 0.113862276 0.052133407 0.05592756
000130 03 97 01 3e 9d 89 c2 bd 63 91 ce 3d 2a 5b ce bd
       0.12655263 -0.09498904 0.10086324 -0.10075982
000140 eb 4b ca ba 8d dc ce 3d d4 b6 57 ba 19 b6 9f 3c
       -0.0015434002 0.101006605 -0.00082288426 0.01949601
000150 67 50 82 3d b4 e4 dc 3d b1 61 aa 3d e1 48 c3 3d
       0.06362992 0.10785809 0.083194144 0.09535385
000160 f2 aa 2f 3d 5e 89 d1 3d 76 04 f9 bc 26 1a e7 3d
       0.042887636 0.10231279 -0.030397635 0.11284284
000170 ed 92 2a bd 45 a7 d2 bd 27 68 09 bd ff 3b e9 bd
       -0.041644026 -0.102858104 -0.033546593 -0.113883965
000180 75 7b c8 3d ab 7f 47 bd 0a b8 6f 3d 5d fc 98 3c
       0.097891726 -0.048705738 0.058525123 0.018675024
000190 00 9a e7 bd 73 8d 1f bd fe ca d5 bd 58 96 93 3d
       -0.1130867 -0.038953256 -0.10439108 0.0720641
0001a0 a2 8e b5 bb 80 f5 cd 3d 5c 42 be bb 52 99 b5 bd
       -0.005540685 0.10056591 -0.0058062505 -0.08867134
0001b0 54 03 1d 3c 14 25 d4 3d f0 de 26 bd fc 1f 06 3e
       0.009583313 0.103586346 -0.040739954 0.13098139
0001c0 d6 5c 89 3c ec 66 6e bd 40 35 02 3e 70 99 81 bd
       0.0167679 -0.058203623 0.12715626 -0.06328094
0001d0 a4 87 0a 3d 76 af 01 3d a1 c8 c2 3d 48 3a 83 bd
       0.033820763 0.031661473 0.09510923 -0.06407601
0001e0 47 c2 22 3c 6d 2c de bc e9 78 92 bd 07 4c 3b bd
       0.009934015 -0.027120793 -0.07151968 -0.045726802
0001f0 d1 d2 de 3d a7 2d 63 3d 6e c9 c9 3d dc 4b 78 3d
       0.10880054 0.05546346 0.09852873 0.06061922
000200 86 5d ae bc 38 12 2e bc 23 dd 17 bd df 51 45 bd
       -0.02128483 -0.010624461 -0.037076127 -0.04817378
000210 a8 88 45 bc bf a2 84 3d 50 d3 ed b9 41 4b 40 3d
       -0.012056507 0.06476354 -0.00045361603 0.046946768
000220 ef cc c8 bd 60 55 e3 3d 4b 45 01 3e 70 34 9a bc
       -0.09804713 0.11100268 0.1262409 -0.018823832
000230 5b 59 08 bd 1b f5 08 bd 76 63 5f 3d 55 40 e9 3d
       -0.03328834 -0.033436876 0.054538213 0.113892235
000240 24 e1 ac bd 1e e2 ef 3d 64 a3 d1 3c 9c 22 f3 bd
       -0.0844138 0.1171305 0.025590606 -0.118718356
000250 dc 89 21 bc bd bf 73 3d a1 49 e5 bc 78 cc d1 3d
       -0.009859528 0.059509028 -0.02798921 0.102440774
000260 be 9a 0b 3c 1c ce 96 3d a5 5a 82 bd 85 21 ef 3d
       0.00852078 0.07363531 -0.06364945 0.11676315
000270 bd e9 de 3d 02 2e 98 3d 54 5c c6 bc 51 d3 3c 3d
       0.10884426 0.0743065 -0.024213947 0.046099965
000280 b6 3e 35 3d 27 53 16 bc de f9 5a bc a8 46 cb 3d
       0.04424926 -0.0091750985 -0.013365237 0.09925586
000290 58 dc d5 3d 44 3e f3 3d 03 a2 3f 3d 26 15 b9 bd
       0.10442418 0.118771106 0.046785366 -0.09037237
0002a0 94 ee ac 3c 84 ce fa bd d2 d0 f3 3d 91 98 ff bd
       0.021109857 -0.12246421 0.11905064 -0.124802716
0002b0 62 63 c1 bd 62 c4 b2 3d ba 55 d2 bc 47 1f 3a 3d
       -0.09442784 0.08728863 -0.025675643 0.045439985
0002c0 22 ad dd 3d d0 a4 6d bd 18 b3 6e bd 64 dc 57 bd
       0.10824038 -0.058018506 -0.058276266 -0.052700415
0002d0 24 1f fc bc e5 e2 5f bd e3 c5 ba bd 5e 2f 83 3d
       -0.030776568 -0.054659743 -0.09119775 0.06405519
0002e0 a1 e6 02 be 3a 31 e3 bd 4e 25 09 3d 1f c6 f1 3d
       -0.1278329 -0.110933736 0.033482842 0.11805367
0002f0 1e 21 90 bd 4a 3b 9e 3d b6 b3 c3 bd f2 81 94 bd
       -0.070375666 0.07726152 -0.095557615 -0.072513476
000300 ca 36 48 bd db d1 75 3d 10 50 aa 3d 14 1e f7 3c
       -0.048880376 0.060014587 0.08316052 0.03016571
000310 c4 4c 98 3d 99 2a 83 bd 84 fc 05 bd 87 ce a9 bd
       0.07436517 -0.06404609 -0.03271152 -0.08291345
000320 60 66 19 3d 0c a6 a2 bd a9 ee 89 bd 94 54 8c bc
       0.037451148 -0.07941827 -0.06734974 -0.017130174
000330 fd 50 d8 bd e6 af d6 bc 1f 65 bd bd 77 70 26 bc
       -0.10562322 -0.026206922 -0.09247803 -0.01015865
000340 61 6f f2 3d 49 40 8e 3d e8 12 91 bd d6 cc f2 3d
       0.1183765 0.06945855 -0.07083684 0.118554756
000350 64 50 ad 3d eb 5f ad 3d df ee e8 bd ec 46 96 3c
       0.08462599 0.084655605 -0.11373686 0.018344365
000360 cb 8b 8a 3d 14 6c 01 bc 18 5f 42 bd f0 a2 d1 bd
       0.06764945 -0.007899303 -0.04745397 -0.10236156
000370 0c 75 9c bd 2b a0 c4 3d 87 02 e4 bc 0d c4 09 bd
       -0.076395124 0.09600862 -0.027833236 -0.033634234
000380 a0 66 01 3e 35 b3 74 bd 28 bc e3 3d a2 75 41 bd
       0.12636805 -0.059741218 0.11119872 -0.047231324
000390 ce 23 03 3d f8 c7 d2 3d d7 31 be bc e0 36 56 3c
       0.032016568 0.10292047 -0.023217125 0.013074607
0003a0 d3 fb 7a bd 1b 97 d3 3d 7e 0c 8e 3d ed 13 5f 3d
       -0.061275315 0.103315555 0.069359764 0.054462362
0003b0 48 9d b2 bd f1 0d 95 bc e5 6d c2 bd b4 5f e4 bd
       -0.08721405 -0.018195124 -0.09493617 -0.111510664
0003c0 81 6c ff 3b 04 cd d4 bd 5d 06 5f 3c a0 f7 d3 bd
       0.007794917 -0.10390666 0.013612357 -0.10349965
0003d0 64 5e 87 bd 87 71 40 bc 2d 42 3c 3d ea 32 e7 bc
       -0.066098005 -0.011745817 0.045961548 -0.02822252
0003e0 86 27 27 3d 6e 84 d0 bd c6 1f d9 3d 21 64 43 3c
       0.040809177 -0.10181509 0.106017634 0.011925728
0003f0 b8 74 aa bd c8 3f 40 bc 56 f3 01 3d c7 21 43 bd
       -0.083230436 -0.011733957 0.031726204 -0.047639634

lstm.weight_ih_l0_reverse f4 [256, 32]
000000 65 15 36 bd 4e 8a da 3d e0 0a 03 be d9 ce b0 bd
       -0.044453997 0.10670911 -0.12797117 -0.08633203
000010 b2 8f ad bc 79 f5 f1 bd dd 68 1b bd dc 2b 76 3d
       -0.021186683 -0.11814398 -0.037941802 0.06010042
000020 54 50 fc bc 2b f0 e5 3d 21 cf 94 bc c4 dc ba 3a
       -0.030800022 0.11227449 -0.018165173 0.0014256467
000030 81 34 c9 bd b2 54 70 bd 1e c9 9f 3d 59 39 76 3d
       -0.098244675 -0.05867452 0.07802032 0.060113285
000040 5e 80 0a 3c 8e 46 90 3c 0f 8d c5 3d d8 39 91 bd
       0.008453457 0.017611768 0.096460454 -0.07091111
000050 6b fb da bd 48 ad e5 bd 41 e5 07 3d 7d 79 02 3d
       -0.106924854 -0.112146914 0.033177618 0.03185414
000060 8c c4 2e 3c e0 fb f9 3d 72 40 b0 3d 17 09 8d bc
       0.010666978 0.122062445 0.08606042 -0.017216248
000070 7a 20 99 bd 04 86 85 3d 5f f2 8a 3c 16 5b 14 3d
       -0.074768975 0.06519702 0.016961275 0.03621968
000080 24 4d 6a bc 37 b0 83 3d 3d 3f e5 bd 65 e8 8e bc
       -0.014300618 0.06430095 -0.11193702 -0.017444799
000090 cf fd de bc e7 b6 a8 bd 15 0a bf 3d 7d b4 d5 bd
       -0.027220635 -0.08238011 0.09328095 -0.10434816
0000a0 82 a6 d1 3c 9f d9 b6 3b d7 31 fa bd eb dc bd 3d
       0.025592092 0.0055801417 -0.122165374 0.092706524
0000b0 75 0d e2 3c c6 ae c9 bd 23 20 fe 3d 6f ff 5c 3c
       0.027594307 -0.098477885 0.12408473 0.0134886345
0000c0 03 f4 c7 3d 83 70 a0 3d 88 ee ad bb 93 a1 07 3d
       0.097633384 0.0783396 -0.005307976 0.033113074
0000d0 6c b0 9b bd 4d 26 ec 3d 41 b0 4b bd c7 e5 4c bb
       -0.07602009 0.11530743 -0.049728636 -0.0031264888
0000e0 28 ad e5 bd 1e 1a f5 bd 75 3a 92 3c 6f b4 04 bb
       -0.112146676 -0.11967872 0.01785014 -0.0020249148
0000f0 ee 1c 27 3c a4 a7 d3 3d e0 5c 0d bd 87 81 0b 3d
       0.0101997685 0.10334709 -0.0345124 0.034059074
000100 c3 82 b1 3d bd 0b 9e 3d 36 09 46 bb d5 ba 9f bd
       0.08667519 0.07717083 -0.0030217892 -0.07799307
000110 3b 27 0e bd 5a 8e ea bd 39 be 13 bb 04 f5 de 3d
       -0.03470538 -0.11452933 -0.0022543801 0.10886577
000120 7e f5 76 3d 83 89 dd bc bf e0 e9 bd 1a 09 4b bd
       0.060292713 -0.02704311 -0.1141982 -0.049569227
000130 c5 37 6d 3d 5a f0 9f bc 67 68 cf bd 8b 1b ca bd
       0.057914514 -0.019523788 -0.10127335 -0.09868535
000140 25 2e 27 bc 1e 6e 7f 3d 3b e6 db bc 96 54 39 3c
       -0.010203873 0.062360875 -0.02684318 0.011311671
000150 8a 64 81 bd a1 8d 93 bd a8 77 f0 3c dd 62 dc bd
       -0.063180044 -0.07204748 0.029353932 -0.10761044
000160 b4 44 72 bc f0 9a 11 bd 58 bb c4 3d d3 1e e0 bd
       -0.014786888 -0.03554815 0.096060455 -0.10943379
000170 50 4f c1 3b fa ac c8 3d e3 ee 37 3d 6d 42 01 bd
       0.0058993474 0.09798618 0.044905555 -0.03155749
000180 fa 77 47 3d bc af af 3d 08 e1 6f bd 26 16 13 3c
       0.048698403 0.085784405 -0.058564216 0.008977449
000190 0e 7d a2 bd 35 dd c4 3d 48 cd a9 bd 5f 9a 35 bd
       -0.079340085 0.096125044 -0.082911074 -0.044336673
0001a0 ed 6a 1a bc 93 ca 0b bd 5d 87 82 3a 4e 69 a6 bc
       -0.009424907 -0.034128737 0.0009958554 -0.020313885
0001b0 fb 48 f3 3c 31 ed fd bd c5 ea 87 bd d2 b4 9a bc
       0.029697886 -0.12398756 -0.066365756 -0.01888505
0001c0 48 b5 02 3c 7c 14 e1 3d 58 ed f4 3d 59 35 d3 bd
       0.007977791 0.10990235 0.11959332 -0.1031291
0001d0 0a 3a 38 3d 3b 66 22 bc fc 99 1d bd 34 be a2 bd
       0.044977225 -0.009912069 -0.03847693 -0.079464346
0001e0 5d 0a d5 bd 30 1a 17 bd 63 c4 9f 3d fa 86 e0 3d
       -0.10402367 -0.03689021 0.0780113 0.10963245
0001f0 39 6b 19 bd a8 2e 00 3e 94 0f a9 3d 41 57 88 bc
       -0.03745577 0.12517798 0.082549244 -0.016643168
000200 f5 ff 5e 3d 88 b5 73 3d 50 09 34 bc b0 31 03 3e
       0.05444332 0.059499294 -0.010988548 0.12811923
000210 ae f4 4d bd 1a d6 93 3d c1 38 93 bd 3b 19 21 3d
       -0.050282173 0.07218571 -0.07188559 0.039330702
000220 ec 2e e7 3c 07 7a 14 bd ed 99 93 3c b9 89 a9 bd
       0.028220616 -0.036249187 0.018017733 -0.08278222
000230 68 de 97 3d 0f 02 04 3d da a5 14 bc 99 63 89 3d
       0.074154675 0.032228526 -0.009072745 0.0670845
000240 46 28 8d 3b 72 bf 88 bd e3 01 98 bc e9 47 97 3d
       0.0043077795 -0.0667714 -0.018555587 0.07386763
000250 92 11 e7 3d 2a a2 1e 3d f6 15 06 bd d6 2d e9 bd
       0.11282648 0.03872887 -0.032735787 -0.11385696
000260 94 2b 71 3d ff 08 96 3d 79 58 2c bd b2 56 15 3d
       0.05887945 0.073259346 -0.04207656 0.036459632
000270 f9 0d 28 bd ac 80 fc 3d f3 b1 bf 3d 74 84 cf bd
       -0.04102895 0.1232923 0.09360113 -0.10132685
000280 32 42 f6 3d 8b 31 a7 3d 97 da ef bd 16 a8 e6 3c
       0.120243445 0.081637464 -0.117116146 0.028156321
000290 0f b7 c9 3b 78 26 bf bd 66 4b e9 3d a2 b8 31 3d
       0.0061558555 -0.09333509 0.11391334 0.04338897
0002a0 d6 cc 74 3d 99 05 f5 bd 37 0c 38 3d 3a 69 bb 3d
       0.05976566 -0.11963958 0.044933524 0.0915093
0002b0 d3 99 9b bd e8 54 33 3b d3 3f f7 bd 01 6d 76 bd
       -0.07597699 0.002736384 -0.120727204 -0.060162548
0002c0 56 28 66 bd 14 73 c7 3d 51 3b 8d 3c 8f dd bf bd
       -0.05619081 0.09738746 0.017240198 -0.09368431
0002d0 8a 30 e8 ba b0 36 2f 3d a1 83 f8 3c 6c f5 6a bd
       -0.0017714661 0.042776763 0.030336203 -0.05736296
0002e0 fe 83 cc bd d9 dd 43 bd 9d 0f d5 3c 6b 03 1a 3c
       -0.09986113 -0.047818992 0.026008422 0.009400229
0002f0 58 98 89 bd 1c d5 c7 3d 58 1a b8 bd 10 e7 ad bd
       -0.067185104 0.09757444 -0.089894 -0.08491337
000300 72 7d 20 bc cf 69 84 3d 84 9d 7e bd b4 a2 9b 3c
       -0.0097955335 0.06465494 -0.062161937 0.018998481
000310 b9 c1 fd 3d 3d 29 9f bd ac a4 d2 3d 4c 99 9a 3c
       0.12390465 -0.077715375 0.10285315 0.018871926
000320 da 44 88 bd 67 81 83 bd e6 a1 d7 bd ea dd d4 3d
       -0.066537574 -0.06421166 -0.105289266 0.10393889
000330 ba 44 29 bd 67 15 24 bd 5f 2a aa 3d 2b 51 e8 3d
       -0.04132531 -0.040059473 0.08308863 0.113436066
000340 ef fa e2 bd 00 85 5b bd e4 5f 84 bd f7 d0 09 bd
       -0.11083018 -0.053593636 -0.06463602 -0.03364655
000350 e1 5d 22 3d fd e2 de 3d 55 15 d0 bd 3a be 28 3d
       0.03964031 0.10883138 -0.10160319 0.04119704
000360 ee e0 e5 bd ac bb bf 3c b4 95 eb bd d7 0c 32 bd
       -0.112245426 0.023404919 -0.11503163 -0.043469276
000370 84 87 e1 bd 8a 7c a4 bc 2a de 8a 3d 18 00 9b bd
       -0.11012176 -0.020078916 0.06780656 -0.07568377
000380 3b c0 de 3c 8a 35 d2 bd 52 1d 99 bd de 0a f0 3d
       0.027191272 -0.10264118 -0.074762955 0.11720823
000390 34 fa e8 3c 70 2e 76 3b fe f2 df 3d a2 07 9a bd
       0.028439619 0.00375643 0.10935019 -0.07520987
0003a0 5d 84 fe bd c8 70 16 bd 5a 7a b0 3d e7 75 db bd
       -0.1242759 -0.03672865 0.08617087 -0.107158475
0003b0 b8 45 ef bd 47 81 8e bd d0 0e ed b8 05 d0 bf 3d
       -0.1168322 -0.069582514 -0.000113038 0.093658485
0003c0 09 be f3 bd e6 56 d4 bd cd 69 e9 bd f8 9b 66 bd
       -0.11901481 -0.10368137 -0.11397133 -0.056301087
0003d0 0d 5d 3c 3d e1 21 fb bc 11 22 00 3d 28 77 8b bc
       0.045987178 -0.030655803 0.03128249 -0.017024592
0003e0 ff 29 71 3d 54 c2 6e 3d b7 68 b4 3d b2 03 7e bc
       0.05887794 0.058290794 0.08809035 -0.015503811
0003f0 8b 79 d2 3d c4 46 b6 bd 93 2a d1 3d 50 7c 9b bd
       0.10277089 -0.08900216 0.102131985 -0.0759207

lstm.weight_hh_l0_reverse f4 [256, 64]
000000 d5 23 95 3d 9a 91 d1 bd 95 f8 c5 3d ec 46 1e 3d
       0.07282225 -0.102328494 0.09666554 0.038641855
000010 79 1a 17 3c 67 d8 c2 3c 03 4c 39 3d 2e 95 b1 3d
       0.00922262 0.02378483 0.045238506 0.08671032
000020 65 2c 77 3c fb ff 20 bc ee 44 d9 3d ad 36 81 bc
       0.015086268 -0.0098266555 0.106088504 -0.015773142
000030 dd 44 01 3e 7e fd ef bc 7f cc 19 bd a4 dc 5c bd
       0.12623926 -0.02929568 -0.03754854 -0.053921357
000040 49 a8 dd bd 1e 14 2b 3d fc c7 7d 3d 89 a2 dc 3d
       -0.108231135 0.041767232 0.061958298 0.107731886
000050 e3 5e 90 bd 4f 96 bb bd db 5c fb 3d 12 46 95 3b
       -0.07049348 -0.091595285 0.1227357 0.004555472
000060 00 db 78 bd 7a a7 29 3a 34 b8 23 3d 29 09 be 3d
       -0.06075573 0.00064717943 0.03997059 0.09279091
000070 4f 98 9e 3d 35 1b ac 3c dd fe b9 bc b4 0f 40 3d
       0.07743894 0.021009067 -0.022704536 0.046889976
000080 d0 65 77 bd e4 44 64 ba c0 e9 ec 3d 26 17 3c 3b
       -0.06039983 -0.0008707775 0.11568022 0.002870032
000090 8b bd 04 be b7 6f 9a bd 18 d9 e0 bd 8e 13 35 bd
       -0.1296293 -0.07540839 -0.10978907 -0.044208102
0000a0 2d 6b eb 3c db 29 f9 bc c1 45 f5 3c 63 83 cb bd
       0.028737629 -0.030415466 0.029940488 -0.099371694
0000b0 d9 cf 5c bd 6c 4d b5 bd a9 39 a7 bd c0 e8 c6 bc
       -0.053909156 -0.08852658 -0.08165295 -0.024280906
0000c0 4e c4 01 3d 4e 74 3d bd d2 4a 08 bb a4 72 8d 3d
       0.03168135 -0.046253495 -0.002079655 0.069066316
0000d0 1c 4f a6 3d bb 36 ed 3c 1a 94 e9 3d a1 f7 f9 3c
       0.08120558 0.028956762 0.11405201 0.030513586
0000e0 85 de f2 3c 44 04 d4 3c cf 73 12 3d 2e b1 ac 3b
       0.029647121 0.02588094 0.035754975 0.005270145
0000f0 90 21 ec bd 3d ea b0 3d db 2d ab bd 46 d4 46 3c
       -0.11529839 0.086384274 -0.083583556 0.012135571
000100 d9 26 07 3c 8f 45 c7 bd d8 f6 2d bd 6a 9f 1a 3d
       0.008249008 -0.09730064 -0.042471737 0.037749685
000110 02 3f 39 3d 56 58 21 bc a4 8c a1 bd 7d d6 23 bb
       0.045226105 -0.009847721 -0.07888153 -0.002499967
000120 ae 8f 72 3c 0e 3a 95 bc 65 e5 dd 3d 8d c3 97 bd
       0.014804764 -0.01821616 0.10834769 -0.07410345
000130 7e 4b f8 bd 2a 46 5f 3c ed 41 de bd 71 86 d7 3d
       -0.12123774 0.013627568 -0.10852418 0.105236895
000140 7e e3 20 3d 67 e8 ee bd 2f ae 18 3d e1 3e dc bd
       0.039279453 -0.11665421 0.03727549 -0.10754181
000150 d6 e9 fd 3d 84 f9 95 3d fd 96 82 3d 21 6b aa 3d
       0.12398116 0.07322982 0.06376455 0.083212145
000160 14 ac fa bd b8 b8 24 3c 1d 5a d6 3d 4c c3 50 3d
       -0.122398525 0.010053806 0.104664065 0.0509675
000170 56 64 7c bd f8 d5 c1 bd 18 cc bf bd d2 f9 91 3a
       -0.061619125 -0.094646394 -0.093651 0.0011137074
000180 6d c5 ca 3d 5b 12 84 3c 9c cc aa bd 38 86 d9 3d
       0.09900937 0.016122034 -0.083398074 0.10621303
000190 4b e4 b9 bd cc 1c d8 3d fc ef 78 bd b3 42 fe 3d
       -0.090767466 0.105523676 -0.060775742 0.124150656
0001a0 21 23 1d 3c fc 4e 65 3d 38 09 b5 bd 8f 83 29 3d
       0.009590895 0.05598353 -0.08839649 0.04138523
0001b0 ab c3 aa 3d 0a 09 e8 3d 69 d7 db bc e2 6d 97 bd
       0.08338102 0.11329849 -0.026836114 -0.07394005
0001c0 bf 17 90 bc a8 b4 eb bc 9b 4d 44 bd 49 1d cc bd
       -0.017589448 -0.028772667 -0.047925573 -0.09966523
0001d0 93 7d fd bd 3b 93 85 3c f3 7c 32 3d 3a ed c0 bc
       -0.12377467 0.016305557 0.043576192 -0.023550618
0001e0 91 54 9f bc 81 39 10 bd d6 de 2d 3d 2d 8b 24 bd
       -0.019449504 -0.03521109 0.04244884 -0.04017179
0001f0 e9 b7 15 3d 2c 1e 58 3c f3 01 cc bc 9a b8 e5 3d
       0.036552344 0.013190787 -0.024903273 0.112168506
000200 2d 36 1c bc a9 e0 7d bd 0d 8f b8 bd 1b da ce 3d
       -0.009534401 -0.06198183 -0.0901166 0.10100194
000210 cf c0 fd 3d bd 51 a0 3c c3 e4 76 3b 0a 6f ec bd
       0.12390291 0.019570226 0.0037672974 -0.115446165
000220 65 62 d1 bd 36 81 b5 3d db fb 3d 3c b5 b8 16 ba
       -0.102238454 0.08862536 0.011595692 -0.00057495694
000230 c2 54 35 bd 9f 1e e6 bd 2c 2d 9f bd 6e a0 67 3d
       -0.044270284 -0.11236309 -0.07772288 0.056549482
000240 5b c0 ae bd 2d de 62 3d 41 ce a8 3d ad 44 c2 bb
       -0.08532783 0.055387665 0.08242465 -0.005928597
000250 35 3c 66 ba 42 c6 01 be d7 a6 35 bd 54 b4 db bd
       -0.0008782775 -0.12673286 -0.044348564 -0.10727754
000260 0e f0 41 bd cb 45 58 bd 35 db 4b 3d 72 8a 9a 3c
       -0.047348075 -0.052800935 0.0497696 0.018864844
000270 a2 ab 8e bd 1d d6 12 3d c5 67 f3 bd 7d d3 dd bd
       -0.0696633 0.035848726 -0.11885027 -0.10831354
000280 19 ce 97 3b f6 e1 f4 bd 29 a2 f6 ba 33 29 eb 3d
       0.004632723 -0.11957161 -0.0018816638 0.114824675
000290 35 58 a6 bc 60 d1 94 3d 10 d6 b6 bd ff 62 e7 3d
       -0.020305732 0.072664976 -0.08927548 0.11298179
0002a0 5f 90 b3 3d 8f f4 fa bc 04 e1 d9 bc 44 fc 02 be
       0.08767771 -0.030634193 -0.026596554 -0.12791544
0002b0 ae 85 41 3d c4 6f 15 3d ad a2 3a bd e4 60 ed 3d
       0.047246628 0.03648354 -0.045565296 0.11590746
0002c0 c5 79 50 bd c9 75 d0 bd 6a 41 95 3d da 27 2c bd
       -0.05089738 -0.10178716 0.07287867 -0.042030193
0002d0 4b 90 bf 3d 10 6d 62 3d 9d e3 52 3d 1f 0f 82 3d
       0.093536936 0.05527979 0.0514866 0.0635054
0002e0 b5 e6 a3 bd 48 ec 96 3d 4b d2 9b bd e0 50 36 bb
       -0.08002988 0.07369286 -0.076084696 -0.0027819201
0002f0 a0 c3 d4 3d 90 72 43 3d 34 16 b1 bd 1a ad f4 3c
       0.10388875 0.047716677 -0.08646813 0.029867698
000300 26 8c 6d 3c e4 ae 48 bc ec a2 8c bc 9f a9 c3 3c
       0.014498746 -0.012248728 -0.017167531 0.023884593
000310 95 d1 f0 3d c1 3f 32 bd 89 2a 5f 3d 23 02 45 bd
       0.117587246 -0.04351783 0.054483924 -0.04809774
000320 5a 26 89 3d 9d a5 6c 3d c2 e2 c2 bb d1 bc f0 bd
       0.06696768 0.05777513 -0.005947442 -0.11754764
000330 40 b8 fb bc 09 51 73 bd 80 d3 9f 3d 83 26 0b bc
       -0.030727506 -0.059403453 0.07804012 -0.008493069
000340 8b 5f bb bd 51 d6 7d 3d 3e 66 74 bd 18 fd ea bd
       -0.09149083 0.061971966 -0.05966782 -0.11474055
000350 ce dd c5 bd 09 02 dd 3d 93 48 94 3d 91 5a d4 bd
       -0.096614465 0.10791404 0.07240405 -0.10368837
000360 4c af e0 3d 62 28 ff bd da bf 89 3c ee 7a 48 bd
       0.10970935 -0.12458874 0.016815115 -0.04894536
000370 a4 29 4e 3d e5 af 73 bd 0f 4e 04 be 42 1e ba 3d
       0.05033268 -0.059493918 -0.12920402 0.090878025
000380 e6 f6 36 3c 7e 84 b9 3d 26 14 b4 3d dc f6 b4 3d
       0.011167264 0.09058474 0.087929055 0.08836147
000390 d1 bf dd 3c 37 8c ab bd 09 1a b6 3d 02 67 eb 3d
       0.027069004 -0.08376353 0.088916846 0.114942566
0003a0 23 78 11 3d e7 13 a5 bd fe f9 aa 3d 1c 57 ed 3d
       0.035514962 -0.08060437 0.083484635 0.115888804
0003b0 0a 0f c4 3d 25 c0 cf bd 83 4b 97 bd d6 89 6c 3c
       0.09573181 -0.101440705 -0.073874496 0.0144371595
0003c0 4d 15 94 bd b4 71 dc bd 5b 21 cf bd 12 5c 49 3d
       -0.07230625 -0.10763875 -0.10113784 0.04916007
0003d0 21 24 bd 3d fc 59 41 bd 4e 58 eb bd 9a f3 e9 bb
       0.09235407 -0.047204956 -0.11491452 -0.0071396353
0003e0 c2 4d 32 bc 47 3d 02 bd d9 99 b3 3b fb 51 0d bd
       -0.010882797 -0.03179672 0.0054809866 -0.03450201
0003f0 2e d1 ac bd 84 c3 7b bc ce f4 03 3e d4 bc 40 bc
       -0.08438335 -0.015366439 0.12886354 -0.01176377
