SecPPIS/output/model_epoch_6.pth (torch, 222997 bytes, 12 tensors)

embedding.weight f4 [8, 32]
000000 a1 36 3e bc f2 00 76 bf 3b cc b5 be b1 27 9f 3f
       -0.011609704 -0.9609519 -0.35507378 1.2433988
000010 58 4d fc bd 96 e3 f5 3f a9 4f 02 be 89 58 04 40
       -0.1231944 1.9210079 -0.127257 2.0679038
000020 bd b8 6b bf b5 4a 32 bf a5 1c b5 3e 7a bd fa 3f
       -0.92078763 -0.69645244 0.35373417 1.9589074
000030 12 b5 12 c0 ea f6 b7 bd e3 cf ab bd d2 a9 d3 be
       -2.2923017 -0.08982642 -0.083892606 -0.413405
000040 18 bb 9c 3f 15 89 e8 bf 89 4d b5 3e 59 f5 b7 bf
       1.2244596 -1.8166834 0.35410717 -1.4371749
000050 77 04 ed 3f bc 97 04 bf f8 c9 48 3e ca 7a c0 bd
       1.8516988 -0.5179403 0.19608295 -0.0939842
000060 1e 9d 3f bf 4a 9b 9f 3f a6 d6 89 be 1a fd 42 bd
       -0.74849117 1.2469265 -0.26921576 -0.047604658
000070 a7 99 9d 3e 63 36 c5 3f 0b 90 7f 3f 42 04 09 bf
       0.3078129 1.5407223 0.9982917 -0.5352212
000080 8f a6 a9 3f 1b 4b 23 3f 22 99 80 bf 19 bd ac 3f
       1.3253955 0.63786477 -1.0046732 1.3495208
000090 e2 7b 55 bf 72 6f e5 3d 53 b9 ef be 5c 6a 81 3f
       -0.83392155 0.11202897 -0.4682108 1.0110583
0000a0 fe 30 8e bf 1f 97 59 3f e2 f8 cf 3e d0 1c f7 3f
       -1.1108701 0.8499622 0.4061957 1.9305668
0000b0 b9 5b 26 3f 9e b8 fb 3e bb d9 e5 3d 85 47 92 3f
       0.6498371 0.4916429 0.112231694 1.1428076
0000c0 f9 d9 27 3f 85 11 fd bf 53 d2 25 3f 63 33 95 bf
       0.65566975 -1.9770972 0.64774054 -1.1656307
0000d0 f6 bb fe be 94 bf bf 3d 83 7a 2f bf d4 a1 77 3e
       -0.49752778 0.093627125 -0.68546313 0.24182826
0000e0 0f 89 14 bb ed f5 47 3b 36 35 84 bf 85 9d f2 be
       -0.00226647 0.0030511573 -1.0328739 -0.47385803
0000f0 3d d5 16 bf 1f a4 d3 be bf 3e 1c c0 b6 07 c5 3e
       -0.58919126 -0.41336152 -2.4413297 0.38482445
000100 5c 28 b3 bd 66 98 cc bf f0 5b 92 3f 46 21 96 3f
       -0.08747932 -1.5984008 1.1434307 1.1728904
000110 70 a8 bb bf bd a3 ad 3f d9 e4 fd bd 51 45 1a bf
       -1.4660778 1.3565594 -0.12397165 -0.6026202
000120 5d 9a 9f 3f 45 13 eb 3e c0 68 2f 38 d7 ca b1 bf
       1.2468983 0.4591314 4.1820807e-05 -1.3890027
000130 74 28 d3 3f f9 7f a7 3e 44 e8 ee 3e 6e 2d 9f bf
       1.649672 0.32714823 0.4666158 -1.2435739
000140 74 f5 1f 3e 5d f0 c6 bf a0 a2 4c bf e0 1c 4c bf
       0.15620977 -1.5542103 -0.79935646 -0.7973156
000150 44 dc 47 bf 93 b5 09 c0 ce ba 29 3e 45 93 c2 bf
       -0.78070474 -2.1517074 0.16575167 -1.5201193
000160 a4 de e1 bf f9 8f 44 3f 69 70 3c be e8 6f c8 3e
       -1.764607 0.76782185 -0.18402256 0.39147878
000170 d4 60 db 3d c6 24 58 3f bf e8 c0 3d 92 38 93 be
       0.10711828 0.8443111 0.09419393 -0.28754097
000180 6e 22 b1 3f b6 3c ba bc 1c ad 46 3e 9b 5f 89 3f
       1.3838632 -0.022734027 0.19401973 1.0732301
000190 14 e9 76 bf ba 67 1d bf e9 0f 1d 3f cd 54 a2 be
       -0.964494 -0.614864 0.613524 -0.31705323
0001a0 c5 c4 18 be 48 26 ab be 77 8b a1 be 2e 96 68 3e
       -0.14918812 -0.33427644 -0.31551716 0.22713539
0001b0 80 4b 5e 3f e2 3e 8c bf c4 0c b6 be 7e 83 1b bf
       0.86833954 -1.095669 -0.35556614 -0.60747516
0001c0 4f 75 26 bf 63 11 5b bf c7 ca ac 3f 67 25 38 3e
       -0.6502275 -0.85573405 1.3499383 0.17983018
0001d0 39 ac 49 3f 79 7b 4f 3f 86 26 5c be 8a 96 43 40
       0.78778416 0.8104778 -0.2149907 3.0560632
0001e0 4a 45 87 be 99 88 e6 3f a5 1b ab 3f 1f 39 b8 3f
       -0.2642005 1.8010436 1.3367811 1.4392432
0001f0 4b 39 8b bf 62 85 30 c0 f2 15 76 bf cc b9 b8 3f
       -1.087686 -2.758141 -0.96127236 1.4431701
000200 aa ae dd 3e 33 33 b7 bf 07 92 3b 3f 61 07 b2 3f
       0.4329732 -1.43125 0.73269695 1.3908502
000210 32 a8 fa be 7a 20 06 bf 95 fe 45 bf f5 e3 84 3f
       -0.48956448 -0.52393305 -0.77341586 1.0382067
000220 ab c2 60 3f a0 4b 25 3f 35 7a ad 3e a2 5e 9d bf
       0.8779704 0.6456852 0.338823 -1.2294505
000230 3a 48 48 be 2d e1 55 3f cf b4 07 c0 ab a0 e1 bf
       -0.19558802 0.83546716 -2.1204107 -1.7627157
000240 cc 32 0a 40 f1 22 89 3e a1 7b f1 3f 27 61 89 bf
       2.1593504 0.2678447 1.8865854 -1.0732774
000250 74 a8 f4 bf 25 09 06 bf 7b ca 9e bf fb 69 8f bf
       -1.9113908 -0.52357703 -1.2405542 -1.1204218
000260 ba b9 15 3f 81 08 c5 bf 2e 18 dd bf ef 88 d2 3f
       0.5848652 -1.539322 -1.7273004 1.6448039
000270 85 e5 0b bf 3a 04 03 40 ba a4 7b bf bb 8b 2c be
       -0.54647094 2.047133 -0.9829823 -0.16850178
000280 6e 9f 4b 3f ea d8 31 3d c7 e9 82 3d e3 c3 88 3d
       0.79540145 0.043419756 0.06392246 0.066779874
000290 f0 fb 08 3e a9 56 f7 3f 03 66 97 3f e4 ae a1 be
       0.13377357 1.9323322 1.1828007 -0.31578743
0002a0 a7 73 81 3e aa e8 4a 3f e4 57 f2 bf 53 47 c7 3d
       0.25283548 0.7926127 -1.8933072 0.09730401
0002b0 03 5e 5a bf 7d 42 e9 bf 32 f0 db 3f 52 77 bc 3e
       -0.852997 -1.8223416 1.7182677 0.36809784
0002c0 bc f2 07 bf 44 e5 27 40 a6 eb 71 3f eb ad c7 3e
       -0.5310476 2.6233683 0.94500196 0.38999876
0002d0 8c 5f fb 3c ee 22 c2 3e 0a 0b 93 3e 4c f8 d5 be
       0.030685209 0.37917274 0.2871936 -0.41790998
0002e0 a9 52 bd bf 7e 19 fd 3e b4 7a c4 3e 9f 79 94 3f
       -1.4790851 0.49433511 0.38374865 1.1599616
0002f0 9b 5e 1e be 2d a9 79 3e d4 39 26 3f fc 63 24 3e
       -0.15465777 0.24380942 0.6493199 0.16053766
000300 f8 db 19 bd 97 e7 25 40 1f e3 98 bf 89 4b cf be
       -0.037563294 2.5922601 -1.1944312 -0.40487316
000310 8e a3 be be 7d b3 fb 3e 42 fc 51 3e 6d 07 b8 3f
       -0.37234157 0.49160376 0.20506385 1.4377266
000320 24 4e 23 3f f0 80 6a bf 05 12 59 be fd 38 66 3d
       0.6379111 -0.91602993 -0.2119828 0.056206692
000330 17 32 bf 3e da 3c 8c 3f bf 32 91 bf 19 45 2d 40
       0.37342903 1.095607 -1.1343611 2.7073424
000340 18 7f 01 3f f7 a7 d2 bf 8b 9b 63 3e df f0 3d 3f
       0.50584555 -1.6457509 0.22227304 0.74195665
000350 a0 1d 8b 3f 06 d7 a7 3f fe 53 f5 bf de 14 ab bf
       1.0868416 1.3112495 -1.9166257 -1.3365743
000360 3f 97 49 bf 06 e1 ca 3e ba 38 ce bf 38 07 a4 be
       -0.7874641 0.39624804 -1.6111062 -0.32036757
000370 bb 39 a3 bf c8 ef e7 3d 05 84 f7 be 52 fe 36 bf
       -1.2751993 0.113250315 -0.4834291 -0.7148181
000380 eb 42 28 3e 88 c5 9b 3d b8 d8 4e 3d 26 76 45 bf
       0.16431777 0.076060355 0.050499648 -0.77133405
000390 ca 9c 9a bf 6e 18 41 3e 79 0d 0a be 9f 0d bb bf
       -1.2079098 0.18856975 -0.13481702 -1.4613532
0003a0 eb 01 b9 bf 18 f1 71 bf 7e b1 a0 bf 77 41 17 3d
       -1.445371 -0.94508505 -1.2554166 0.036927667
0003b0 5b c8 63 3f 4b 1b 77 3e 7f 15 08 c0 ec 38 a7 bd
       0.88977593 0.24131505 -2.126312 -0.08165154
0003c0 a5 f8 6a be 7d b0 ef 3e 8f 7a 5e bd fe 8f fd bf
       -0.22946413 0.46814337 -0.0543161 -1.9809568
0003d0 ea 59 f6 be 29 6e ed bd 11 21 a2 bf 01 d3 7b 3c
       -0.48115474 -0.11593277 -1.2666341 0.0153701315
0003e0 5d 8f 87 bf 92 47 60 3f a8 01 b1 3f d6 7b 87 3e
       -1.0590626 0.8760921 1.382863 0.26461667
0003f0 9d 37 67 bf 97 4d 97 bd 5f 5d 4c be f6 e0 2e 3f
       -0.90319234 -0.07387846 -0.19957493 0.68312013

lstm.weight_ih_l0 f4 [256, 32]
000000 df 16 f2 bd 97 f5 7b 3d 09 9c 5f bd 06 5d 28 bc
       -0.118207686 0.06151351 -0.054592166 -0.010276085
000010 7f b4 ac bc a6 04 f2 3d ec f1 bc bd 7f 0f 5e bd
       -0.021082161 0.11817293 -0.092258304 -0.054213997
000020 33 ed b9 bd 07 ed 16 bc 83 d3 a9 3d b5 86 5f bb
       -0.09078445 -0.009211785 0.08292296 -0.0034107391
000030 06 aa c7 3c ae c0 92 3a 2c b1 59 3d 22 43 80 bd
       0.024373066 0.0011196339 0.05314748 -0.062628046
000040 e3 d8 79 3d d2 bc c9 bb fd c1 76 bd 29 ad 1c 3d
       0.060997855 -0.0061565423 -0.060243595 0.038251076
000050 50 15 12 bc 59 d5 a2 3d 0e dc a0 3d 15 51 ab bd
       -0.008916214 0.07950849 0.07854472 -0.083650745
000060 89 b0 57 3d 35 82 c3 3d 6a 79 a0 3d b1 a5 b1 bd
       0.05265859 0.095463194 0.07835658 -0.08674181
000070 3c 09 bf bd 20 76 42 bd 54 d9 0d 3e 43 9c 9f 3d
       -0.09327933 -0.047475934 0.13852435 0.077934764
000080 e5 cb 2d bd f2 98 b5 3d c8 fb a9 3b cf 49 07 3e
       -0.042430777 0.08867063 0.0051874854 0.1321175
000090 ca 8e 8a bb 16 69 e4 3d cc 5d 34 3a 67 86 0f 3e
       -0.0042284476 0.11152856 0.0006880432 0.14016114
0000a0 56 8e e2 bd 12 72 d4 3c 71 28 09 bd 84 e9 b4 bd
       -0.11062305 0.0259333 -0.033485834 -0.08833602
0000b0 0c 01 d1 3c 51 29 2d 3d 18 04 ab 3d f5 74 ab bd
       0.025513195 0.04227573 0.0835039 -0.08371917
0000c0 61 2e 9f bb b9 34 15 bd eb 8c 5b bd da 10 39 bc
       -0.0048578237 -0.036427233 -0.053601187 -0.011295522
0000d0 ec 91 06 3e 83 72 c5 bd a2 6b d9 3d 32 83 c6 3d
       0.13141602 -0.09640982 0.106162325 0.09692992
0000e0 e0 ea 2b 3d f2 65 84 bd d1 7a d4 3d a8 22 9f 3d
       0.04197204 -0.06464757 0.10374988 0.07770282
0000f0 c2 bd 9d bd d6 84 da bd c6 48 1b 3c 44 01 9b 3d
       -0.07702209 -0.10669868 0.0094778 0.07568601
000100 eb d4 be 3d 13 49 10 be 26 a6 5a bd d6 e0 c8 bd
       0.09317955 -0.14090376 -0.053381108 -0.09808509
000110 4c ba ce 3d 7e d9 64 bd 4e 64 65 3d 7d 7a 0f 3d
       0.10094127 -0.05587148 0.05600386 0.035028923
000120 12 bd ad bd 98 e8 6c 3c 75 78 1f 3c 64 61 42 bd
       -0.08483328 0.014459752 0.009733309 -0.04745616
000130 3a cb 4e 3d 65 2f 18 be 7b ef 0a 3d 3f 78 9a bd
       0.05048678 -0.1486183 0.033919793 -0.07542466
000140 09 3f e1 3d 10 f1 89 bd 9f 45 02 3e c2 6a 53 bc
       0.10998351 -0.06735432 0.12721871 -0.012903871
000150 4c 41 aa bd 10 49 14 3d 6d 4e 2d bc 7d 73 b2 3d
       -0.08313236 0.03620249 -0.01057778 0.08713434
000160 be e3 c1 bc 7b 1b ca bd c0 76 95 bd ce a6 b6 3c
       -0.023668166 -0.09868523 -0.072980404 0.022296336
000170 e6 dd bf bd a9 24 ab 3c 89 48 ff 3d cc 25 09 bd
       -0.09368496 0.020891504 0.12465007 -0.03348331
000180 02 19 1a be ca ad d7 bd 1e 97 da bd 46 19 5c 3d
       -0.15048602 -0.105311945 -0.106733546 0.05373504
000190 50 e0 e0 3d 6d b5 2e bd 38 6a dd 3c 13 a1 a7 bd
       0.10980284 -0.04265349 0.027028188 -0.08185019
0001a0 0e d0 78 bb b0 1b d9 bd a5 61 a1 bd d1 ff 2c 3d
       -0.0037965807 -0.10600984 -0.07879952 0.042236153
0001b0 48 51 ff 3c 05 c0 91 3d 60 10 47 3d 13 de ec 3c
       0.031166688 0.07116703 0.0485996 0.028914487
0001c0 8b d4 9d bd a8 fe 8a 3d 95 b2 e8 bc a1 f6 0e be
       -0.07706555 0.06786853 -0.028405467 -0.13961269
0001d0 52 dd ca bd a9 a0 13 3c 6b 93 bb bd d6 0e 5a bd
       -0.09905495 0.009010472 -0.09158977 -0.053236805
0001e0 b0 90 81 3d 6d 7c e8 3c a5 4b a0 3d d4 d9 b0 3d
       0.06326425 0.028379643 0.07826928 0.086352974
0001f0 39 21 53 bd bf 1b 0d 3e fa bd a6 3d 52 a5 74 3d
       -0.051545355 0.13780116 0.08141704 0.059727974
000200 75 be e5 3d b9 5a ed bd b2 93 61 3c 36 42 f6 bc
       0.112179674 -0.115895696 0.013768123 -0.030060869
000210 ef 0c ad bd c6 d8 df bd 9f 7c 54 3d 45 eb af bd
       -0.084497325 -0.10930018 0.05187666 -0.08589796
000220 c9 65 04 be 3a 9f 5c bd ae 30 b1 3d 5c 39 0d 3e
       -0.12929453 -0.053862788 0.08651863 0.13791412
000230 33 d4 d5 3c 2f 36 9b 3d 18 a4 b6 bd 83 23 1f bd
       0.026102161 0.07578694 -0.08918017 -0.038852226
000240 d3 b3 26 bc 02 42 12 3d 09 65 83 bc 72 b4 0a be
       -0.010174709 0.03570748 -0.016039388 -0.13545397
000250 c8 e9 14 bb e6 5b a8 bd ac 30 55 bd 1e 7a 83 bd
       -0.0022722352 -0.08220653 -0.05204837 -0.064197764
000260 63 8d 85 3c 25 66 c7 3d 17 68 21 bc e7 7b ee bd
       0.01630277 0.097362794 -0.009851477 -0.11644726
000270 a4 4c 92 3d 86 58 ab bd 84 a1 2e bb ab ba 3c bd
       0.07143524 -0.08366494 -0.0026646564 -0.046076458
000280 b6 2b 92 bd 35 21 95 3d 34 d6 e1 bc 07 82 64 3d
       -0.071372434 0.07281724 -0.02756796 0.055788066
000290 03 76 19 3d 9a 1e 35 bd 17 f3 62 3d dc 3e ed bd
       0.03746606 -0.044218637 0.05540761 -0.11584255
0002a0 a2 57 0d 3b ea 2c 04 3e 9a 21 16 bd b1 c3 be bd
       0.0021567126 0.12907758 -0.03665314 -0.09314669
0002b0 ef 49 b8 3d af 34 dc 3c 1d 68 7a bd e1 65 02 bd
       0.08998477 0.02688059 -0.061134446 -0.03183544
0002c0 d6 a3 90 3d fe 5f eb 3c 0c 41 27 bd 5e 20 6f 3d
       0.07062499 0.028732296 -0.040833518 0.058380477
0002d0 dd bb fa bd b0 09 73 bd 60 fa 22 3d af 05 c0 3d
       -0.12242863 -0.05933541 0.039789557 0.09376084
0002e0 a6 59 1e 3c a3 24 9c 3d 70 70 75 3c e9 4d 89 3d
       0.009664929 0.076241754 0.0149804205 0.06704313
0002f0 3b 23 02 bd f0 4f b6 3d af e7 b0 bc bb e1 2c bc
       -0.03177188 0.089019656 -0.02159485 -0.010551865
000300 bb 11 cf bd e5 75 a1 bd 41 5e 95 bd b7 36 0f 3e
       -0.10110804 -0.07883815 -0.07293368 0.13985716
000310 3e ea 3e 3c 6a e9 90 bd 62 0e c5 bd e7 8e 38 3d
       0.011652527 -0.0707577 -0.09621884 0.045058157
000320 27 8c 90 bd 7c e3 cd 3d ea 59 c0 3d 16 f3 b3 bd
       -0.07057982 0.10053155 0.0939215 -0.08786599
000330 a6 ef a7 bd 23 5d 84 bc 31 53 c2 bd 22 31 6c 3d
       -0.08200006 -0.016157692 -0.09488524 0.057664044
000340 59 48 9f 3c 50 fa 43 bd 30 a5 7e bd c3 39 80 3d
       0.019443678 -0.04784614 -0.062169254 0.06261017
000350 9b cb 7f 3c 58 fb cd bd 5c f1 df 3d 40 48 f9 3d
       0.015612508 -0.10057706 0.109347075 0.12171984
000360 5f 43 c8 bd bf 2c 8b 3d ce 7c 06 be a5 34 ca bb
       -0.09778475 0.06795644 -0.13133547 -0.0061708265
000370 84 f1 ae 3d 3d bc be 3b f6 d0 d2 ba 97 62 ad bd
       0.08542159 0.0058207796 -0.0016084004 -0.0846607
000380 68 c7 d3 3c 2e 73 8f 3c a6 04 bd 3d ce a0 a1 3d
       0.02585192 0.017510977 0.09229402 0.07891999
000390 81 67 a9 3c 2b f3 d4 3d 84 b8 cb bd e4 1b 84 bd
       0.020679237 0.10397943 -0.09947303 -0.06450632
0003a0 20 6a a2 3d 56 d6 b8 3a ed 27 8a 3c 99 37 a4 3a
       0.07930398 0.0014101963 0.016864741 0.0012528776
0003b0 84 43 b7 3d 09 cc db bd 1c a1 b0 bb d5 b2 20 3c
       0.089484245 -0.10732276 -0.0053902995 0.009808262
0003c0 a3 bf b6 3d ee 06 a2 3d 5d 6b 4b 3d fd 21 3e bd
       0.089232706 0.07911478 0.049662936 -0.046419133
0003d0 9a 9a 9c 3c 4c 53 fa bc 4f 0a 38 bd cf c2 84 bd
       0.019116689 -0.030557297 -0.044931706 -0.06482469
0003e0 f7 15 85 bd 0f 7b 77 3d 7e 0c e2 3d 8c 7a 5c bd
       -0.0649833 0.060420092 0.11037539 -0.053827807
0003f0 64 47 1b bb 06 68 dd bd 5c c7 a4 bd 5e 5d c7 bd
       -0.0023693675 -0.108108565 -0.08045837 -0.09734605

lstm.weight_hh_l0 f4 [256, 64]
000000 da f6 41 bc 94 f8 c8 3c 24 8d a6 bd d1 99 e6 bd
       -0.011838639 0.024532594 -0.08132389 -0.11259807
000010 f2 09 b7 3d be 59 52 3c ff 86 ce bd 58 42 a1 3d
       0.08937444 0.012838779 -0.10084342 0.07873982
000020 9a 47 a3 3d 0a f4 98 bd d4 20 4a bd 76 aa 63 3d
       0.07972641 -0.07468422 -0.049347714 0.055582486
000030 d9 fe ab 3b 39 d0 d9 bd 1b 5c 40 bc cc 0a b0 bc
       0.005248886 -0.106354184 -0.01174071 -0.021489523
000040 ca 11 3a bd ee 8e d0 bb c8 e9 2b 3d 29 b1 85 3d
       -0.04542712 -0.006364695 0.041970998 0.06527931
000050 68 94 ef bd 68 10 76 3d ba d2 24 3c 29 9c fe 3c
       -0.11698228 0.06007424 0.010060007 0.031080322
000060 b5 06 a3 3d 70 3b a7 3c 7b f2 c4 bd 3e b5 d9 3d
       0.07960264 0.020414084 -0.09616562 0.10630272
000070 74 27 36 bd 43 db c1 bd 03 45 0d 3e 85 58 0e 3d
       -0.04447122 -0.09465649 0.13795857 0.034752388
000080 9f 85 ed bd 98 c4 84 3c 22 bf 1d bd ab e6 07 3e
       -0.11597752 0.016207024 -0.038512357 0.13271587
000090 89 91 7b 3d 08 0f 9c bd d2 91 4e 3d bd ec 00 3e
       0.06141809 -0.076200545 0.050432034 0.12590308
0000a0 77 8a 5d 3d 41 d9 a5 bc 05 23 f2 3c 01 f3 c6 3b
       0.05408713 -0.020245196 0.029557714 0.006071449
0000b0 75 f1 8a 3d 4d e3 70 3d ca 69 be bc fe 28 e8 bc
       0.067843355 0.05881052 -0.023243804 -0.02833986
0000c0 1b b0 13 bd a6 53 11 3e 24 ac 3a bd 59 66 1a 3d
       -0.03605662 0.14192066 -0.045574322 0.037695263
0000d0 80 30 97 bd 71 8c 77 3d 56 43 d2 bd 64 7f e6 3d
       -0.073822975 0.06043667 -0.102667496 0.112547666
0000e0 6e 4c 56 bc 09 da b1 3d 44 c7 9d bd 88 74 aa 3d
       -0.013079746 0.08684165 -0.077040225 0.08323008
0000f0 e5 2c 8d bb 94 e4 b8 3d be 5c 5f bc 7f 59 16 bd
       -0.0043083304 0.09027973 -0.013632951 -0.036706444
000100 c8 13 ff 3d 9b 81 8d 3d 1b a2 cf bd fc c2 f2 3c
       0.12454945 0.06909486 -0.10138341 0.029633991
000110 85 94 ed 3d 52 27 c9 3d 31 f1 e7 bd 6a 44 40 bd
       0.116005935 0.09821953 -0.113253005 -0.046940245
000120 9d 0c af bd 7a df b8 bd c3 de 65 3d fa 81 8a bd
       -0.08547328 -0.09027 0.056120645 -0.06763072
000130 11 4e bd 3d 7a b0 b4 bd b6 eb c4 bd b5 db 8f bd
       0.092434056 -0.08822723 -0.09615271 -0.07024328
000140 6f 04 cc bd d6 ce 93 3d 1e 4c ad bd 4a 94 bf bd
       -0.09961783 0.07217185 -0.08461784 -0.09354456
000150 b0 76 c8 3b c1 74 ae bd fc 25 b0 3c 06 52 9d 3d
       0.0061176643 -0.08518363 0.021502487 0.0768166
000160 9e 52 a7 3d 6e 89 05 bd b5 d1 14 bc 91 29 6f bc
       0.08170055 -0.032601766 -0.009083201 -0.014597313
000170 b6 1e 8d 3c f1 54 0e 3e 19 a9 79 bc 0d 46 29 bd
       0.017226558 0.1389959 -0.01523807 -0.04132657
000180 96 02 cd bd dd e5 c3 bd c9 18 70 3d 77 31 99 bd
       -0.10010259 -0.09565327 0.058617387 -0.07480138
000190 67 c2 0d 3d 6f 59 fa 3d b0 22 00 be d5 1d 57 3d
       0.034609225 0.12224089 -0.12513232 0.052518684
0001a0 1a 97 2f 3c 3e 37 26 3d 6e c8 8a 3d 42 57 33 3d
       0.010717178 0.040580027 0.0677651 0.043784387
0001b0 a5 65 b1 3d 8a 1b 5c bd e6 2c 4e 3d 49 b8 06 3b
       0.08661965 -0.0537372 0.050335787 0.002055662
0001c0 ec ff cb bc f0 5c 39 bc f5 4f 06 3e ee 24 56 3c
       -0.024902306 -0.011313662 0.13116439 0.013070328
0001d0 44 53 81 3c 5c 20 01 be 4c 26 85 3d 1b a0 7c 3d
       0.015786774 -0.1261 0.06501445 0.061676126
0001e0 ab 68 a7 bd fd 80 c8 bc 1a aa e2 3b 79 86 e2 bb
       -0.08174261 -0.024475569 0.0069172503 -0.006913003
0001f0 7e 35 05 be 59 4c 65 bd ed 74 c3 bd 78 8f 33 bd
       -0.13008687 -0.055981014 -0.09543786 -0.043837994
000200 71 85 1a 3d 4c 51 c3 3d e3 92 05 3e 0d 61 f1 bb
       0.037724916 0.095369905 0.13044314 -0.0073663057
000210 84 33 b0 3c 19 26 9e 3d f5 53 cc bd 86 98 0e 3e
       0.02150894 0.0772211 -0.09976951 0.1392537
000220 60 3d 58 3c 5c e5 d3 bc 17 c1 31 bd fa 52 3b 3d
       0.013198227 -0.025866203 -0.043397035 0.04573343
000230 0e 71 85 bd dc 30 53 3d 7b 52 cc bd 9d f2 7d 3c
       -0.06515704 0.051560268 -0.099766694 0.015499738
000240 33 9f 00 be 06 84 c9 bc 27 02 f9 bd a7 a4 b4 3b
       -0.1256073 -0.024599086 -0.12158614 0.005512792
000250 81 ea 85 bd 0f 08 ba 3c 20 02 da 3d 07 7e 07 3d
       -0.06538869 0.02270892 0.106449366 0.033079173
000260 76 1d e5 3d c9 a0 5b 3c d5 ad 6c bd 01 86 2f 3c
       0.1118726 0.013405033 -0.057782967 0.010713101
000270 18 1f bf bd cc 89 fe bc 50 be 91 3d e4 07 8f 3d
       -0.093321025 -0.031071566 0.07116377 0.06983927
000280 3e 0f d0 bc 31 90 01 be c5 2b 7b 3d 98 a0 59 bd
       -0.025397893 -0.12652661 0.06132104 -0.05313167
000290 6b 84 6c bc fe c2 81 3d 1e 57 01 be 99 25 33 3c
       -0.014435868 0.0633602 -0.12630889 0.010934257
0002a0 06 03 b0 3c 1b 91 c6 bd d5 c4 b9 3d fd e5 d5 bd
       0.021485817 -0.096956454 0.09070746 -0.104442574
0002b0 3c ae 08 3c ac 70 d9 3d 52 34 97 bc 8d 3a e4 3b
       0.008342322 0.106171936 -0.018457565 0.0069649876
0002c0 dd 4d e1 3c 82 16 3e bd 9c fc f2 3d 47 ee 9f 3d
       0.027502948 -0.046408184 0.11864588 0.0780912
0002d0 cb d0 3a bd 3e 19 28 3c 87 d7 b9 3c 5b b8 9f bc
       -0.045609277 0.010259924 0.02268578 -0.019497087
0002e0 b4 d2 68 bd 1e 6b e3 bd f4 ef 4f bc eb 17 05 3e
       -0.056841567 -0.11104415 -0.012691487 0.12997405
0002f0 90 c1 98 3d 7a c1 dc bd cc eb 97 3d 70 0b aa 3d
       0.07458794 -0.1077909 0.074180216 0.08302963
000300 57 96 06 bd 7e 6f 00 be b2 f9 ba 3d 32 85 4f 3d
       -0.03285822 -0.12542531 0.09129657 0.050664134
000310 1f 7f 28 bd f2 a2 a5 bd 45 0a 5a 3d 5f 55 72 bd
       -0.041136857 -0.0808772 0.05323245 -0.059163447
000320 1a b9 fe 3c eb 20 ad 3d a8 53 8b bd d4 f3 e7 bc
       0.031094123 0.08453544 -0.068030655 -0.028314508
000330 d7 a9 5a 3d 0e f7 11 3b 8a 37 c0 3d 51 81 0f 3e
       0.05338463 0.00222725 0.09385593 0.14014174
000340 01 db 54 3c 6a 29 0f 3d 30 62 1c bc 53 41 b7 3d
       0.012991668 0.034951605 -0.009544894 0.089480065
000350 0e 0e c0 bd 45 be 68 bd 70 06 2e bd 4f fc bd bc
       -0.09377681 -0.05682208 -0.042486608 -0.0231916
000360 b1 da 8b 3d a5 67 44 bd ef 72 b8 3b ad ef d1 bd
       0.068288215 -0.047950406 0.0056289355 -0.10250793
000370 90 08 86 3d 0c 6b 88 bd 27 20 54 bd 32 36 27 bc
       0.06544602 -0.066610426 -0.051788475 -0.010205792
000380 fc c3 70 3d ce 30 cc 3d 0b d8 41 bd 33 85 c9 bd
       0.058780655 0.09970246 -0.047325175 -0.09839859
000390 72 b9 1c 3d e2 08 e6 3d d0 b4 73 3d 5a 71 65 bd
       0.038262792 0.11232163 0.059498608 -0.056016304
0003a0 86 67 05 be 3e 08 fa bc 85 33 95 3d 05 9c 8d bd
       -0.13027772 -0.030521508 0.07285217 -0.06914524
0003b0 75 d0 eb bd 2a 0e ae bc 4f 86 06 be cb 1d 9c bd
       -0.115143694 -0.021246988 -0.13137172 -0.0762287
0003c0 a8 06 b1 bd c6 85 e8 3d b9 39 90 bc d7 83 d0 3d
       -0.08643848 0.1135364 -0.01760565 0.101813965
0003d0 f2 8b c7 3d 56 3b 99 bd 31 70 d3 3d 6d f0 3a 3d
       0.09743489 -0.074820206 0.10324133 0.045639444
0003e0 20 4e f3 bd cb eb 6f 3d 2b 27 04 3d d3 d7 37 bd
       -0.118801355 0.05857448 0.032263916 -0.04488356
0003f0 b3 22 11 bd ac fe 8a 3d b0 ba 3b 3c 72 66 ab 3c
       -0.035433482 0.06786856 0.011458084 0.020922873

lstm.bias_ih_l0 f4 [256]
000000 60 00 a0 3c 6f 8a 25 bd 82 fd b6 3d d7 cc 57 bd
       0.019531429 -0.040415224 0.089350715 -0.052685585
000010 64 67 34 3d 20 9e 4c bd 43 1f 43 bd ba 38 d7 3d
       0.044043913 -0.049955487 -0.047637235 0.105088666
000020 ae ab 7d 3c ef 07 30 bd 31 1e 6c 3d da 3d 09 b9
       0.015482826 -0.042976316 0.05764598 -0.0001308838
000030 98 23 1c 3d e9 ff f2 bc 8e d0 1e 3d f6 fe 0b bd
       0.038119882 -0.029663043 0.038773112 -0.034178697
000040 24 0e b4 bc 90 52 f3 bd d2 4d a6 3d 05 30 e6 bd
       -0.021979399 -0.11880982 0.08120312 -0.11239628
000050 36 db 50 3d ce ad d1 bd 6e db ed 3c fe e1 06 3e
       0.050990306 -0.10238229 0.029035296 0.13172147
000060 fa e2 dd 3c d8 e6 5f bd 8d d0 77 3d c2 92 fb 3d
       0.02708577 -0.05466351 0.060501624 0.12283851
000070 db a1 86 3d 83 a8 ac 3c 99 db 7a bd 10 50 1f bd
       0.0657384 0.021076446 -0.06124458 -0.038894713
000080 49 40 de bc 15 67 43 bc e8 52 ff 3b db 3b ed bd
       -0.027130263 -0.011926432 0.0077918656 -0.11583682
000090 4d b1 c4 bd ff 4d dc bd 97 40 bd 3d 70 48 07 3e
       -0.0960413 -0.10757064 0.09240835 0.13211226
0000a0 bd 49 2d 3d f1 1c 79 3d b7 1f cb bd 1d 93 a5 bd
       0.04230665 0.060818616 -0.099181585 -0.080847
0000b0 98 fe 19 3c 0c 75 90 3d 76 55 30 3d 9a d2 86 bd
       0.009399079 0.07053575 0.043050252 -0.06583138
0000c0 b3 cd a2 3c 9b f3 d6 bc 68 20 e6 3c e8 2c 8c bb
       0.019873476 -0.026239207 0.028091624 -0.004277814
0000d0 6f 18 7f 3c d5 3c 33 bd 97 7b 3a 3d 94 49 b8 bd
       0.01556979 -0.043759186 0.04552802 -0.08998409
0000e0 e9 1d 34 bd b1 ec c9 39 2d c7 17 3d c7 dd 0f 3d
       -0.043973837 0.00038514056 0.037055183 0.035123613
0000f0 f5 bb 82 3d d5 8f 8f bd 67 f9 e8 bc f7 12 cc bd
       0.06383506 -0.07009856 -0.028439237 -0.09964555
000100 97 8b 8e bd 46 05 98 3d 5d 36 0f 3e 43 d7 64 bd
       -0.069602184 0.07422881 0.13985582 -0.055869352
000110 7c f3 52 bd b6 d9 db 3d ec c1 f7 3d 96 9c ed 3d
       -0.051501736 0.107348844 0.120975345 0.11602132
000120 35 9c dc 3d bd d9 f7 3d 6d 9c 12 3d f4 3e 94 3d
       0.107719816 0.12102077 0.03579371 0.0723857
000130 1d ab 05 3d 5b 2b ba 3c 2b 47 4f bd 70 f4 36 bd
       0.03263389 0.022725752 -0.05060498 -0.044666708
000140 85 3e 4b bd 8e 0e b2 bc d6 f8 eb 3d b2 1c a9 bd
       -0.04962017 -0.021735456 0.11522071 -0.08257426
000150 d5 6b d2 3d 29 30 2c bc 13 4b e9 3c 4a a1 8a 3d
       0.102744736 -0.010509529 0.028478181 0.06769045
000160 16 c3 f5 3c ee a9 94 bd dd 49 81 3b 33 88 d9 3d
       0.03000025 -0.07258974 0.003945573 0.10621681
000170 e5 84 87 3d 0f 04 05 be 47 5a 85 3d ed 4a ac 3c
       0.066171445 -0.1298983 0.0651136 0.021031821
000180 f5 ef 43 3c 3b c7 b3 3d e1 49 b9 3d 7a ee ea bd
       0.011959066 0.087782346 0.090472944 -0.11471267
000190 aa 78 b8 3a d4 71 c4 bd af e2 f5 3b 23 94 66 bd
       0.0014074047 -0.095920235 0.0075038294 -0.056293618
0001a0 0d 0c 7f 3d a9 5c 25 3d bf 48 4d bd b7 3d c9 3d
       0.062267352 0.04037157 -0.050118204 0.09826224
0001b0 a9 06 38 bc 21 fa 12 3c eb 13 b7 3d 80 bc 64 3c
       -0.011232057 0.008970768 0.08939346 0.0139609575
0001c0 da 86 49 3d 16 65 35 3c 9b 4d 5c 3d 4d f0 cf 3d
       0.04920087 0.011071464 0.053784948 0.101532556
0001d0 ea 5a 86 3d 64 a3 31 bc 62 5d 8d 3d 03 d5 74 bd
       0.06560309 -0.010842178 0.06902577 -0.059773456
0001e0 4f 32 ee 3d 50 33 b3 bd 6c 6c 3f bd 18 1f 1d 3c
       0.11630689 -0.087500215 -0.04673426 0.009589933
0001f0 53 c6 8d bd 31 ed 5c 3c df dd 40 3d 9a ab f2 3d
       -0.06922593 0.013484285 0.047086593 0.11849137
000200 79 ca 75 3c 08 b8 da 3d e7 03 e4 3c 2a d9 ae 3d
       0.0150018865 0.106796324 0.027833892 0.085375145
000210 59 d5 a4 bb 4f a5 97 3d c5 90 b8 3d ae 05 c6 3d
       -0.005030316 0.07404577 0.090119876 0.09669052
000220 f2 5e 2c 3c f8 cc c3 3d c6 c8 56 3c 73 ec 05 3d
       0.010520684 0.09560579 0.013109392 0.0326962
000230 cc 92 ad 3d 80 98 f5 bd 0a ea 9e bd dc 39 0d be
       0.08475265 -0.11991978 -0.07759483 -0.13791603
000240 c3 e5 9f 3b 0a ef 0a be de 64 b4 bd bd 9c da 3d
       0.0048796847 -0.13567749 -0.088083014 0.10674427
000250 db d7 47 bd 5a 7f 21 3d dd 74 be bc 68 6f 26 3c
       -0.04878984 0.039428093 -0.023249084 0.010158397
000260 b7 b4 a0 3d e0 b4 f7 bd 46 a4 59 bb ab a0 96 3d
       0.078469686 -0.12095046 -0.0033209487 0.07354864
000270 90 a7 4c bc 96 7d a1 bc 20 83 b5 3d d0 ed 5e 3d
       -0.012491122 -0.019713204 0.08862901 0.054426014
000280 90 78 61 3c 28 40 ba bd 50 6b f4 bd 7d 7a f6 bd
       0.0137616545 -0.09094268 -0.11934531 -0.120350815
000290 9b 15 2a 3d a6 94 cc 3d da 75 c8 bd f8 81 a0 3c
       0.04152451 0.0998929 -0.097881034 0.019593224
0002a0 1d 85 ef bd ca 2d 17 bb 49 fe f7 3d 1c 54 f9 bd
       -0.11695311 -0.0023068064 0.12109048 -0.12174246
0002b0 e8 cc ee bd 1b a0 b2 3d 85 cf 70 bd f8 31 26 3d
       -0.116601765 0.08721944 -0.058791656 0.040574998
0002c0 ec 1f d9 bd 59 23 45 bc e5 14 e1 3d c7 8c 11 bc
       -0.10601792 -0.012032353 0.109903134 -0.008883662
0002d0 0d 4f 4b 3b 40 a6 a9 3d c7 14 a2 bd a4 ff e2 bd
       0.003102246 0.08283663 -0.07914119 -0.11083916
0002e0 b8 ea bc bd 5a 7f bb bd 98 67 d0 3d 8f ea 60 bc
       -0.092244565 -0.0915515 0.10176009 -0.013727798
0002f0 98 c5 8c bd 63 a5 61 3d fc 7a 9a bd fc c1 ca 3d
       -0.068736255 0.055089366 -0.07542989 0.09900281
000300 eb 61 ad bd c8 4e 94 bd fd 21 8f bd f1 1e f7 3d
       -0.08465942 -0.07241589 -0.069889046 0.120664485
000310 35 97 8e 3d 78 bc e8 bc 3c 74 ae bb 80 10 87 3d
       0.06962434 -0.028410181 -0.005323915 0.06594944
000320 a6 9d 39 bc 31 bb 8c 3d bb 5e d5 3b 63 16 af bb
       -0.01132909 0.068716414 0.006511537 -0.005343245
000330 89 9f 8f 3d d1 eb 7e 3d cb ab 62 bb f1 98 d9 bd
       0.07012851 0.06223661 -0.003458726 -0.106248744
000340 1e b9 e4 bc 7c 22 cd 3d 6f 9b 79 bd bb bb a0 3d
       -0.027920302 0.10016343 -0.06093925 0.07848307
000350 c6 40 01 bd cf 36 a1 bd 82 0e 93 3d ad e6 03 3e
       -0.031555913 -0.07871782 0.071805015 0.12880965
000360 f6 e3 6e 3d df 00 db 3d f4 8f cb bd 40 bf b1 3d
       0.05832287 0.106935255 -0.09939566 0.08679056
000370 1f 9c e2 bd 87 2c cb 3d 91 17 05 bb cd 67 85 3d
       -0.11064934 0.09920602 -0.0020308236 0.06513939
000380 3b 0b 38 bd 19 79 f8 3d 0c cd 82 bd bc f5 1f 3d
       -0.044932585 0.121324725 -0.06386766 0.03905271
000390 a2 fb 2f 3d b9 09 de 3c fc b6 ca 3b 79 4a 03 3e
       0.042964585 0.027104245 0.006186364 0.12821378
0003a0 2b c8 f4 3d 9b 92 0e bd 6c 89 ab bd cf 95 31 bd
       0.119522415 -0.034807783 -0.083758205 -0.04335576
0003b0 da 53 95 bc ea 97 91 bd 63 0b f1 3d 71 a1 b0 3d
       -0.01822846 -0.071090534 0.1176975 0.086245425
0003c0 92 7b 3d bd 8a 51 87 bd 6f 20 a4 bc 78 66 0a bd
       -0.046260424 -0.06607349 -0.020034997 -0.033789128
0003d0 1c de d9 bc d4 14 65 bc 6f b3 d9 3d 70 23 b0 3d
       -0.026595168 -0.013982017 0.10629927 0.08600509
0003e0 55 a9 1b 3d 1e e9 cb 3d 9c d1 9c 3d 6f 3e c6 bd
       0.038003284 0.09956573 0.07657167 -0.09679877
0003f0 a6 6a 08 3e 25 25 8d bd b5 29 dd bd 43 45 c4 3d
       0.13321933 -0.068918504 -0.107989706 0.09583523

lstm.bias_hh_l0 f4 [256]
000000 b2 db f4 3d bf f5 b5 bd 16 12 16 3d 79 e8 bc 3c
       0.11955966 -0.08884763 0.03663834 0.02306007
000010 2a c4 82 bd 76 8c de bd 62 e2 f0 3d 83 73 fd 3d
       -0.063850716 -0.108666345 0.11761929 0.12375548
000020 0c 42 36 bd f5 b3 06 3e b8 80 e7 bd f5 0d eb 3d
       -0.04449658 0.13154586 -0.11303848 0.114772715
000030 36 2c 48 bd 6e 78 b2 bd 5e 45 4a 3d 6a 2f c0 3c
       -0.048870288 -0.087143764 0.04938256 0.023460109
000040 c9 d9 fa 3a 4d 21 78 bd 00 15 5e 3b 8d 3c 00 be
       0.0019138391 -0.060578633 0.0033887029 -0.12523098
000050 f4 b1 a7 3d 0b 92 0b 3c 9b 75 ec 3d 90 b0 a5 3d
       0.08188239 0.008518706 0.11545869 0.08090317
000060 da df ef 3c 74 32 6e bd ba 20 dd ba e8 dd 02 3e
       0.029281545 -0.058153585 -0.0016870715 0.12779963
000070 87 90 cd 3d c6 6f 25 bd 76 61 19 3c 45 50 95 bd
       0.10037332 -0.0403898 0.009361615 -0.07290701
000080 2e d2 51 3d 64 bb 86 3c 80 74 c4 bd d1 5c c8 3c
       0.051225834 0.016446777 -0.09592533 0.02445832
000090 ba 3f 0a bc 98 03 2a 3d 62 4d f9 3d fd ea 24 3d
       -0.008438045 0.041507334 0.12172963 0.040263165
0000a0 6d 76 a1 bd cc af 86 3d 6d 13 ea bd a3 1c bc 3d
       -0.07883916 0.06576499 -0.114294864 0.091851495
0000b0 6c ff d7 3c d4 6d 82 3d 7a 7b 6d bd 1d a1 24 bc
       0.026366912 0.06368604 -0.057979085 -0.010048178
0000c0 3b 23 78 3d 8f ea 09 be 10 f3 a8 3d 8d e3 df 3d
       0.060580473 -0.13468383 0.082494855 0.10932074
0000d0 7d 30 0c 3d d9 be dc 3d fd 1a 83 3d bb 09 1c bd
       0.03422593 0.10778589 0.06401632 -0.038095217
0000e0 6e e4 f2 bb 98 50 ec 3d 87 aa 95 3c ae 9d bd bd
       -0.007412485 0.115388095 0.01826979 -0.09258591
0000f0 64 e8 0b 3d 3c 30 d0 b9 55 fa 7a 3c 14 7d 27 bd
       0.03415717 -0.0003970879 0.015318473 -0.04089077
000100 0d 4d fe bc e2 a4 08 bc b5 7f d9 bd fa 10 04 3e
       -0.0310426 -0.008340092 -0.10620061 0.12897101
000110 04 d5 a5 bd 1e 6e a6 3d ba c5 23 b9 e2 21 40 3c
       -0.0809727 0.08126472 -0.0001561855 0.011726828
000120 45 93 f2 3d 4c 93 ff 3d ca 31 72 3d bf 78 8c 3d
       0.11844496 0.124792665 0.059129514 0.06858968
000130 3a f4 0c 3e d8 6a ac bd b7 6c e4 3d a8 99 de bd
       0.1376504 -0.08418816 0.11153548 -0.10869151
000140 45 53 0c bc 90 86 d5 3d 52 6b 4a 3b 8a fa ed 3c
       -0.008564775 0.104260564 0.0030886722 0.02905013
000150 cd 92 98 3d f2 4a 02 3e 2a 0f ba 3d 09 7d da 3d
       0.07449875 0.12723902 0.090849236 0.1066838
000160 be ae 4a 3d d2 4d de 3d 29 50 cc bc 17 7f f2 3d
       0.049483053 0.10854687 -0.024940567 0.11840647
000170 6b 76 fc bc 52 83 e9 bd 59 9d b0 bc a4 09 d8 bd
       -0.030818185 -0.114020005 -0.021559404 -0.10548714
000180 81 47 d9 3d 3f 8a 14 bd 17 8c 8c 3d b5 4b 34 3c
       0.106093414 -0.036264654 0.068626575 0.011004378
000190 73 81 d1 bd ca f3 e2 bc 41 bd c4 bd fe d3 a7 3d
       -0.102297686 -0.027704138 -0.0960641 0.08194731
0001a0 5f dc 03 3b 68 e4 cf 3d 45 d4 06 3c 27 92 ad bd
       0.0020120365 0.10150987 0.00822932 -0.08475142
0001b0 34 d4 9b 3c c4 af dd 3d 95 9f fa bc e9 e1 0e 3e
       0.019022085 0.1082454 -0.030593673 0.13953365
0001c0 11 af e1 3c 8d 20 8a bd 1e 65 09 3e d2 18 65 bd
       0.027549298 -0.0674449 0.1341748 -0.055931874
0001d0 b4 01 2b 3d 04 33 49 3d e5 c5 d5 3d 43 a3 5d bd
       0.04174967 0.049120918 0.10438136 -0.054110777
0001e0 4c 07 b0 3c 9d 1b aa bc 36 87 78 bd 02 50 11 bd
       0.021487854 -0.02076512 -0.060675822 -0.035476692
0001f0 6b 07 fc 3d f8 1c 5e 3d 49 72 be 3d 26 44 87 3d
       0.12306102 0.054226846 0.09299142 0.06604795
000200 c9 70 44 bc 33 7e 79 bc fa d8 e5 bc a4 c7 33 bd
       -0.011989781 -0.015227842 -0.028057564 -0.043891564
000210 73 a5 91 bc c1 00 71 3d c4 90 da ba 45 17 2d 3d
       -0.017779088 0.05883861 -0.0016675224 0.04225852
000220 74 a5 ce bd 50 5b f5 3d b0 fa 03 3e e7 34 7b bc
       -0.100901514 0.11980307 0.12888598 -0.015332437
000230 17 f3 24 bd f7 50 37 bd c8 d4 55 3d 1a 93 ce 3d
       -0.04027089 -0.04475495 0.052204877 0.10086651
000240 75 27 8b bd fe fa db 3d 29 ab e4 3c f1 52 ee bd
       -0.06794635 0.10741232 0.027913647 -0.116369136
000250 7a fb a1 bc 26 2b 7e 3d a3 c1 02 bd b9 ca c3 3d
       -0.019773234 0.06205287 -0.031922948 0.09560151
000260 4f 51 a1 3b 30 68 89 3d 82 0f 79 bd 79 d4 f4 3d
       0.004923023 0.06709325 -0.060805805 0.119545884
000270 7b 6d d5 3d fc 84 6f 3d d6 e2 69 bc d2 9f 32 3d
       0.10421272 0.058476433 -0.014275273 0.043609448
000280 6d c5 2f 3d 2d 99 19 bb b9 ef 2a bc df 0c b5 3d
       0.04291289 -0.0023437247 -0.010433131 0.088403456
000290 f5 96 c4 3d 6c fb fe 3d 0d 24 36 3d 8a 1d aa bd
       0.09599105 0.12450299 0.044467974 -0.083064154
0002a0 42 01 a4 3c e8 90 0a be 1b b4 05 3e 96 80 f2 bd
       0.020020131 -0.1353184 0.13056986 -0.11840932
0002b0 2e a5 cd bd e1 13 b8 3d 0b 5e 03 bd d8 7d 51 3d
       -0.10041271 0.089881666 -0.03207211 0.051145405
0002c0 de d8 d0 3d 8d fe 95 bd 9d 56 5e bd ff fb 73 bd
       0.10197614 -0.07323942 -0.05428182 -0.059566494
0002d0 b3 6d 07 bd 10 b0 52 bd c5 30 b8 bd 50 23 56 3d
       -0.0330636 -0.051437438 -0.08993677 0.05227977
0002e0 61 fb 05 be 20 c2 d0 bd 16 4a 00 3d 72 83 f6 3d
       -0.13084175 -0.101932764 0.031320654 0.1203679
0002f0 c6 5f 8f bd d2 e3 9d 3d c2 b8 96 bd 1e 5a 95 bd
       -0.07000689 0.07709469 -0.073594585 -0.07292579
000300 11 a5 13 bd f5 1f a1 3d 57 b1 c2 3d 8c 73 39 3d
       -0.03604609 0.078674234 0.09506481 0.04527621
000310 25 f7 b5 3d 7a ac 5e bd e9 a0 98 bc 90 25 8e bd
       0.0888503 -0.054363705 -0.018631415 -0.06940758
000320 40 e0 4f 3d dd de 8b bd 35 bb 5d bd 1b 40 8c ba
       0.05075097 -0.06829617 -0.054133613 -0.0010700257
000330 0e 95 ba bd ce df 79 bc 39 cb 9f bd 93 94 90 bc
       -0.09110461 -0.015251113 -0.078024335 -0.01764897
000340 cf 16 e5 3d 42 ae 94 3d 74 12 7e bd 50 02 00 3e
       0.11185991 0.072597995 -0.062029317 0.12500882
000350 4a 85 c9 3d 3f b1 d3 3d e0 5d dc bd d3 be 00 3d
       0.09839876 0.103365414 -0.10760093 0.031431984
000360 7e ce a7 3d 4d b9 c2 b9 0a a1 0d bd b4 a1 bd bd
       0.08193682 -0.00037140623 -0.034577407 -0.09259358
000370 0d c8 86 bd 31 76 ad 3d d4 19 4c bc 7e 8f c8 bc
       -0.065811254 0.08469809 -0.01245733 -0.024482485
000380 28 ff 0e 3e b5 a5 46 bd b7 97 fb 3d 8c 6b 62 bd
       0.13964522 -0.048497874 0.12284797 -0.055278346
000390 12 5b 2c 3d 9c 5d ee 3d b0 94 68 bc 8c 03 b2 3c
       0.04207904 0.11638948 -0.014195606 0.021730207
0003a0 47 7a 46 bd 0b 7f e0 3d c4 98 ad 3d 43 43 82 3d
       -0.048456457 0.109617315 0.08476403 0.063604854
0003b0 24 15 9a bd 94 ab ec bb 11 91 ad bd 17 07 c9 bd
       -0.075235635 -0.007222602 -0.08474935 -0.098158054
0003c0 8d 63 af 3c bd 64 e8 bd da ae bf 3c fa a4 be bd
       0.021409774 -0.11347339 0.023398805 -0.093088105
0003d0 50 98 5a bd 5d 8e ec 3b e4 c4 75 3d e6 9e c6 bc
       -0.053367913 0.0072191195 0.060002223 -0.02424569
0003e0 75 71 5b 3d 34 6c c0 bd 83 7d f6 3d 1f 77 bf 3c
       0.053574998 -0.09395638 0.12035658 0.023372231
0003f0 2e 85 8a bd 5d 41 2d bc a6 41 d7 3c 00 60 3a bd
       -0.06763683 -0.010574666 0.02627642 -0.04550171

lstm.weight_ih_l0_reverse f4 [256, 32]
000000 3a a2 2f bd 0f 36 c7 3d 3e 38 0f be 8a c1 9a bd
       -0.04287932 0.09727108 -0.13986298 -0.07556446
000010 66 fa 3b bd 49 94 db bd a9 e2 34 bd 82 ca 90 3d
       -0.045893095 -0.107216425 -0.044161472 0.07069875
000020 92 72 2c bd 54 4a cb 3d b5 c0 2b bc 6f 05 49 3c
       -0.04210145 0.09926286 -0.010482957 0.012269362
000030 dd 29 de bd 82 44 92 bd bc 5b 47 3d 59 69 53 3d
       -0.108478285 -0.07141973 0.04867147 0.05161414
000040 ce 28 9a 3c 4d 98 c6 3b a4 3c e0 3d 8b 08 a8 bd
       0.018818285 0.006060636 0.10949066 -0.082047544
000050 a6 7b c3 bd 1e b2 f7 bd 10 5a 15 3d af 9a f6 3c
       -0.095450684 -0.1209452 0.036462843 0.030103056
000060 1c d2 15 bb 0e 11 0a 3e d3 36 a2 3d 55 9a 9c bc
       -0.002286083 0.13483068 0.07920613 -0.01911656
000070 ce f9 8d bd ca 23 99 3d 64 aa de 3c 4f 05 de 3c
       -0.06932412 0.07477529 0.027180858 0.02710214
000080 b2 a4 ea bc a3 cc 81 3d eb 53 f7 bd b3 57 87 bc
       -0.028642986 0.063378595 -0.12076553 -0.01652131
000090 85 c7 95 bc 61 65 9d bd 0a b7 c5 3d 81 6b cb bd
       -0.018283615 -0.07685352 0.096540526 -0.09932614
0000a0 b0 e1 b2 3c c2 81 48 bb af cc f3 bd 29 23 c7 3d
       0.021836132 -0.003059492 -0.11904275 0.09723503
0000b0 54 c3 b0 3c fa ca cb bd f1 8f 04 3e 43 51 88 3c
       0.021577515 -0.09950824 0.12945534 0.016640311
0000c0 dd 0d cf 3d 6e aa 98 3d ca 10 07 bc a1 a3 fc 3c
       0.10110066 0.07454382 -0.008243749 0.030839743
0000d0 c2 6c 8d bd 32 a4 e9 3d bf 4d 2b bd 72 f2 83 bc
       -0.069055095 0.11408271 -0.04182219 -0.016106818
0000e0 6a 8f f0 bd 9a 4d eb bd 36 d0 51 3c ab 8f 8e bc
       -0.11746104 -0.11489411 0.012805989 -0.01740249
0000f0 9b cd 9d 3c 46 80 df 3d 81 a9 ca bc 1e 49 c7 3c
       0.01926308 0.10913138 -0.024739029 0.024326857
000100 c9 83 74 3d 0d 7f 88 3d bc 95 4f bc bb 74 8d bd
       0.059695993 0.06664858 -0.012669977 -0.0690703
000110 73 20 3d bd ef 10 d5 bd 2a 56 79 bc 46 b2 f2 3d
       -0.046173524 -0.104036205 -0.015218297 0.11850409
000120 26 7e 47 3d fc e6 1e bd 1e 2d db bd 26 c1 21 bd
       0.04870429 -0.038794503 -0.10701965 -0.03949084
000130 42 96 42 3d e5 f8 c1 bc f9 d0 06 be 32 10 e0 bd
       0.04750658 -0.023678252 -0.13165654 -0.10940589
000140 94 a1 f9 38 10 21 59 3d bc 14 9b bc 68 40 48 b9
       0.000119033415 0.053010046 -0.018930785 -0.0001909748
000150 4e 02 5a bd e1 45 aa bd c6 9a 12 3d b4 bc 07 be
       -0.053224854 -0.083141096 0.035792135 -0.13255578
000160 c9 dd d3 bc bd 9f d0 bc 7a 5b b7 3d fb 00 02 be
       -0.025862591 -0.025466794 0.08952995 -0.12695687
000170 20 a8 83 3c 08 ff df 3d bf e7 66 3d 40 d8 2c bd
       0.01607138 0.10937315 0.056373354 -0.04219842
000180 22 fe 71 3d ea c8 9a 3d 85 92 8b bd a8 19 a7 3c
       0.05908025 0.075578526 -0.06815056 0.020397976
000190 06 61 d6 bd 25 1e d6 3d 12 cb b2 bd a0 dd 12 bd
       -0.104677245 0.10454968 -0.08730139 -0.03585589
0001a0 73 3c b7 bc de 92 2d bd c5 72 15 3c a0 14 19 bc
       -0.022367692 -0.04237639 0.0091216015 -0.009343296
0001b0 0e db ad 3c f6 d4 1c be cc 83 8b bd 92 55 02 bd
       0.021222617 -0.15315613 -0.06812248 -0.031819887
0001c0 9d e4 80 3c 09 71 cc 3d 21 01 0b 3e 61 79 e8 bd
       0.015734011 0.09982497 0.1357465 -0.11351276
0001d0 7e 0a 5f 3d eb 66 8e bc 7c b5 c7 bc b3 fa 8e bd
       0.054453366 -0.01738306 -0.02437853 -0.06981411
0001e0 01 06 e7 bd 69 27 cc bc 4a d3 a1 3d a3 a5 e7 3d
       -0.11280442 -0.024921136 0.07901628 0.113108896
0001f0 cb 91 03 bd df d8 05 3e 0d 4a b5 3d 79 60 a1 bc
       -0.03212146 0.13071011 0.08852015 -0.019699322
000200 4f 01 79 3d 1a fb 4d 3d a5 09 46 bc 1a 96 08 3e
       0.060792264 0.050288297 -0.01208726 0.13338509
000210 59 b3 89 bd 79 7d a0 3d cd b1 8d bd fb e6 31 3d
       -0.06723661 0.07836432 -0.069186784 0.04343317
000220 71 57 a4 3c 14 db 44 bd 1c 99 91 3c e9 18 9e bd
       0.020061227 -0.04806049 0.017773204 -0.07719595
000230 40 52 8b 3d 5b 97 23 3c a9 03 10 bd dc 09 47 3d
       0.06802797 0.009984816 -0.03515974 0.048593387
000240 02 a5 04 3c 8e 85 92 bd af 1d 36 bc 30 b5 88 3d
       0.008095982 -0.0715438 -0.011115476 0.06675184
000250 49 cd f6 3d e4 88 07 3d ae 8e ac bc ea da d5 bd
       0.12050874 0.033089533 -0.021064129 -0.10442145
000260 0e 66 4b 3d cb 9d ac 3d 47 31 15 bd 50 97 31 3d
       0.049657874 0.08428534 -0.036423948 0.043357193
000270 7d d8 1a bd fe e6 01 3e 71 cc d4 3d 12 c1 d1 bd
       -0.037804116 0.12685773 0.103905566 -0.10241903
000280 83 51 e4 3d e0 60 8a 3d e7 cd ff bd be bd 21 3d
       0.111483596 0.06756759 -0.12490445 0.039487593
000290 a8 04 85 3b 83 27 a7 bd fe 4d de 3d 48 f6 5f 3d
       0.004059393 -0.08161833 0.108547196 0.05467823
0002a0 a6 88 48 3d a6 31 07 be 6a 45 6a 3d e2 77 d2 3d
       0.048958443 -0.13202533 0.057195105 0.10276772
0002b0 d6 6c b5 bd fb a1 d6 bc 61 0a ef bd 89 6b a1 bd
       -0.088586494 -0.026200285 -0.116719015 -0.07881839
0002c0 aa a8 3a bd fc ad b1 3d 80 61 dc 3c 87 6b d5 bd
       -0.045571007 0.08675763 0.02690196 -0.104209
0002d0 38 64 32 3c 23 ba f7 3c 46 ff 64 3d 5b a4 5e bd
       0.010888152 0.030240124 0.05590751 -0.05435596
0002e0 6b ac e2 bd 8f 29 11 bd 30 7f b1 3c 52 48 a3 3b
       -0.11068042 -0.035440024 0.021667093 0.0049829865
0002f0 18 34 4a bd 6d e4 de 3d 9f a4 98 bd fd 5b c5 bd
       -0.049366087 0.108834125 -0.07453274 -0.09636686
000300 ae 67 8d 3c 4c 28 8e 3d 0e bb 88 bd 6d 02 b8 3c
       0.017261352 0.0694128 -0.06676303 0.022462094
000310 c8 f2 da 3d bd bf a3 bd e2 a9 dd 3d 04 c5 98 3c
       0.10690838 -0.079955555 0.10823418 0.018648632
000320 11 9d 8a bd 89 7f 82 bd 87 41 dd bd 0d 39 d6 3d
       -0.06768239 -0.06371982 -0.10803514 0.104601
000330 81 8e 19 bd e6 5a 38 bd 7b 90 84 3d df b9 f5 3d
       -0.037489418 -0.045008563 0.0647287 0.11998343
000340 bb 57 e4 bd 0e 17 69 bd d9 a7 58 bd 3a f6 0b bd
       -0.11149546 -0.056906752 -0.052894447 -0.034170367
000350 2c e8 1f 3d cc 24 f0 3d e5 85 f9 bd 38 15 87 3d
       0.039039776 0.117257684 -0.121837415 0.06595844
000360 57 ac e8 bd 8e cf da 3c 4b 9f e7 bd dd ea a2 bc
       -0.11360996 0.026710298 -0.113096796 -0.019887382
000370 d2 9e 03 be ce 48 e0 bc a6 18 69 3d d6 10 85 bd
       -0.12853554 -0.027378466 0.056908272 -0.06497352
000380 18 96 2b 3c 67 44 da bd 91 ba b1 bd cd 97 fc 3d
       0.010472797 -0.10657578 -0.08678163 0.12333641
000390 c0 44 dd 3c e6 07 52 3c 4c 06 e6 3d e2 e7 86 bd
       0.027010322 0.012819266 0.1123167 -0.06587197
0003a0 bd e4 04 be 07 d4 51 bd fa 9e bb 3d 6d 03 cc bd
       -0.12977882 -0.051227596 0.09161182 -0.09961591
0003b0 7c f4 00 be 33 3f 9c bd db 6e a7 bc fb a5 bf 3d
       -0.12593263 -0.07629242 -0.020438602 0.0935783
0003c0 a3 3a e4 bd 07 54 e6 bd e2 ac db bd c3 88 7c bd
       -0.111439966 -0.11246496 -0.10726334 -0.061653864
0003d0 ca b0 6b 3d 29 06 07 bd 30 f8 04 3d 38 14 0c bd
       0.057541646 -0.03296486 0.032463253 -0.03419897
0003e0 28 71 45 3d 95 d3 8c 3d 0a 09 a0 3d cd 61 c6 bc
       0.048203617 0.068762936 0.07814224 -0.024216557
0003f0 57 ff da 3d f3 35 a6 bd 2a 23 eb 3d 27 da b3 bd
       0.106932335 -0.08115759 0.114813164 -0.08781844

lstm.weight_hh_l0_reverse f4 [256, 64]
000000 b4 97 b7 3d 8a f7 c1 bd fb de a0 3d 9e b8 b8 3c
       0.08964482 -0.094710425 0.0785503 0.02254897
000010 1e ab cd 3c 41 ac 20 3d e6 40 1c 3d 36 d2 d1 3d
       0.02510601 0.039226774 0.03814783 0.10245173
000020 d8 5c 8c ba 99 15 d9 bc 6e c8 f9 3d 08 58 51 3b
       -0.0010708822 -0.026499556 0.12196432 0.003194334
000030 dd 21 14 3e 9f 1d 2d bd b7 3f aa bc be c2 1e bd
       0.14466043 -0.042264577 -0.020782335 -0.03875994
000040 54 16 00 be 35 d5 1d 3d 87 7c a9 3d ec 4f fe 3d
       -0.12508518 0.03853341 0.08275705 0.12417588
000050 57 1d b7 bd 66 8e db bd 56 06 0f 3e 89 86 b8 3c
       -0.08941143 -0.1072052 0.1396726 0.022525089
000060 3b 88 30 bd fd 81 8a 3b 90 d4 63 3d 3a dd b7 3d
       -0.04309867 0.0042269216 0.055622637 0.089777425
000070 1a 20 7f 3d 6a b9 18 3d cd 15 f9 bc 45 7b 3c 3d
       0.062286474 0.0372862 -0.030405903 0.046015996
000080 08 13 97 bd c4 d6 09 3b 00 26 09 3e cb c0 92 3c
       -0.07376677 0.0021032551 0.13393402 0.017914196
000090 c1 a5 16 be 60 0b b1 bd ce cb 00 be d6 9b 75 bd
       -0.14711668 -0.08644748 -0.12577745 -0.05996307
0000a0 fa ef 40 3d 16 8d 2b bd 3d 64 24 3c bc 47 f1 bd
       0.04710386 -0.041882597 0.010033664 -0.1178126
0000b0 21 0a 8e bd e7 ff d4 bd 05 fc c7 bd 5d cd 52 bb
       -0.06935526 -0.10400372 -0.09764866 -0.0032165863
0000c0 4d 33 b6 3c 77 90 73 bd 6a 74 a1 bc a8 3e ac 3d
       0.022241259 -0.059463944 -0.01970883 0.08410388
0000d0 5c 68 c6 3d e8 bd b3 3c 02 cb 05 3e e5 d1 0a 3d
       0.09687874 0.02194114 0.13065723 0.033891577
0000e0 12 1d 53 3c 0c 7e 32 3c 18 08 56 3d 28 05 22 bc
       0.012885349 0.01089431 0.052253813 -0.009888925
0000f0 09 80 d4 bd 46 f5 d6 3d 01 2b 86 bd bc f0 a5 3a
       -0.10375983 0.10496001 -0.06551171 0.0012660245
000100 87 18 cb 3c dd b8 aa bd 9e fa 6e bd cc 1f cd 3c
       0.024791969 -0.08336041 -0.058344476 0.025039576
000110 b7 46 66 3d c0 2d ab 38 10 b2 98 bd 77 94 20 3c
       0.056219783 8.162437e-05 -0.07455838 0.009801022
000120 46 a5 29 3b 29 0d 02 bd 12 77 fb 3d 70 0f 7c bd
       0.0025885864 -0.03175083 0.1227857 -0.06153816
000130 89 42 d5 bd 5d 1d 1f bc 70 07 c3 bd 6d 8a ed 3d
       -0.10413081 -0.009711591 -0.09522903 0.11598668
000140 1f 4b c8 3c 7d 13 ef bd 5c eb 64 3d ca 29 bf bd
       0.024449883 -0.11673639 0.05588852 -0.093341425
000150 7b d7 dc 3d 9f b9 7d 3d c7 91 9d 3d de bc cb 3d
       0.10783287 0.0619446 0.076938204 0.09948133
000160 10 54 dc bd 80 47 c2 3c 5b 9b ef 3d 37 b9 86 3d
       -0.10758221 0.023715734 0.116995536 0.06578296
000170 64 62 93 bd a9 e3 a6 bd fc 11 bb bd 7a bf 12 3c
       -0.07196501 -0.081488915 -0.091342896 0.008956784
000180 ac 2a 9c 3d 4b cd 09 3d 0a 4b 89 bd a5 b6 ea 3d
       0.076253265 0.03364305 -0.06703766 0.11460618
000190 1d 36 d8 bd 47 a7 d9 3d 9a 1e 94 bd f6 16 e6 3d
       -0.10557196 0.10627609 -0.07232399 0.11234848
0001a0 63 e0 dd 3c 23 81 63 3d cf ec da bd b2 24 c3 3c
       0.027084535 0.055543076 -0.10689699 0.023821209
0001b0 44 15 97 3d 2f 11 d0 3d e2 f3 1b bd fa 60 5d bd
       0.07377103 0.101595275 -0.03807438 -0.054047562
0001c0 9a 4e ab bc 9c 4e 27 bd 6c 45 77 bd eb ee a8 bd
       -0.020911504 -0.040846452 -0.06036894 -0.08248695
0001d0 98 97 e3 bd b6 81 ac 3c 82 ca 69 3d 98 ce b1 bb
       -0.111128986 0.021057945 0.057077892 -0.005426239
0001e0 a3 03 0a bd 33 82 37 bd 40 15 61 3d 62 a1 53 bd
       -0.033694874 -0.044801902 0.054951906 -0.05166758
0001f0 ac 67 1f 3d fd 8a ee 3c 4b f1 17 bc 68 ad e2 3d
       0.03891723 0.02911901 -0.009273837 0.11068231
000200 d1 96 d3 3b d1 2f 5f bd 00 f0 d5 bd 41 a0 b1 3d
       0.0064571877 -0.05448896 -0.10446167 0.08673144
000210 42 b3 0c 3e 29 29 ff 3c 26 b1 e1 bb a6 ee cd bd
       0.13740256 0.031147556 -0.006887573 -0.10055284
000220 b8 d5 e7 bd 73 ff 99 3d 7c e3 d0 3c 94 6d 3f 3c
       -0.113200605 0.07519426 0.025499098 0.01168384
000230 02 32 f3 bc 16 5a 0d be b7 1b 81 bd 88 81 8f 3d
       -0.029686932 -0.13803896 -0.06304114 0.07007128
000240 73 1c d0 bd 59 a6 56 3d 8e c3 cc 3d 30 2f 1f 3c
       -0.10161676 0.052404735 0.099982366 0.00971584
000250 13 02 84 bc 5f 4f 0f be b1 71 01 bd e5 6c c2 bd
       -0.01611427 -0.13995121 -0.031602565 -0.09493426
000260 30 67 0e bd 4c 29 0c bd 61 f7 83 3d 79 6c d9 3c
       -0.034766376 -0.03421907 0.06443668 0.026540982
000270 62 ff aa bd 2d af 4f 3d 52 69 06 be 30 6b e1 bd
       -0.08349492 0.05070417 -0.13126114 -0.110067725
000280 8c 40 42 bc 5f 07 e1 bd 02 8c 43 3c bc 28 02 3e
       -0.0118562095 -0.10987734 0.011935236 0.12710851
000290 24 44 12 bd ce eb 6f 3d 2d 69 ce bd 42 29 cd 3d
       -0.035709515 0.05857449 -0.100786544 0.10017635
0002a0 c7 42 cc 3d 72 92 2f bd c6 6f 2f bd 1b b0 14 be
       0.09973674 -0.04286427 -0.042831205 -0.14520304
0002b0 fd 54 0e 3d c5 8d b6 3c 03 f0 6c bd 56 5a 08 3e
       0.03474902 0.022284398 -0.05784608 0.1331571
0002c0 3a 78 5c bd 2e 36 dd bd d8 1d 80 3d 71 15 0b bd
       -0.053825594 -0.108013496 0.06255692 -0.033955995
0002d0 1c e0 de 3d 63 04 4c 3d 24 3d 81 3d c1 fd 9c 3d
       0.10882589 0.04980887 0.0631049 0.07665587
0002e0 a3 63 c2 bd 3a cf 80 3d b3 1c 7f bd c0 8e 84 bc
       -0.094916604 0.06289525 -0.06228323 -0.01618135
0002f0 ed e0 f9 3d ce 6c 78 3d de c8 92 bd dc ec 4e 3c
       0.12201104 0.06065064 -0.071672186 0.012629714
000300 bf 05 ea 3c f1 e9 cb bb 4a 39 fc bc e5 db 3e 3c
       0.028567193 -0.0062229563 -0.030789036 0.011649107
000310 2c 7e 05 3e 4d 31 01 bd 2c 72 34 3d 05 b7 0a bd
       0.13036412 -0.031541158 0.044054195 -0.033865947
000320 c5 6e 63 3d 14 5d 3b 3d 38 98 fd 3b a5 f0 d7 bd
       0.05552556 0.045743063 0.007739093 -0.10543946
000330 08 75 a0 bc 5e d5 8d bd ef 8c ba 3d 74 2a 84 3b
       -0.019587055 -0.06925462 0.09108912 0.004033381
000340 f8 13 d9 bd f7 a3 5b 3d 90 45 30 bd fd 48 d3 bd
       -0.10599512 0.053623166 -0.04303509 -0.10316656
000350 f6 4d e3 bd c5 77 c5 3d 4a d0 ae 3d 3c ee c1 bd
       -0.11098854 0.09641985 0.08535822 -0.09469268
000360 7d de f4 3d 61 7a f2 bd 59 b4 f4 3c 6b 15 62 bd
       0.11956499 -0.11839748 0.029871153 -0.055196207
000370 48 f6 1a 3d 4d 2d 3f bd 6a 22 0d be 37 9b b6 3d
       0.03783253 -0.04667406 -0.13782659 0.08916324
000380 2c 50 2a b9 52 2b b5 3d b4 bd cd 3d e7 34 cc 3d
       -0.0001624233 0.08846153 0.100459486 0.09971028
000390 aa 1e 5f 3c a5 4a c3 bd 89 f6 9f 3d 02 95 d1 3d
       0.013618151 -0.09535722 0.07810695 0.10233499
0003a0 0a 7a 48 3d c5 74 bd bd 50 3c 8d 3d 01 23 cd 3d
       0.04894451 -0.09250788 0.06896269 0.10016442
0003b0 76 7f ad 3d d2 bc e9 bd d9 c1 af bd b8 8e ed 3c
       0.08471577 -0.11412968 -0.085818954 0.028998718
0003c0 56 a4 a3 bd 02 b0 e7 bd 16 6e e5 bd 3c 88 5a 3d
       -0.07990329 -0.11312868 -0.11202638 0.05335258
0003d0 d7 1a d9 3d 3f 78 71 bd a4 e9 d2 bd f4 b2 59 bc
       0.106008224 -0.058952566 -0.1029847 -0.013287295
0003e0 28 9a cb bc af e8 2d bd 22 8c 94 3c 84 a2 42 bd
       -0.02485378 -0.042458232 0.018133227 -0.04751827
0003f0 79 6b 93 bd f8 6f ca bb 67 eb 10 3e 48 b6 ae bc
       -0.07198233 -0.0061778985 0.14152299 -0.021327153
