SecPPIS/output/model_epoch_8.pth (torch, 222997 bytes, 12 tensors)

embedding.weight f4 [8, 32]
00000000: 125a 083b 3dab 73bf 0086 b4be 8678 9e3f
00000010: 87d9 00be bc52 f53f efaf fabd a90b 0440
00000020: 7443 6bbf 562c 31bf e3f3 b23e f936 fa3f
00000030: 8465 12c0 31db acbd e8a9 aabd 489b d1be
00000040: 1a80 9b3f d009 e8bf ffe3 b43e dc81 b7bf
00000050: 2e2d ec3f 916e 03bf 33bd 443e d5e5 b4bd
00000060: 1fb1 3ebf f637 9f3f 2008 89be bafb 22bd
00000070: 2660 9b3e e425 c43f d959 7e3f 061a 08bf
00000080: 3941 aa3f 0ac5 233f 4d96 80bf 43c7 ac3f
00000090: 96c8 55bf 464c df3d 097c efbe 3e29 813f
000000a0: c702 8ebf 566e 5a3f 78cd d13e a0dd f63f
000000b0: 6ebb 263f e400 fd3e b487 eb3d 039d 923f
000000c0: 134a 273f 0b1f fdbf 7c89 253f 9917 95bf
000000d0: fc59 ffbe 6191 c43d 71fe 2fbf 8e23 793e
000000e0: c644 0d3a 9e36 6d3a dee6 83bf b9d0 f0be
000000f0: e75c 17bf 079f d4be 8363 1cc0 1e32 c63e
00000100: 2013 98bd 211d cbbf 9c7a 933f 43f9 943f
00000110: 6257 bdbf 6c41 ac3f f0d2 eabd 68e8 1cbf
00000120: a1d2 a03f 560d f03e bc49 36bc c616 b3bf
00000130: 4586 d43f 7d7d ad3e 723f f13e ceb7 9dbf
00000140: 3f9c 153e 3ac3 c5bf 099d 4ebf 3498 49bf
00000150: bd87 4abf 5301 09c0 5ca4 1d3e 5c19 c1bf
00000160: e6b3 e0bf d336 423f 981d 32be da17 cf3e
00000170: bacb c23d 1856 553f 7333 aa3d 3368 8dbe
00000180: 1e56 b23f ab67 7ebc c45d 483e fa28 893f
00000190: 6897 77bf ab02 1fbf 7e3c 1e3f affe a5be
000001a0: b33a 16be 7f0b a8be 1c08 a4be f2f5 623e
000001b0: feed 5f3f b77e 8bbf a789 b9be 80b8 19bf
000001c0: a8d9 27bf ca30 5abf 956e ac3f 7071 3c3e
000001d0: ce6e 483f e1ee 503f 1cb7 63be f53a 4440
000001e0: d4f6 84be b2fe e53f 6df4 ab3f 4875 b93f
000001f0: a62d 8cbf 86ed 30c0 b1ac 77bf 4790 b93f
00000200: 38e6 e23e cc09 b6bf 6ecd 3c3f d15b b13f
00000210: 6a27 00bf ce24 08bf 8266 44bf c2e1 833f
00000220: 7a8a 623f 01fa 263f d393 a93e bf47 9ebf
00000230: de69 40be 03f9 573f 89c0 07c0 e891 e0bf
00000240: d3c3 0940 8a4a 8c3e 3bf3 f03f c18b 88bf
00000250: c58d f5bf 8a0c 04bf f6de 9fbf ae58 8ebf
00000260: 916d 173f abdb c5bf ff54 dcbf 79c2 d33f
00000270: 5710 0ebf 7682 0240 3f90 7dbf 7125 24be
00000280: f9a9 4b3f c2c3 343d 6d1b 833d 43fe 873d
00000290: 061c 0c3e 7c53 f73f 349c 973f 9804 a2be
000002a0: 03c9 813e d623 4b3f bb69 f2bf 79bc c63d
000002b0: b95d 5abf 5f1b e9bf 2e28 dc3f 59a5 bc3e
000002c0: 60de 07bf 64e4 2740 b5cf 713f 60de c73e
000002d0: 188c fa3c 5163 c23e d2d2 923e 44cb d5be
000002e0: a739 bdbf 4391 fc3e 57dd c43e a297 943f
000002f0: 0cad 1ebe db59 793e 0109 263f 2f7a 243e
00000300: ad76 d8bc 676a 2640 6654 98bf b884 d2be
00000310: bb14 c5be 3f7b f73e f060 573e a3e9 b63f
00000320: a3ae 243f d189 68bf 1b29 61be d8c3 463d
00000330: 6173 c33e 226a 8d3f 0cca 91bf cad4 2d40
00000340: ec77 fe3e dfea d1bf f4ca 5d3e f0a0 3f3f
00000350: 0f11 8a3f 7cdb a83f cf7e f6bf 54ce a9bf
00000360: 31aa 47bf bca3 c73e 5c46 cdbf 34b0 9ebe
00000370: 466a a4bf b873 d63d 9bd5 fbbe 90aa 34bf
00000380: 4e57 353e b693 b13d 8c59 643d 6d3d 47bf
00000390: 02f9 9bbf fb9b 363e 7a52 02be da46 bcbf
000003a0: 41ff b7bf 05a9 6fbf fb02 a2bf f3a5 e13c
000003b0: 6e65 663f f1f2 803e df6c 08c0 1c2e 91bd
000003c0: e01d 74be d3ba f33e ac44 77bd 637f fcbf
000003d0: b9fe fabe 0122 d9bd 0493 a3bf 70d1 e03c
000003e0: b770 86bf 1140 5e3f 0225 b23f a750 8e3e
000003f0: 0a1a 6abf f43e adbd 3cf2 56be a599 313f
0.002080564 -0.95183164 -0.35258484 1.2380531 -0.1258298 1.9165874 -0.12240588 2.0632117
-0.918998 -0.69208276 0.34951696 1.9548026 -2.287446 -0.08440245 -0.08333188 -0.40938783
1.2148468 -1.8127995 0.35330197 -1.4336505 1.8451288 -0.51340586 0.19212799 -0.088328995
-0.74489015 1.2438953 -0.2676401 -0.039790846 0.30346793 1.5324063 0.99355847 -0.5316471
1.3301154 0.6397253 -1.0045868 1.349831 -0.83509195 0.1090322 -0.4677432 1.0090711
-1.1094598 0.8532461 0.40977073 1.9286385 0.65129745 0.49414742 0.11500493 1.1454166
0.65347403 -1.9775099 0.6466291 -1.1647826 -0.4987334 0.09598041 -0.6874762 0.2432997
0.0005388971 0.0009048971 -1.030483 -0.47034243 -0.5912613 -0.41527578 -2.4435737 0.3871011
-0.07425523 -1.5868264 1.1521792 1.1638569 -1.4792292 1.3457465 -0.114660144 -0.61292124
1.2564279 0.46885175 -0.011125978 -1.3991325 1.6603476 0.33884802 0.47118717 -1.2321718
0.14610384 -1.5450203 -0.80708367 -0.7874787 -0.7911337 -2.1407058 0.1539473 -1.5085864
-1.7554901 0.75864905 -0.17394102 0.40447885 0.09511514 0.83334494 0.083105944 -0.2761856
1.3932531 -0.015527646 0.19567019 1.071563 -0.967154 -0.62113446 0.61811054 -0.3242087
-0.1467083 -0.3282127 -0.32037437 0.22164133 0.8747252 -1.0898045 -0.36237833 -0.6004715
-0.6556649 -0.85230696 1.3471247 0.18402648 0.78294075 0.816145 -0.2223782 3.0660985
-0.25969565 1.7968352 1.3433968 1.4488916 -1.0951431 -2.7644973 -0.9674788 1.4497155
0.44316268 -1.422174 0.7375096 1.3856145 -0.5006014 -0.5318116 -0.76718915 1.0303271
0.8849255 0.65225226 0.33120593 -1.2365645 -0.18790385 0.84364337 -2.1211264 -1.7544527
2.1525772 0.2740062 1.8824228 -1.066765 -1.918389 -0.51581633 -1.2489917 -1.1120813
0.5915156 -1.5457662 -1.7213439 1.6543723 -0.5549368 2.0392127 -0.9904823 -0.16029908
0.7955623 0.044132 0.064017154 0.066402934 0.13682565 1.9322352 1.1844544 -0.3164413
0.25348672 0.79351556 -1.8938516 0.09703917 -0.8529926 -1.8211478 1.7199762 0.368449
-0.5307369 2.6233149 0.9445756 0.39036846 0.03058438 0.37966397 0.28676468 -0.41756642
-1.4783219 0.49329576 0.3845012 1.1608775 -0.154957 0.24350683 0.6485749 0.16062234
-0.026423777 2.6002443 -1.1900756 -0.4111688 -0.3849238 0.48336217 0.21033072 1.429005
0.64328974 -0.9083529 -0.21988337 0.048526615 0.38173965 1.1048014 -1.1389785 2.7161126
0.49700868 -1.6399802 0.21659452 0.74854946 1.0786456 1.3191981 -1.9257449 -1.3266091
-0.77994066 0.38992107 -1.6037097 -0.30993807 -1.2844932 0.1047129 -0.49186406 -0.7057276
0.17709085 0.08670752 0.05574946 -0.77828103 -1.2185366 0.1783294 -0.12726775 -1.4709122
-1.4374772 -0.9361728 -1.265716 0.027544951 0.8999852 0.2518535 -2.131645 -0.07088873
-0.23839521 0.47603473 -0.060368225 -1.9726375 -0.49022463 -0.10602189 -1.2779241 0.027443618
-1.0503148 0.8681651 1.3917544 0.27795908 -0.9144598 -0.08459273 -0.20990843 0.6937507

lstm.weight_ih_l0 f4 [256, 32]
00000000: a55f fbbd 7016 823d 378d 4fbd 0d47 55bc
00000010: 5fb8 72bc 6325 ec3d 0071 bcbd d267 68bd
00000020: b78a b2bd e910 c5bb 5d1c a73d ec4f d6bb
00000030: f55b db3c b86a 893b 27ce 653d cc5c 7cbd
00000040: 12e1 703d be47 40bb 256d 80bd 6a35 293d
00000050: d78d 43bc b62b a73d bddc 9e3d 2d8a b0bd
00000060: 7089 663d 4332 bc3d abfb 9e3d 1c7e aebd
00000070: 5a65 c0bd 10f4 49bd 789b 0b3e 4cdf a23d
00000080: defa dfbc 8e32 c73d c47f 0b3c a312 013e
00000090: 197a 87bc f535 d73d 917e 333c 94e9 083e
000000a0: 6a11 d8bd dcd0 ed3c f2a0 32bd 8e32 c1bd
000000b0: 7035 063d 9c7b 433d f00a 8b3d 9ee3 96bd
000000c0: edfe 3cbc 0574 00bd ac5b 5bbd 2b61 b9bb
000000d0: c4eb 003e e68e b1bd 003d bc3d 3a9d e23d
000000e0: 0aaa 3a3d ba6b 8bbd f88a e83d 7904 bc3d
000000f0: 3ef2 b7bd 6a6a ebbd 7858 9b3a 94ce ad3d
00000100: 7644 c63d 82b8 0dbe 6a15 4fbd f86e cfbd
00000110: 8479 cd3d 80de 72bd 95a9 663d 5460 003d
00000120: 524d abbd 1b26 953c 1d07 ba3b 696a 4dbd
00000130: ecd0 5c3d df1b 18be e8eb fc3c 1fcd 97bd
00000140: 515b da3d fde1 82bd e915 fe3d 6ade 32bc
00000150: 5501 b2bd 309f 1e3d 25e4 55bc 406a be3d
00000160: 9643 a5bc 5ad7 d0bd bb7c 8cbd 3433 b73c
00000170: 2f77 c6bd 58d9 8e3c f9e1 f63d 00ba ebbc
00000180: 31be 1abe 12e0 d1bd c8a5 d3bd 2b40 4e3d
00000190: 8964 e43d a66c 3bbd ade8 f63c 396c aebd
000001a0: 4bb4 a6ba c1af d3bd 3800 aabd d66f 203d
000001b0: 0404 0c3d 39d6 963d 2603 413d 1c32 003d
000001c0: d44c a4bd c9eb 913d 61d3 00bd 1930 0cbe
000001d0: 9a40 d1bd 1a3e 463c c45e c1bd 761e 4fbd
000001e0: 24b4 873d e51e d03c 9b6a ab3d d026 b43d
000001f0: 8ad0 5ebd 6309 0a3e 7716 a13d fb6d 813d
00000200: 7cda f43d 75d9 e0bd c4d8 9f3c 7a1d 14bd
00000210: afc4 bfbd 3f12 ecbd 83d9 6d3d 4d43 bdbd
00000220: 2d19 00be 4392 4ebd 43a4 a03d 1036 073e
00000230: fd90 053d f236 963d f7f5 cdbd 36ec 10bd
00000240: eea9 86bc 1bf9 293d e4d4 a1bc 8ff4 05be
00000250: 6a38 05bc a2c0 9abd 5fba 7ebd 6d65 6dbd
00000260: 1fea a43c b9bf bf3d 90b8 38bb d485 e0bd
00000270: 6221 803d 47ec b8bd 15ec 14bc 7da0 1ebd
00000280: c6f3 82bd c53d 993d 4aba e0bc 5264 6e3d
00000290: 173e f13c 4dea 42bd b61b 853d 5d83 f2bd
000002a0: 625e 24ba fb2d 053e 4591 2abd f722 bdbd
000002b0: 8a19 bf3d 46b7 8b3c bc94 82bd 4b8b 0cbd
000002c0: a621 883d 20e0 e53c 2e4b 07bd 5741 723d
000002d0: 9d1f fbbd 2e2a 55bd 945e 103d 72e7 d23d
000002e0: ec1f 353c 16b8 a53d 8024 d03c 188b 9f3d
000002f0: 3528 26bd 7de1 a73d 77f9 dabc 7b91 29bb
00000300: 7300 d3bd 7d85 9cbd 51e1 8dbd ab4d 0c3e
00000310: e204 963c 844f 97bd a81d babd d060 2d3d
00000320: 9880 88bd 794b d43d 5a79 be3d 4138 babd
00000330: e3f3 a2bd 9985 abbc 1b83 b4bd 80c8 6f3d
00000340: 85cd 833c 7bf2 36bd 0d98 85bd dea7 883d
00000350: 4c9d 5a3c 0e71 c6bd 9ace e83d e0f4 013e
00000360: 6b01 c0bd 1e42 853d 5fde 02be 0aa1 47bb
00000370: 596c af3d b917 1f3b 7426 52bb d7ba a7bd
00000380: 6229 d43c ec11 953c c6be c83d a6b0 9b3d
00000390: 23c4 ca3c 41f4 cd3d d873 c1bd 15dd 8bbd
000003a0: c2fc a73d 4d65 a83b 99da 623c f6d7 fdba
000003b0: 6b3f bd3d 09bf f2bd 5465 513b 2f83 d13b
000003c0: 97d5 ae3d 87f1 a93d 4ef3 3d3d 4472 31bd
000003d0: 144f 823c 4b19 edbc 981c 20bd c7e7 54bd
000003e0: bac5 79bd f0ca 6b3d f2d4 f33d a38a 39bd
000003f0: f7ec e1ba 611b e5bd 2b04 a9bd e383 bdbd
-0.12274102 0.06351936 -0.050671782 -0.013017428 -0.014814465 0.115305685 -0.092012405 -0.056739636
-0.08717864 -0.0060139787 0.08159707 -0.006540289 0.026777247 0.00419363 0.056104805 -0.061611935
0.058808394 -0.0029339637 -0.06270818 0.041310705 -0.011935673 0.08162634 0.07756946 -0.08620105
0.056283414 0.09189274 0.077628456 -0.08520147 -0.09394331 -0.04930502 0.13633525 0.07952747
-0.027341302 0.097264394 0.008514348 0.12604766 -0.016537713 0.10508338 0.010955469 0.13370353
-0.105501965 0.029030256 -0.04361052 -0.09433471 0.032765806 0.047725305 0.067891955 -0.07367633
-0.011535388 -0.031360645 -0.053554222 -0.0056573353 0.12589937 -0.08669834 0.09191322 0.11065145
0.045572318 -0.068076566 0.11354631 0.091805406 -0.08981751 -0.11494906 0.0011851927 0.08486667
0.09681027 -0.13839915 -0.05055753 -0.101285875 0.10032943 -0.059294224 0.05631407 0.031341866
-0.08364357 0.018206647 0.0056771175 -0.05015031 0.05391018 -0.14854382 0.030874208 -0.074121706
0.106619485 -0.0639076 0.12406523 -0.010917285 -0.0869166 0.03872603 -0.013054882 0.09297609
-0.020173829 -0.10197325 -0.06859728 0.022363283 -0.09690701 0.017437622 0.120548196 -0.028775215
-0.15111615 -0.10247816 -0.10334355 0.050354164 0.11151988 -0.045757912 0.030140245 -0.085167356
-0.0012718526 -0.10336257 -0.08300823 0.039169155 0.034183517 0.073650785 0.047122143 0.031297788
-0.08022466 0.071250506 -0.031451587 -0.13690223 -0.102174 0.012099767 -0.09441903 -0.05056616
0.06626156 0.025405357 0.08369943 0.087964654 -0.054398097 0.13480143 0.07865613 0.06319805
0.11955735 -0.10978977 0.019512542 -0.036160924 -0.09363686 -0.11526918 0.058068763 -0.09241352
-0.12509604 -0.050432455 0.078438304 0.13204217 0.032608975 0.07334699 -0.1005668 -0.03538152
-0.01643845 0.04149733 -0.019754834 -0.13081573 -0.008131126 -0.07556273 -0.062189456 -0.057958055
0.020131169 0.0936274 -0.002818618 -0.10963026 0.06256367 -0.09029441 -0.0090894895 -0.038727272
-0.06394152 0.07482485 -0.02743258 0.05820114 0.029448552 -0.047586728 0.06499426 -0.11841462
-0.00062701677 0.13005821 -0.041642446 -0.09235185 0.09331043 0.017055165 -0.06376025 -0.034312528
0.06647043 0.028060973 -0.03303068 0.059144344 -0.12261889 -0.05204218 0.035246447 0.10298051
0.011054974 0.08091752 0.02540803 0.07790202 -0.04056569 0.08197305 -0.026730282 -0.0025874067
-0.1030282 -0.07642648 -0.06927741 0.13701503 0.018312875 -0.07388213 -0.09087688 0.042328656
-0.06665152 0.10365958 0.0930049 -0.09092761 -0.07956674 -0.020937728 -0.08814069 0.05854082
0.01608921 -0.04466484 -0.06523142 0.06672643 0.013343167 -0.09689532 0.11367531 0.12691069
-0.093752705 0.065067515 -0.1278014 -0.0030460977 0.085655876 0.0024275614 -0.0032066377 -0.08189934
0.02589864 0.018197022 0.09802012 0.076020524 0.024751728 0.10056353 -0.094459236 -0.068292774
0.082025066 0.005139029 0.013846063 -0.001936673 0.09240612 -0.11852843 0.0031951265 0.006393812
0.08536833 0.08298021 0.04637461 -0.043321863 0.015906848 -0.028942725 -0.03908977 -0.051978853
-0.060979582 0.057566583 0.119058505 -0.04529823 -0.0017236759 -0.11186863 -0.08252748 -0.09253671

lstm.weight_hh_l0 f4 [256, 64]
00000000: 978d 54bc 54e4 bb3c 9b4b a6bd d943 e8bd
00000010: 0363 ba3d a764 9d3c 4438 cdbd cd6c 9e3d
00000020: 7d2c a43d 7a33 9bbd 46be 4abd 4b64 673d
00000030: e9eb ce3b 32bd d7bd d5e8 2dbc 22a2 97bc
00000040: 9cc7 4dbd f059 afba 5c25 323d 8bb0 913d
00000050: c734 ebbd aca4 513d 99b0 213c 93f5 fe3c
00000060: 88bb a23d 4796 a53c 2f9d c3bd 8125 d73d
00000070: 5040 3abd a27c c6bd 3906 0b3e 47ec 093d
00000080: 0217 ecbd 9614 773c 6962 16bd cf7a 093e
00000090: 742a 813d ef6b 9bbd 6edc 493d 4ccb 003e
000000a0: cfb4 5c3d f770 33bc 026d ef3c de1b d23b
000000b0: 125f 8f3d a4b1 6c3d 741e b6bc 2225 f2bc
000000c0: 74a1 16bd bb6d 173e 5a2c 40bd 37d9 223d
000000d0: ecee 97bd 25ba 6b3d d14a d2bd a7b3 ea3d
000000e0: 99cc 59bc 777f ad3d 4bec 9cbd 4837 aa3d
000000f0: 7e96 cdbb 2b81 b23d c2b6 9fbc 3375 11bd
00000100: feca f73d 660b 8f3d 3122 d3bd f8f7 f73c
00000110: fe51 ec3d e35d c63d 4b64 e2bd f482 4abd
00000120: fb40 abbd a9f9 bdbd 5f84 603d 475b 8cbd
00000130: 4e91 c33d 2d12 b0bd 75f9 c4bd bd5f 8bbd
00000140: 468b d1bd b981 953d cdb8 a7bd 1e97 bcbd
00000150: 1f38 153c 7584 bebd 2838 9e3c 9fe2 a13d
00000160: 07ba a43d 4a98 00bd 5f04 e8bb 560e 87bc
00000170: 00b0 b53c c483 0e3e 9a49 95bc 1e39 3cbd
00000180: 84ba c8bd 5826 c3bd a0cd 693d f73b 99bd
00000190: 6a95 1d3d 4458 f73d 1a10 00be 7d23 503d
000001a0: 4e6d 413c 6340 363d f530 853d 8a99 3b3d
000001b0: 281a b93d f15a 69bd 73be 5b3d 687a 9639
000001c0: 7cb8 c6bc 0ca5 38bc 4e41 043e 0268 873c
000001d0: a2a2 8e3c 3854 00be ed31 883d 83e7 8c3d
000001e0: e565 a3bd 0f1b e5bc 4d13 ad3b f616 0cbc
000001f0: d06f 03be dc5a 74bd 14b8 c8bd 0efa 29bd
00000200: e37c 0b3d 9837 c23d 7def 043e 027e e7bb
00000210: ee91 b43c 4ca9 a23d 4242 c9bd 0e9d 0c3e
00000220: 01d1 6d3c 7060 e4bc 82ea 35bd d3a7 393d
00000230: f771 80bd bae0 5c3d b09e cbbd 0ba8 943c
00000240: b6de 04be b368 acbc 3526 f4bd 7fb7 b53b
00000250: de5a 7fbd 3d7a 523c 8507 d83d 7ab2 093d
00000260: aa7a e33d 9cd6 803c 9f70 67bd 826f 153c
00000270: 537e c0bd 5a20 0abd 3f70 8b3d 5ab7 893d
00000280: c306 c7bc 6b04 02be 18dc 7a3d 8fdd 52bd
00000290: c935 3ebc ff1d 7f3d 34a9 01be f9a0 263c
000002a0: 0326 b73c 6b90 b4bd 0d8c ae3d cb2c d4bd
000002b0: 70be 403c 14ee d13d 3e24 82bc b8b1 ab3b
000002c0: 785d e73c 10d6 2fbd 8e10 f03d 01f2 a43d
000002d0: d2a9 35bd 5589 113c 230a bf3c 9ffb 3cbc
000002e0: f6df 64bd 9c4d ecbd d9b0 55bc 5c64 043e
000002f0: 03e0 993d ed3a e3bd 60e6 903d 0928 ae3d
00000300: fa42 1abd 9f53 febd 0b74 b63d 827c 553d
00000310: d780 2cbd 9abd a3bd 6442 633d 4893 7cbd
00000320: 6d0f 083d c173 a73d 5142 8fbd aed2 f5bc
00000330: 6e14 693d 97fc bb3b 46f9 be3d 1aaf 113e
00000340: e74d 183c 0207 153d 0381 dbbb 246e b23d
00000350: f389 b8bd f02d 82bd 1e18 36bd 8a59 abbc
00000360: 78a3 883d b96a 34bd a117 f63b 898e d6bd
00000370: 52de 8c3d 31d6 8abd e1a3 63bd 2d00 68bc
00000380: 5bc9 783d df29 cd3d bd05 4ebd 86f6 c6bd
00000390: e8ca 2c3d 4009 e13d a113 773d 9ace 6cbd
000003a0: a4b3 03be 9677 d1bc 8e38 893d 91cf 89bd
000003b0: a6ca e3bd 2a23 d0bc 1cf4 02be d106 a1bd
000003c0: 854e acbd cb50 ed3d e228 a1bc 69e6 d83d
000003d0: 27c0 cb3d b274 97bd 523f d63d e761 583d
000003e0: 3727 efbd e374 5b3d 1c0a fe3c f790 3ebd
000003f0: 9561 07bd db9a 833d 3a1f 0a3c 6555 c63c
-0.012973211 0.022936024 -0.08119889 -0.11341066 0.09100916 0.019213034 -0.100204974 0.07735596
0.08016298 -0.07578178 -0.049497865 0.05649213 0.006314744 -0.10534133 -0.0106145935 -0.018509928
-0.05023919 -0.0013378244 0.04349266 0.07113751 -0.11484676 0.051182434 0.009868764 0.031122958
0.07945925 0.02021326 -0.09551465 0.105052 -0.04547149 -0.096917406 0.13576593 0.033672597
-0.11527826 0.015080592 -0.036714945 0.13425754 0.063069254 -0.07588946 0.049282484 0.12577552
0.05388337 -0.010952226 0.029226784 0.0064120134 0.07000555 0.0577866 -0.022231318 -0.029558722
-0.036775067 0.14787953 -0.046917297 0.039757933 -0.074186176 0.057550568 -0.10268176 0.11460047
-0.013293409 0.084715776 -0.07662257 0.08311325 -0.0062740436 0.08716043 -0.019496325 -0.03551216
0.120992646 0.06984596 -0.10309256 0.030269608 0.11539076 0.09685876 -0.110542856 -0.049441293
-0.083620034 -0.092761345 0.05481374 -0.06853347 0.09549199 -0.08597217 -0.09617893 -0.0680537
-0.102316424 0.07300133 -0.08189545 -0.09208511 0.009107619 -0.09302608 0.019313887 0.07904553
0.080432944 -0.031395234 -0.007080599 -0.016486328 0.02217865 0.13917452 -0.018223573 -0.04595291
-0.098012 -0.09528798 0.057080865 -0.074821405 0.03847257 0.12077382 -0.12506142 0.050815094
0.011805845 0.044494998 0.065034784 0.045800723 0.09038192 -0.056971494 0.053648423 0.0002870143
-0.02425789 -0.011269819 0.12915537 0.016529087 0.017411534 -0.12532127 0.066501476 0.06880095
-0.07978419 -0.027967004 0.005281842 -0.008550396 -0.12835622 -0.059656963 -0.09800735 -0.041498236
0.034054648 0.0948326 0.12981983 -0.007064582 0.022042241 0.07942447 -0.09827091 0.13731787
0.014515162 -0.027878016 -0.044413097 0.045326065 -0.06271737 0.053925253 -0.099423766 0.018146535
-0.12975582 -0.021046018 -0.1192135 0.005545556 -0.062342517 0.012846527 0.10548309 0.033617474
0.11107381 0.015727334 -0.05650389 0.009120824 -0.093990944 -0.03372226 0.068085186 0.06724425
-0.024295216 -0.12696998 0.061245054 -0.051480826 -0.011609503 0.062284466 -0.12662202 0.010170215
0.022356993 -0.08816608 0.08522806 -0.10360106 0.011764154 0.10250488 -0.015886422 0.0052396916
0.028242812 -0.042928755 0.117219076 0.08053971 -0.044351406 0.00888284 0.023320263 -0.0115346005
-0.05587765 -0.1153824 -0.013042652 0.12928909 0.0751343 -0.110952236 0.070751905 0.0850373
-0.03766153 -0.12418293 0.08908852 0.052120693 -0.04211506 -0.07995148 0.055483237 -0.061663896
0.033217836 0.08176375 -0.06995071 -0.030007686 0.05690425 0.005736898 0.09324889 0.14226952
0.009295917 0.036383636 -0.006698729 0.08712414 -0.09010687 -0.06356418 -0.044456594 -0.020916719
0.06671804 -0.04404709 0.007510141 -0.10476405 0.06878342 -0.06779135 -0.05557621 -0.014160198
0.060738903 0.10017752 -0.05029844 -0.09714989 0.042185694 0.109880924 0.060321454 -0.057814218
-0.12861496 -0.025569718 0.0670024 -0.06729043 -0.111226365 -0.025407393 -0.12788433 -0.07862628
-0.08413414 0.11587676 -0.019672815 0.10590822 0.099487595 -0.07395305 0.10461296 0.052827742
-0.116774015 0.05357827 0.03101068 -0.046524968 -0.033052046 0.06426021 0.008430297 0.024210641

lstm.bias_ih_l0 f4 [256]
00000000: 35c0 843c fc69 31bd 4fb9 b03d 8805 64bd
00000010: dc95 233d da63 41bd 073c 53bd 5f26 cf3d
00000020: 07d4 553c 8e83 3bbd b182 593d ab6f 1ebb
00000030: 249e 143d 9e5e 0abd 2b60 183d 0ea7 0bbd
00000040: c4a8 a0bc 61c8 e7bd 3821 9b3d 6817 e5bd
00000050: a2ee 4a3d 2b68 bfbd 8cf5 d13c 761c 043e
00000060: d2c1 c13c 3a9a 6fbd 54d6 633d 969b f53d
00000070: fe89 893d 003f a73c bfcb 7bbd 78e1 2fbd
00000080: 9753 f5bc 7986 61bc fced 673b 8787 ecbd
00000090: 4f63 ccbd 3ce1 e4bd 6976 b63d 6ece 053e
000000a0: ac97 1a3d a6b2 853d 5a37 d5bd 40b4 b0bd
000000b0: 6b13 af3b 7c5f 873d 5330 213d 849e 8abd
000000c0: cfd2 953c eb8e d4bc 2656 dc3c c590 e5bb
000000d0: e934 263c 6b30 0dbd e9a1 323d fd46 c7bd
000000e0: 665f 46bd 76c9 14bb f300 0b3d e9ea 043d
000000f0: 27f5 753d c764 96bd 7cec d7bc 1c84 d2bd
00000100: 61a6 92bd 9547 9c3d b223 0e3e 4331 68bd
00000110: 1877 5abd 34bb ee3d 3dd1 f33d 2045 e93d
00000120: d012 da3d 7bec f43d 4fc5 093d a3f3 933d
00000130: 78f6 fa3c edf8 a63c f9c9 4cbd 169e 36bd
00000140: 4261 47bd 9eeb 69bc 1ef9 e43d af41 8dbd
00000150: b4b6 cf3d 2205 3e3b 70ce d93c 2153 883d
00000160: b2aa e53c 8291 98bd 7a95 9b3a c742 d43d
00000170: 4360 8a3d ad67 05be 4de0 843d 2349 a63c
00000180: 6dde 2c3c 7237 bc3d a000 ba3d 1f25 ebbd
00000190: cd84 86ba fb06 c7bd 5899 c33b 7535 6cbd
000001a0: 67b9 773d 609f 463d 23ed 46bd 610b c43d
000001b0: e0b4 69bc a22f df3b e3c4 b23d 032a 4b3c
000001c0: f40c 443d 739a 3a3c f661 583d 82cc cb3d
000001d0: 9d11 823d 2cd7 ef3a d242 8a3d 3a5f 74bd
000001e0: 21aa e93d 3280 b6bd b66e 43bd d5a4 fe3b
000001f0: 076b 83bd 5d39 283c 646b 493d a4cc eb3d
00000200: a1be 4f3c 5e0e ea3d 6195 d93c cf70 bf3d
00000210: f57d 34bc b8d2 8b3d 9eaa bf3d 77d0 b33d
00000220: 9bf3 473c eb03 c13d bcc7 003c f05a e43c
00000230: 5378 b13d 60a0 f1bd a1e0 b2bd abd3 0fbe
00000240: f048 fc3b a3e6 13be 2637 aabd ab97 cf3d
00000250: 471d 45bd 0f34 423d 4e67 fcbc b70e 593c
00000260: 787a 953d d71d efbd 5cf8 303b a732 8e3d
00000270: 1f45 04bc da60 99bc 64f7 b53d 4e30 513d
00000280: 3c12 9a3c 6c7d a8bd e01b febd 7683 fcbd
00000290: 6a99 2e3d 05fb c33d ce34 bcbd f254 913c
000002a0: ea08 e3bd 0ab4 02bc 8bdc f93d bc84 e9bd
000002b0: de39 eabd 4554 a93d 4b79 65bd eca9 1d3d
000002c0: dbe9 d1bd 980f 76bc 5d50 dd3d b4e4 cabb
000002d0: a678 e13b 2185 bd3d 7b69 98bd 00d7 debd
000002e0: 5465 b1bd e403 bdbd e360 c33d 7e97 9cbc
000002f0: 0666 7ebd a8be 523d 01e3 8abd bc15 d93d
00000300: 40d4 b4bd 3afb 92bd a37b 92bd 7c0b f63d
00000310: 2432 8b3d d569 c3bc eee0 d8bb bcc0 843d
00000320: 65a9 4dbc 72fd 873d c763 a03b 9ed0 cebb
00000330: a91d 8d3d da29 753d 2f92 7abb 570a d8bd
00000340: 460c dabc 215b d43d 7929 83bd 9e31 a83d
00000350: 28aa 06bd 0cc3 8abd 26bb 8c3d 716c 023e
00000360: 4fc1 6b3d 7845 d63d 4ce9 cdbd 1306 ae3d
00000370: e015 e7bd 8640 ca3d 362b 18bb 0466 7d3d
00000380: c0dc 3cbd 3d66 f53d f30d 89bd 527a 203d
00000390: 21b4 253d d2fd cd3c e959 a43b 2631 013e
000003a0: cba4 f13d 9f9d f1bc 7225 aebd 224e 3ebd
000003b0: eeb7 aabc 54f7 96bd 0956 ea3d 2c9e ae3d
000003c0: 5ff8 41bd f29d 86bd c89b abbc 3875 12bd
000003d0: 5327 eebc 86d8 bcbb 1f98 d73d ac2b a53d
000003e0: a0c9 0a3d 7d74 c73d 063a 9a3d c9c8 c9bd
000003f0: 143b 083e 14a8 93bd 7ab2 d9bd d409 bd3d
0.016204933 -0.043313965 0.08629095 -0.055669338 0.03993784 -0.047214366 -0.05157092 0.101147406
0.01305104 -0.045779757 0.053103153 -0.0024175446 0.036283627 -0.03378164 0.037201088 -0.034094863
-0.019611724 -0.11317516 0.07574695 -0.11186105 0.049543984 -0.0934604 0.025629781 0.12901482
0.023651991 -0.05849669 0.05562432 0.11992566 0.06715773 0.020415783 -0.061473604 -0.042939633
-0.029947085 -0.013764971 0.0035389652 -0.11549287 -0.09979879 -0.111757725 0.08909304 0.13067028
0.0377423 0.06528215 -0.10410948 -0.0862813 0.005342891 0.06610009 0.039352726 -0.06768516
0.018288998 -0.025947055 0.026896548 -0.0070057833 0.010144451 -0.034470003 0.04361144 -0.09730337
-0.048430823 -0.0022703088 0.033936452 0.03245059 0.06004825 -0.073434405 -0.026357882 -0.10279104
-0.071606405 0.07630841 0.13880804 -0.056687605 -0.053336233 0.116568 0.119051434 0.11390138
0.106481194 0.119591676 0.033635434 0.072242044 0.030635104 0.020382369 -0.049997304 -0.044584356
-0.048676737 -0.014277367 0.11180328 -0.06897294 0.1014227 0.0028994759 0.026587695 0.066564806
0.028035495 -0.074496284 0.0011870109 0.10364299 0.06756642 -0.1302783 0.064880945 0.020298546
0.010551077 0.09190263 0.090821505 -0.1148169 -0.0010262966 -0.09718128 0.0059692077 -0.057668168
0.060479548 0.048491836 -0.048565995 0.09572483 -0.014264315 0.006811098 0.087289594 0.012400153
0.047863916 0.011389363 0.052827798 0.09951116 0.06351016 0.0018298379 0.06751026 -0.059661128
0.11409403 -0.0891117 -0.047713004 0.0077711144 -0.06416898 0.010267583 0.04917468 0.115136415
0.012679727 0.114285216 0.026560487 0.093476884 -0.011016359 0.06827301 0.093587145 0.08779996
0.012204076 0.094245754 0.00786012 0.027875394 0.08665528 -0.11798167 -0.08734251 -0.14045589
0.0076991245 -0.1444345 -0.083113 0.1013635 -0.048123624 0.04741293 -0.030810978 0.013248137
0.0729875 -0.116756134 0.0027003502 0.06943255 -0.00807312 -0.01872294 0.08885077 0.051071458
0.018807523 -0.08227047 -0.124076605 -0.12329762 0.042626776 0.095693626 -0.09189759 0.0177407
-0.110856846 -0.007977495 0.12200268 -0.1140227 -0.114368185 0.08268026 -0.056023877 0.03849213
-0.102496825 -0.015018366 0.10806344 -0.0061918143 0.0068808375 0.09253908 -0.07441994 -0.10880852
-0.08661905 -0.09229258 0.09539964 -0.019115206 -0.062109016 0.051451355 -0.06781579 0.10599849
-0.08829546 -0.07176824 -0.07152488 0.12013909 0.06796673 -0.023854176 -0.0066186106 0.06482074
-0.012552594 0.06640138 0.004894707 -0.00631149 0.06890423 0.059854366 -0.0038234105 -0.10548847
-0.02661718 0.10368944 -0.06404395 0.08212589 -0.032877117 -0.067754835 0.06871633 0.1273668
0.0575574 0.10462469 -0.100542635 0.08497252 -0.11283469 0.09875588 -0.0023219115 0.061864868
-0.04610896 0.11982391 -0.06692114 0.039179154 0.040454987 0.025145445 0.005015601 0.12616405
0.1179901 -0.029494105 -0.08503236 -0.046461232 -0.020839658 -0.07371393 0.11442191 0.08526263
-0.047356006 -0.065730944 -0.020948306 -0.03575632 -0.029071486 -0.0057631163 0.10527062 0.080649704
0.03388369 0.09739015 0.07530598 -0.0985275 0.13303787 -0.07209793 -0.10629745 0.0923039

lstm.bias_hh_l0 f4 [256]
00000000: a70b ee3d 85e5 bbbd b489 093d 1577 a43c
00000010: ed2c 8bbd 53ef d8bd fed3 e83d 2861 f53d
00000020: f637 40bd 0ed5 033e 7ace f0bd 165f e63d
00000030: aab1 4fbd c2e7 babd fbd4 433d 3bdf c03c
00000040: ed4b 8c3b ec0c 61bd 307e 07bb 7f60 ffbd
00000050: a8bb a43d 90df 8e3c 227c e53d 8225 a03d
00000060: b2be d33c d6e5 7dbd f819 d7bb a2c4 ff3d
00000070: aa78 d03d 8824 28bd e3a0 153c fa98 9dbd
00000080: 8848 463d 6557 6f3c 3f2a cdbd 1e2e cb3c
00000090: d1cf 47bc 1edd 183d 3483 f23d f202 1f3d
000000a0: 77cf aabd fad3 8f3d 102b f4bd 80fb b03d
000000b0: fbc4 b63c 89b0 723d 9da0 7cbd 7900 43bc
000000c0: caa5 713d f99d 09be 8080 a63d 514d da3d
000000d0: 36ef eb3c 0ec5 ef3d 4b5c 7e3d 9004 3abd
000000e0: 2b78 42bc 5fe0 e63d 233c 783c 1e17 c3bd
000000f0: 41cb f83c 1aa4 74bb 158a 8e3c 5b5f 34bd
00000100: 195c 07bd cd24 cdbb 0aa5 dbbd 7a3a 033e
00000110: d596 a9bd 9c4f b93d 4b52 08bb 3766 1d3c
00000120: e009 f03d 0aa6 fc3d ac5a 693d 6e2d 8c3d
00000130: 42e8 0a3e 7237 b1bd 51ab e53d 7c6e debd
00000140: 7dbc f9bb bfcc e43d 7d5c acb9 48b3 2e3d
00000150: acdd 953d 0906 103e 0230 b63d e02e d83d
00000160: 8da2 423d 3e66 da3d 49e9 e2bc ab39 ed3d
00000170: f008 f1bc 8d4a eabd 4885 b2bc 178a d9bd
00000180: 5265 d63d d1a9 03bd d642 8d3d 8d96 323c
00000190: 697d d6bd 6848 edbc d6e1 c7bd 5803 a53d
000001a0: e020 6b39 c485 e03d ba42 203c 7dc4 b2bd
000001b0: 17fd 823c 7943 d93d dbed 05bd bf48 0d3e
000001c0: 42bb d63c e079 89bd 336a 083e 6c60 6dbd
000001d0: 1b6f 223d 961a 7d3d 55ab d23d 7a2d 5dbd
000001e0: 93e6 9d3c 264f b7bc 8089 7cbd 2dc3 18bd
000001f0: 5c31 033e 01f0 503d 0eb9 c23d 3065 803d
00000200: a17c 6abc f896 fdbb 8047 f0bc 5998 12bd
00000210: 17af c2bc 8d5b 593d 93e5 eb3a d5ac 083d
00000220: df32 cbbd 4392 f23d 3c35 fd3d 6a18 a5bc
00000230: 0928 1dbd b760 2fbd 9be7 2d3d 7e5f c93d
00000240: 4361 85bd cc0b ca3d 08b1 063d 0358 f9bd
00000250: 5486 9cbc ef6f 8f3d daba 21bd a21e ca3d
00000260: 7e95 12ba 39ff 913d b665 60bd 7566 ec3d
00000270: ca79 de3d 5b93 733d bb40 66bc 50e2 243d
00000280: 6770 443d 325f cf3b 3774 78bc e603 af3d
00000290: dcd8 c63d cb61 f63d 24a6 4e3d cee8 adbd
000002a0: 0df2 d53c 715f 10be 3ea3 063e 36b1 e2bd
000002b0: 2412 c9bd 0bc8 ae3d a10f f0bc ccf5 483d
000002c0: ef0e d83d 151c 9cbd aedf 65bd 64f5 68bd
000002d0: 1be7 efbc 4cf2 2abd 7985 aebd 9c74 5e3d
000002e0: b138 00be aa46 d2bd 5379 cc3c e47a eb3d
000002f0: 32cd 81bd 7670 963d c720 87bd 5e06 87bd
00000300: bb89 22bd 8373 a23d b157 bf3d a34c 373d
00000310: 1492 b23d 2903 4cbd 153c a3bc 5475 90bd
00000320: 52dd 4a3d 9c9c 90bd 935a 64bd 8694 05bb
00000330: ee16 bdbd d773 90bc 6d8a a0bd 285a 8abc
00000340: 07c2 e73d e7e6 9b3d fc64 85bd 41bd 033e
00000350: 9ad0 c63d 0225 ea3d 3cb1 e2bd cdab f53c
00000360: 2a3d a63d 16c4 2fbb b953 12bd e15a c1bd
00000370: ce41 8bbd 308a ac3d bfde 50bc b062 e3bc
00000380: c6ca 0d3e 6bcb 4cbd d056 f53d f6e6 61bd
00000390: 9113 223d a25a ea3d 39c3 7bbc fe38 a13c
000003a0: 09c1 4cbd f260 eb3d befc aa3d 32ce 773d
000003b0: 296e 9fbd 2451 21bc 6b46 b4bd 5c0a cbbd
000003c0: f369 a63c 25b1 e7bd 8133 b83c 5dac c2bd
000003d0: edbc 64bd bfef 7c3c 448e 713d f87d f2bc
000003e0: c091 4a3d d5e0 c4bd ede5 f33d bd4d b13c
000003f0: 53e4 8abd d358 61bc 8d1e e53c ddd6 48bd
0.11623316 -0.09174637 0.03357859 0.020076314 -0.06795678 -0.105925225 0.11368559 0.11981422
-0.04692837 0.12874243 -0.11758132 0.11248605 -0.050706543 -0.091262355 0.047810536 0.023543945
0.004281512 -0.054943964 -0.002067458 -0.12469577 0.08043605 0.017440587 0.11205317 0.07819654
0.025847767 -0.061986767 -0.006564375 0.124886766 0.10179265 -0.041050464 0.009132597 -0.076951936
0.048409015 0.014608239 -0.100178234 0.024802264 -0.012195543 0.03732025 0.11841431 0.03882117
-0.08340352 0.07022853 -0.11922276 0.0864172 0.022310724 0.05925039 -0.06167661 -0.011901968
0.058996 -0.13439168 0.08129978 0.10659278 0.028800588 0.11707507 0.062099736 -0.045414507
-0.011869471 0.11273264 0.015151056 -0.09525894 0.030370357 -0.0037329257 0.017399827 -0.04403625
-0.033046816 -0.0062604905 -0.10724838 0.12815276 -0.08280722 0.090483874 -0.0020801004 0.009606889
0.117206335 0.12336357 0.056971237 0.068446025 0.13565162 -0.086531535 0.11214317 -0.10860917
-0.0076213465 0.11171865 -0.00032875306 0.042651445 0.07317671 0.14064802 0.088958755 0.10555816
0.0475183 0.106640324 -0.02769913 0.11583265 -0.029423207 -0.11440001 -0.02179207 -0.10622042
0.10468544 -0.03214437 0.068975136 0.010900152 -0.10473139 -0.02896519 -0.09759872 0.080572784
0.00022423593 0.10963014 0.009781534 -0.087288834 0.015989823 0.106085725 -0.03269754 0.13797282
0.026212338 -0.06712699 0.13321762 -0.057953283 0.03965674 0.061792932 0.10286585 -0.053998448
0.019274985 -0.022376608 -0.061654568 -0.03729551 0.12811798 0.051010136 0.09507953 0.062693
-0.01431194 -0.007738944 -0.029330969 -0.03578982 -0.02376513 0.053065825 0.0017997496 0.03336795
-0.09921812 0.118443035 0.12363669 -0.020153243 -0.03836826 -0.042816844 0.042457204 0.09832667
-0.06512692 0.09865531 0.032883674 -0.1217499 -0.019107021 0.070037715 -0.039484836 0.09869124
-0.0005591734 0.07128758 -0.0547845 0.1154298 0.10863073 0.0594667 -0.014053519 0.04025489
0.047958758 0.006328487 -0.0151644265 0.085456654 0.097093314 0.12030371 0.050451413 -0.084916696
0.026116395 -0.14098908 0.1314821 -0.110689566 -0.09817913 0.08534249 -0.029304327 0.049062535
0.10549723 -0.07622544 -0.05612152 -0.056874648 -0.029285004 -0.04173498 -0.08521552 0.054310426
-0.12521626 -0.10267384 0.024960196 0.11498049 -0.06337966 0.07345669 -0.06598049 -0.06593011
-0.03968213 0.07932188 0.09342898 0.04475082 0.087192684 -0.0498077 -0.01992611 -0.070536286
0.049527474 -0.07061121 -0.05575044 -0.0020382716 -0.09232889 -0.017633362 -0.078389026 -0.016888693
0.11316305 0.076124005 -0.06513402 0.12865163 0.09707756 0.1143284 -0.11068961 0.029989148
0.08117135 -0.0026819757 -0.035724375 -0.09441162 -0.067996606 0.08424795 -0.012748419 -0.027757019
0.13846883 -0.049998682 0.11979449 -0.055151902 0.03956944 0.11443068 -0.015366369 0.019680496
-0.04998878 0.114931 0.08348988 0.060499378 -0.07784683 -0.009846006 -0.08802494 -0.09914085
0.020314192 -0.113130845 0.022485496 -0.09505532 -0.055844236 0.015438019 0.058973566 -0.029601082
0.049455404 -0.09613196 0.11909089 0.021643514 -0.06781831 -0.0137540875 0.02796867 -0.049033035

lstm.weight_ih_l0_reverse f4 [256, 32]
00000000: 9a19 1dbd 02fc cd3d 5545 0dbe bb66 a0bd
00000010: b1b7 52bd fd8c e0bd 6fd2 22bd f549 8b3d
00000020: 6c42 23bd 3ba8 cd3d 6cb4 74bc c0dd 1e3c
00000030: 4656 d8bd 7659 89bd 24ea 203d a814 643d
00000040: cb00 843c 5255 073c 7430 dc3d 826b a3bd
00000050: 0c0e c8bd 3288 f0bd 9466 f33c cb74 0a3d
00000060: 8096 88ba 7f74 083e 121b ab3d ccba 6abc
00000070: 05ad 98bd c712 933d fe34 c83c cd33 f83c
00000080: faa2 02bd 8f3a 893d efa2 f6bd 4258 a3bc
00000090: 9261 58bc 261e a2bd d1b4 cd3d 970f d0bd
000000a0: 61f7 c53c bf44 fcba c8b2 f9bd 0e78 c23d
000000b0: 550e c13c 60c6 c4bd 1c84 073e c8bf ad3c
000000c0: 8b82 c93d a72c 9e3d 0431 43bc 91b2 0a3d
000000d0: 1af9 90bd c1ba f13d b97b 35bd d8a8 8fbc
000000e0: 6944 ebbd 3962 f0bd a18a 743c 825f adbc
000000f0: 4cfb 903c 98f8 da3d ee88 d3bc dca4 cf3c
00000100: 6b98 643d 25fc 923d 1a29 04bc 5184 98bd
00000110: e7de 3fbd 45a1 debd 7730 36bc b049 e83d
00000120: 2ec2 573d 9af2 10bd fb89 e9bd 95ba 35bd
00000130: 29a6 563d a64c 79bc 868f 13be c6e8 d4bd
00000140: 79a7 95bb 1792 6d3d 58f4 c3bc 11af 763b
00000150: 33d6 6dbd 16da 9fbd 752e d93c fe53 0bbe
00000160: dd7f b4bc 6053 f5bc f120 c53d 853d fabd
00000170: b74b 163c 89e1 d63d 0e31 543d 2226 18bd
00000180: 0bf9 893d 5d12 a23d f642 84bd f84d 8f3c
00000190: 92a1 e4bd 3ee2 cd3d 2131 a4bd bba7 23bd
000001a0: 1298 a7bc 0a9b 20bd d861 713b 8c92 4abc
000001b0: f61f cf3c 837e 24be 6959 8dbd d72c f2bc
000001c0: 0f84 393c 6f39 d33d c46c 0b3e 1a11 e2bd
000001d0: a976 513d d98d 47bc c97b ecbc a24e 79bd
000001e0: a123 e0bd fb52 dbbc d7a6 b23d a39b fa3d
000001f0: 6b23 1fbd 0952 003e 0a6a ab3d 9c54 5abc
00000200: a3a5 8c3d d635 5a3d 75ae 09bc c93b 053e
00000210: abad 9bbd 9141 993d 1864 84bd e195 203d
00000220: 3d1c ae3c 3f87 3ebd 149d 3e3c 7e63 a4bd
00000230: 448e 933d 8adf ba3b ee3b 3ebd 9712 483d
00000240: fbaf 823b 84bc 8bbd 2624 4bbc 61cb 8c3d
00000250: c117 f03d b034 183d b5e3 e6bc 3249 c6bd
00000260: ee50 523d 614a aa3d 47f7 f4bc 531b 4b3d
00000270: 52fc 38bd 37f3 f93d 1a45 cc3d bbe4 c4bd
00000280: dd04 ee3d aebf 8d3d 6ecd fbbd ce99 1b3d
00000290: 6c85 ba3b 2776 abbd c1e2 e43d 95dc 573d
000002a0: 3972 4f3d 58b4 04be 3b7c 643d f615 cf3d
000002b0: 8a5f b1bd 215b fabc 9e55 e2bd b049 9fbd
000002c0: d3fa 43bd e650 b53d 48e6 d13c f81e d1bd
000002d0: 9b35 153c 5837 053d 6778 6b3d f81a 39bd
000002e0: 60db ddbd d997 17bd 66af cd3c 8d05 053c
000002f0: d8cf 50bd 5f54 d93d 747d 9dbd 0f15 bfbd
00000300: 8d6a e33c caf9 8d3d 353c 93bd de5a e23c
00000310: 592c c43d 492d a0bd db1d e13d a0cf af3c
00000320: bb63 92bd b48b 89bd db8f debd cbeb dc3d
00000330: 9597 1bbd 0755 4abd 6320 553d fca1 f63d
00000340: f8a6 debd 1688 7dbd 5c78 31bd 2270 1bbd
00000350: f8e0 2a3d e198 f53d a658 07be 89fa 9a3d
00000360: f731 f2bd 9aa1 033d 6510 e8bd 1bbd 0cbc
00000370: 5def 0cbe b5ed edbc 00fa 583d 0c4f 78bd
00000380: 8017 783c fd61 ccbd 8a41 b5bd 1445 f53d
00000390: ff77 b63c 7646 1d3c 1cd0 f63d e78b 8cbd
000003a0: 7a51 01be 9022 54bd 15ad ae3d 5a52 d2bd
000003b0: c0fa f9bd 365b 91bd c726 0ebd 5921 d23d
000003c0: 69cc ebbd 7ca9 e2bd 9544 dbbd 591d 6cbd
000003d0: c51e 653d 168e cdbc 5b88 a73c d75e d2bc
000003e0: 0a2c 493d c31f 8b3d 3b01 a63d 4ee5 73bc
000003f0: 8593 c53d 52be b0bd d69c e23d d803 abbd
-0.038354494 0.10057832 -0.1379598 -0.07832094 -0.051444713 -0.109643914 -0.039751466 0.068012156
-0.039858267 0.10041853 -0.014935594 0.009696424 -0.1056333 -0.067065164 0.039285794 0.05568376
0.01611366 0.008260088 0.10751429 -0.0797949 -0.09768304 -0.11744727 0.029711999 0.03380279
-0.0010420829 0.1332569 0.083547726 -0.014326762 -0.07454876 0.07181316 0.024439331 0.030298138
-0.031893708 0.06700622 -0.12042796 -0.019939546 -0.013206856 -0.079159066 0.100442536 -0.101592235
0.024165811 -0.0019246562 -0.12192303 0.09495555 0.023566404 -0.096081495 0.1323399 0.021209612
0.09839352 0.077233605 -0.011913542 0.0338617 -0.07078762 0.118031986 -0.044307444 -0.017536566
-0.114876576 -0.117374845 0.01492563 -0.021163706 0.017697953 0.10691947 -0.02582213 0.025347166
0.05580942 0.07176999 -0.00806644 -0.07447112 -0.046843436 -0.108706035 -0.011119953 0.1134218
0.05267542 -0.035387613 -0.11403271 -0.04436739 0.052404556 -0.015216028 -0.14410219 -0.103959605
-0.0045670834 0.05800065 -0.023920223 0.0037640969 -0.058065604 -0.078052685 0.02651141 -0.13606259
-0.022033626 -0.029946983 0.09625424 -0.12218765 0.009173325 0.10492236 0.051804595 -0.03714574
0.06736954 0.07913659 -0.06458084 0.017493233 -0.111636296 0.10052918 -0.08017183 -0.039954882
-0.020458255 -0.039210357 0.0036832 -0.012364041 0.025283795 -0.16063885 -0.06901819 -0.029562397
0.011322989 0.10313689 0.1361571 -0.11038418 0.051138554 -0.012179815 -0.02886762 -0.060866006
-0.10944296 -0.026772967 0.087232284 0.122367166 -0.038852137 0.12531294 0.08369835 -0.0133258365
0.0686753 0.053274 -0.00840341 0.13011087 -0.07601484 0.07483209 -0.06464404 0.039205436
0.0212537 -0.0465157 0.01163413 -0.08026789 0.072048694 0.0057029175 -0.046443872 0.048845854
0.0039882637 -0.06823066 -0.012398755 0.06874729 0.11723281 0.03715962 -0.028184751 -0.0968193
0.05134671 0.08314968 -0.029903067 0.049586605 -0.045162506 0.12204593 0.099741176 -0.096139394
0.11622021 0.069213256 -0.12295042 0.037988476 0.0056921747 -0.08372145 0.111760624 0.052700598
0.05064604 -0.1295942 0.055782538 0.101116106 -0.08660801 -0.030561032 -0.110514864 -0.07777727
-0.047846626 0.08853321 0.025622502 -0.10210985 0.009107019 0.032523483 0.05748787 -0.045191735
-0.10832858 -0.037010048 0.02510805 0.008118999 -0.050979465 0.10611796 -0.07689944 -0.093301885
0.027760768 0.06932409 -0.07189218 0.02763122 0.09578771 -0.078211375 0.109920226 0.021461308
-0.07147928 -0.067160994 -0.10867282 0.107871614 -0.037986357 -0.049397495 0.05203284 0.12042615
-0.108716905 -0.06189736 -0.043327674 -0.037948735 0.041718453 0.1199205 -0.1321741 0.07567317
-0.11825936 0.032136537 -0.11331252 -0.008590008 -0.13763185 -0.029044012 0.052972794 -0.06062226
0.015142322 -0.09979627 -0.08850391 0.11976066 0.022274015 0.009599319 0.120514125 -0.06862622
-0.12628737 -0.051790774 0.085291065 -0.102696136 -0.1220603 -0.07097475 -0.03470495 0.10260267
-0.115135975 -0.11067483 -0.1070644 -0.057645176 0.055937547 -0.025092166 0.020450762 -0.025679989
0.049114265 0.067931674 0.081057034 -0.0148862135 0.09647278 -0.08630051 0.1106507 -0.083503425

lstm.weight_hh_l0_reverse f4 [256, 64]
00000000: db5d b93d 16d7 c0bd b153 9e3d 9ffb b33c
00000010: 9586 d13c 3182 1d3d 484d 103d d0de d33d
00000020: 267f afb9 7374 dbbc bcd6 fa3d 8ab5 083c
00000030: 9f23 153e 18f8 63bd 074d 9dbc 0ca1 1dbd
00000040: 70fe 01be b6ba fb3c c875 b43d a56c 013e
00000050: 6197 bcbd b715 dcbd 7f1d 0f3e d566 b83c
00000060: 6aba 2fbd f34f c63b 2ebd 643d a05f bb3d
00000070: 1846 7e3d 78b6 1e3d 654f 02bd 5ba2 293d
00000080: f471 9ebd 600b 5d3b afbf 0a3e a95b 953c
00000090: de60 18be f86f b0bd f1d2 ffbd 9357 74bd
000000a0: 6059 513d e164 2cbd 3e52 f63b f7f6 f6bd
000000b0: 5655 8ebd 21b5 d5bd 0034 c8bd 1620 f639
000000c0: c314 b73c 52be 7cbd eb13 9fbc a28e aa3d
000000d0: 2b60 c83d 1c53 ad3c e9f7 053e d234 173d
000000e0: a022 473c 2dbc 453c d4e1 583d d283 20bc
000000f0: d4c4 d0bd 2aea d93d 5e10 83bd 7ef4 0e39
00000100: 1409 e83c 555a a0bd 6010 7dbd 6eb0 bd3c
00000110: c5c3 6a3d 6829 15b9 cfcc 9cbd 0aac 433c
00000120: b47c af3a 277d 09bd 325d 003e a72b 64bd
00000130: dcc2 cebd 759e b2bc 4dce bcbd 651e f03d
00000140: 9aa3 a83c 88bd edbd 71b6 823d ef8b b3bd
00000150: fce1 d33d 12f0 753d 2f67 a03d 141f d03d
00000160: f129 d7bd 946a d83c 4eb4 f23d a29c 903d
00000170: dd30 95bd 2816 a1bd 1785 bebd 148a 523c
00000180: 00b8 8b3d 0b66 1e3d ae4e 82bd 6b4c eb3d
00000190: 638b debd f744 dc3d 7208 95bd 0804 e53d
000001a0: 1e20 033d 4cd3 683d 2291 e3bd f5a4 983c
000001b0: a375 963d 9c00 ce3d c960 21bd c732 45bd
000001c0: af77 b3bc 96ac 45bd 598c 7ebd 6c41 9fbd
000001d0: 7187 debd 24ca 9c3c b2a8 703d 7a39 b73a
000001e0: 1d4f 13bd 46f5 37bd 8908 683d 6ca8 59bd
000001f0: a06d 223d 0425 043d f531 ccbb 7176 e13d
00000200: 3f6b c33b bc21 6cbd 20f5 d3bd 1c2f b43d
00000210: 0729 0b3e 34ce e63c f217 8cbc f14c cebd
00000220: 38d3 e0bd 1dec 9d3d 97a2 c83c 3d28 503c
00000230: d3cb ffbc f117 1bbe 7cb6 81bd 71f4 8b3d
00000240: 2ed0 d1bd 6e42 2d3d 61e1 d23d 8abc 1f3c
00000250: cef4 88bc af44 0dbe 09ca 09bd c143 c8bd
00000260: 2b25 19bd 2222 0cbd 1af9 803d 0b23 f83c
00000270: 5393 a7bd 086e 4f3d 4c65 0dbe d997 f1bd
00000280: 255c 64bc cb56 e4bd 7923 353c 84f3 ff3d
00000290: 3ff8 11bd e8fe 723d d374 c7bd ffc9 d13d
000002a0: 36dd ca3d 0a64 2bbd ae42 30bd 2479 16be
000002b0: 2274 193d 50b7 c03c 2f03 63bd 9e91 093e
000002c0: ed1d 42bd 27e1 d6bd b154 873d 958f 1ebd
000002d0: 539d de3d 88b2 3b3d ef48 783d cd61 9f3d
000002e0: a1c3 c0bd b28a 883d 3b7d 82bd 07ef 65bc
000002f0: 75ae 013e cf0b 723d fc86 94bd ba04 1b3c
00000300: 82a2 e63c b184 edbb 8df6 f8bc 884d 523c
00000310: ed67 043e d1cc 0abd a7ee 1f3d 4876 09bd
00000320: b029 6f3d 4c38 423d e350 f03b 4647 d4bd
00000330: cae3 b1bc 500d a5bd ae56 ba3d 1485 463b
00000340: 6af0 dabd 6704 2d3d 1f3e 21bd c18d d3bd
00000350: d43b e5bd a0c8 c83d 55a7 ab3d 365f c9bd
00000360: b034 ef3d 2eb3 f0bd da39 eb3c f090 62bd
00000370: 0fdf 1f3d bb04 3fbd 3f15 0fbe 4ec3 aa3d
00000380: 4834 1bbb d246 b13d 9a9a cc3d bbaf c83d
00000390: 3b1b 5f3c 3b76 c2bd 0434 a63d c0ef d43d
000003a0: bd82 4c3d 55bf bdbd 4274 8c3d c56b c93d
000003b0: 49d4 b13d 48e1 e7bd 2225 acbd ef1e f63c
000003c0: f1be a1bd a373 e5bd 3087 debd 43e0 433d
000003d0: 774c d93d e5ca 7fbd f717 d6bd fe5e 88bc
000003e0: f59c c7bc cdf6 20bd 9ea3 8b3c 50a5 3dbd
000003f0: 7cb4 8ebd 3d82 14bc f205 103e c75a afbc
0.09051105 -0.094160244 0.077308066 0.021970568 0.025576869 0.03845424 0.03522995 0.103452325
-0.00033473334 -0.026788926 0.122479886 0.008344064 0.1456437 -0.055656523 -0.019201769 -0.038483664
-0.12694716 0.03072868 0.088115275 0.12639101 -0.09208561 -0.10746329 0.13976096 0.022509972
-0.042902388 0.006052011 0.05584448 0.091490984 0.062078565 0.038748235 -0.031813998 0.0414146
-0.077365786 0.0033728704 0.13549684 0.018232184 -0.14880702 -0.08615106 -0.12491406 -0.05965383
0.051110625 -0.042088393 0.0075171283 -0.120588236 -0.0694987 -0.10434938 -0.09775543 0.00046944682
0.022348767 -0.06170494 -0.019418677 0.08327986 0.097839676 0.021157794 0.13082851 0.036915608
0.012154251 0.01206879 0.05294974 -0.009797053 -0.10193792 0.106403664 -0.06399606 0.00013633256
0.028324641 -0.078297295 -0.061783195 0.023155417 0.057315607 -0.00014225172 -0.07656252 0.011942873
0.0013388605 -0.03356662 0.12535551 -0.055705693 -0.1009576 -0.021804074 -0.09219036 0.11724547
0.020585824 -0.11608416 0.06382454 -0.087669246 0.103458375 0.060043402 0.07832181 0.10162178
-0.105060466 0.026418008 0.11850797 0.07061125 -0.072847106 -0.07865554 -0.093027286 0.012850303
0.068222046 0.038671535 -0.06362663 0.11489185 -0.1086643 0.107553415 -0.072770014 0.111824095
0.03201305 0.056842133 -0.11111666 0.018633345 0.07346656 0.1005871 -0.039398942 -0.04814413
-0.021907656 -0.048260294 -0.062145565 -0.0777615 -0.10865677 0.019139357 0.05875463 0.0013978921
-0.03596412 -0.044911645 0.056648765 -0.053139135 0.039655328 0.032261863 -0.0062315413 0.11008919
0.0059637125 -0.05764936 -0.10349488 0.08798048 0.1358987 0.028174497 -0.017101262 -0.10073269
-0.10977787 0.07711051 0.024491591 0.012704906 -0.03122512 -0.15145852 -0.06333634 0.06833733
-0.10244785 0.04229968 0.10296894 0.009749541 -0.016718294 -0.13795732 -0.03363994 -0.09778548
-0.03738896 -0.03421224 0.06297512 0.030290147 -0.08182397 0.050642043 -0.13808173 -0.11796541
-0.013937985 -0.11149367 0.011055821 0.12497619 -0.035637137 0.05932513 -0.09739079 0.10243606
0.09905474 -0.04184345 -0.04303234 -0.14694649 0.03746427 0.02352491 -0.055422958 0.13434455
-0.04739182 -0.10492163 0.066079505 -0.03871115 0.10869851 0.045824558 0.06061643 0.07782326
-0.09412313 0.06667079 -0.06371542 -0.014034039 0.12664206 0.059093293 -0.07252309 0.009461576
0.028153662 -0.007248484 -0.030391002 0.012835868 0.1293027 -0.033886734 0.039045956 -0.033560067
0.058389366 0.04741697 0.007333861 -0.10365157 -0.021715064 -0.0805918 0.09098564 0.0030291723
-0.106903866 0.042240527 -0.039365884 -0.10329772 -0.11193052 0.09803891 0.083815254 -0.09832613
0.11679971 -0.11752926 0.02871411 -0.055314004 0.039031085 -0.04663537 -0.13972948 0.08338033
-0.0023682285 0.08656086 0.099904254 0.09799143 0.013617332 -0.09495207 0.0811539 0.10397291
0.04992937 -0.09265009 0.06858112 0.098350085 0.08683068 -0.11322266 -0.0840552 0.030044047
-0.07897747 -0.112036966 -0.10865629 0.047821295 0.10610288 -0.062449355 -0.1045379 -0.016646858
-0.024366835 -0.039297868 0.017045792 -0.046300232 -0.069680184 -0.009064254 0.14064768 -0.02140559

lstm.bias_ih_l0_reverse f4 [256]
00000000: 4c78 853c 2e77 8abd ca5f f63d 9747 afbc
00000010: 3a66 b8bd 913c ae3d 8853 c33d e1a5 8f3c
00000020: e490 b0bd bd14 8dbd 597f 6abc 276e 5f3d
00000030: 38a1 dbbd 2a02 a7bd 83b6 c93d 60fb 83bc
00000040: 2efc 20bb b85e 54bd b1d9 273c 9ae6 ebbc
00000050: dc7c e83d be14 983c 07da edbc d89e b13d
00000060: 2ded e63d 8593 6ebd 88e2 c43d 325b e2bd
00000070: d872 d7bc 682d 7ebd 9d2a f8bc 53b9 b2bd
00000080: 451f bbbd 5a2e 9bbd 335a d73d 7a3b f03d
00000090: 5cf0 1bbd fa30 b03a 4b8a 9f3d 8a70 bdbb
000000a0: 1793 773d 0d66 a9bb 3172 7abd 999f a13d
000000b0: abad 073e 71e7 54bd b117 edbc 092d ae3b
000000c0: a22c c93d 4616 b13b b8ea 9ebd 01f1 cabc
000000d0: 52fe cc3b b6e6 69bd 101f 2b3d 3758 f4bd
000000e0: e131 223d b1de 763d 0732 60bb f05a 2d3d
000000f0: 5cc7 9cbc 33cb 82bd a1e0 203d 9fa7 a43d
00000100: 441d d2bc febb 7b3d 12e2 c0bd 95e6 093e
00000110: 6f4a 94bd b0ce ba3c 1c0e 963d fd96 923d
00000120: 52ce bbbd 906e d0bd 7010 4e3c bf07 b8bd
00000130: ef07 a3bd 02d8 5abd 2eb2 48bd 267b a93d
00000140: 7787 023e 9a2a e8bd df9a 373d aa45 0dbc
00000150: 1aec 79bd f9b8 9c3d a7e5 96bd 9dae 8bbd
00000160: a558 a2bd f331 b93c cd11 813d 02fc 8bbd
00000170: a9dc a3bd 0323 b13d 162f 97bb a761 cabd
00000180: 78b8 d4bc 995f c6bb cb8e c73b d6d6 743d
00000190: 3cd9 0a3e 1222 adbd 8221 183c ca20 90bc
000001a0: 4e6b a3bd b237 753d b8e2 263d 5122 073d
000001b0: 0602 963b 8d2e 76bd abf8 f93d 9d74 0fbd
000001c0: 42b9 c3bc 9c21 e83d dac6 db3d fd18 ddbd
000001d0: e5dd 463d 8b06 ccbd 4b74 873d 8874 16bd
000001e0: 2a80 8e3c 97e0 093a bbf5 dbbd f03c 2fbd
000001f0: 8b53 86bd ef60 d13d 3b6c b03d 224d f5bd
00000200: 05e0 933c cc34 e43c e3a2 a0bc 98fc 013c
00000210: ab27 89bd f8c1 d23c 548c 983d 13cf babd
00000220: 15a9 a63d 244e 8c3d a11c bcbd 2e56 9aba
00000230: e42e a93d d195 0ebd 82da 043d 468e 84bb
00000240: 8f4c d2bc 69cf 5f3d 552f f0bd ee53 9b3d
00000250: 688c 14bd a201 a0bc 252b 2b3c 0012 f13d
00000260: 7183 053e ef48 b73d 0765 5ebd bbc4 143d
00000270: 5211 b5bd ccca 633c fa39 083e 796d 89bd
00000280: 32e9 623d 919a c63d 23b5 08bd e094 7c3d
00000290: 5bdb 603d 45fd 94bd ec55 a2bb cde7 c2bd
000002a0: 9adc 703c 2c30 75bd d62e a93a 1953 483d
000002b0: a254 5c3d 312f 7c3d f24a 4cbd d80a 13bc
000002c0: 3481 bb3c 1734 c4bd 3cff e53c 58db 40bd
000002d0: 61a7 c8bc 8ca3 d5bd f16b 033d 92c4 d1bd
000002e0: f24d 84bd 0769 e6bd 3cb0 ed3d e546 1f3d
000002f0: f3fd 8e3d e019 edbc aa20 e03d bd99 28bc
00000300: 908d 09bd 38d1 ca3d 8636 61bd e52d 4db9
00000310: 1090 d73c 83b8 89bc c901 1abd 52c1 b13d
00000320: 881c 3a3d a84b b8bd a82d 7c3c 9dac 673d
00000330: fb17 343d 0b50 f4bd 20ef 0e3e 8eee 313d
00000340: a44a b5bd 92f7 9e3d 3ccd b73d b7e7 e33c
00000350: 4840 acbd b307 bebd 7be7 e7bc 2aa0 90bd
00000360: 86b0 aebc 93a3 ea3d c25b f53c d5ad cf3d
00000370: bfd5 693d 6d9a 9ebd 8c5b 783d 4f56 51bd
00000380: 01c8 163d 0d63 753d b03b 44bd 4056 08bd
00000390: 8337 ec3d 967b ccbd 5346 9fbd 06e6 3c3d
000003a0: 73ce e23d f4bc 933d 4aee f43d cc1c 983c
000003b0: 679e abbd d22e 283d 8265 a53c 8735 ca3d
000003c0: 761d 49bd 4e2b d03d 1227 4cbd ad88 833d
000003d0: 7d7c cf3d e952 a4bd f35c b33d 8647 073d
000003e0: f2e6 9f3d 6acc ccbd e88c d4bd b704 503b
000003f0: faa8 f5bc 4990 2e3d 2c4d 463d 4da7 8e3c
0.016292714 -0.06761013 0.12029989 -0.021396441 -0.09003873 0.08507646 0.09537417 0.017535152
-0.08621386 -0.06888721 -0.014312589 0.05454841 -0.107241094 -0.0815471 0.098492645 -0.016111076
-0.0024564373 -0.051848143 0.010244773 -0.028796483 0.1135194 0.018564578 -0.029034628 0.08672875
0.112757064 -0.058246154 0.0961352 -0.110525504 -0.026299879 -0.06205502 -0.030293757 -0.08726754
-0.091368236 -0.075772 0.10515251 0.11730094 -0.03807102 0.001344233 0.07790049 -0.005781238
0.06044301 -0.005169636 -0.061144058 0.07891769 0.13249843 -0.051978532 -0.028941961 0.005315427
0.09822966 0.0054042665 -0.07759613 -0.024773123 0.0062559033 -0.05710479 0.04177767 -0.11930888
0.03959835 0.06027097 -0.0034209506 0.042323053 -0.01913803 -0.063864134 0.039276723 0.08039784
-0.02564872 0.06145858 -0.094181195 0.13466866 -0.072407596 0.022803634 0.0732691 0.07157705
-0.09170212 -0.10177338 0.012577161 -0.089858525 -0.079604976 -0.053428657 -0.04899805 0.08275442
0.12746988 -0.113362506 0.04482543 -0.008622566 -0.06101618 0.07652468 -0.073680215 -0.06820414
-0.07927064 0.022606825 0.06302223 -0.06835176 -0.08001072 0.08649256 -0.0046137674 -0.09881907
-0.025966868 -0.0060538766 0.0060900203 0.059775196 0.13559431 -0.08453764 0.009285333 -0.01759376
-0.07979451 0.05986757 0.04074356 0.03299171 0.004577878 -0.060102988 0.12205633 -0.03502332
-0.023892049 0.113345355 0.10731287 -0.10795782 0.04855146 -0.099621855 0.06613978 -0.036732227
0.017395098 0.0005259602 -0.10740229 -0.042782724 -0.06558903 0.10223567 0.08614393 -0.119776025
0.018051157 0.027857207 -0.01960892 0.007933758 -0.06697019 0.025727257 0.074486405 -0.091215275
0.081377186 0.06850842 -0.09185148 -0.0011774951 0.08260897 -0.034810845 0.032434948 -0.0040452806
-0.025671272 0.05464116 -0.11727778 0.07584368 -0.036266714 -0.019532029 0.010447298 0.11771011
0.13038422 0.08949458 -0.054295566 0.03632043 -0.08841194 0.013903331 0.13303366 -0.067103334
0.055398174 0.0969745 -0.03337587 0.061665416 0.054896694 -0.0727487 -0.0049540903 -0.09516869
0.014701033 -0.059860393 0.0012907635 0.048907373 0.05379165 0.061568443 -0.04987616 -0.008974753
0.022888757 -0.09580248 0.028075807 -0.047084183 -0.024493875 -0.10431585 0.032085363 -0.10242571
-0.064601794 -0.11250501 0.1160588 0.03888597 0.06982031 -0.028943002 0.1094373 -0.01029056
-0.03358227 0.099031866 -0.05498364 -0.0001956742 0.026313812 -0.016811615 -0.03759936 0.08679451
0.045437366 -0.08998805 0.015391745 0.0565611 0.043968182 -0.119293295 0.13958406 0.043440394
-0.08852127 0.07762064 0.08974692 0.027820451 -0.08410698 -0.09278812 -0.02830862 -0.07061799
-0.021324407 0.114569806 0.02995098 0.10140578 0.05708861 -0.07744298 0.06063418 -0.0511077
0.036811832 0.059908915 -0.047908485 -0.03328538 0.115340255 -0.0998451 -0.07777085 0.046117805
0.11074533 0.07213774 0.119595125 0.018568419 -0.08379822 0.041060276 0.020190004 0.09873491
-0.04910036 0.1016451 -0.049841948 0.06422553 0.10131166 -0.08023626 0.08757963 0.033027194
0.07807721 -0.099999264 -0.10378438 0.0031741092 -0.0299878 0.04261807 0.04841344 0.01741376
