SecPPIS/output/model_epoch_7.pth (torch, 222997 bytes, 12 tensors)

embedding.weight f4 [8, 32]
00000000: 51a6 92bb 27bd 74bf bc19 b5be 19c0 9e3f
00000010: f25b febd dd95 f53f 2969 ffbd 3533 0440
00000020: 5d7b 6bbf 73b8 31bf 61e0 b33e 747a fa3f
00000030: ed8d 12c0 bb5e b2bd 4dae aabd 50aa d2be
00000040: 1817 9c3f d541 e8bf 3713 b53e e2b6 b7bf
00000050: fe92 ec3f 22fe 03bf 79d3 463e 14c1 babd
00000060: 791f 3fbf 8e68 9f3f 7b67 89be f9b8 32bd
00000070: 877e 9c3e aea6 c43f abf5 7e3f 778d 08bf
00000080: f40d aa3f deb6 233f 2587 80bf 9ba9 ac3f
00000090: 12e2 55bf 3b28 e13d aa33 efbe af32 813f
000000a0: 2603 8ebf 5d22 5a3f b841 d03e 6be5 f63f
000000b0: 79ba 263f 2db3 fc3e 53fc e83d 2d88 923f
000000c0: 3f6d 273f 4aff fcbf 0186 253f fd0f 95bf
000000d0: 266c ffbe 0d8a c33d 45ee 2fbf 3737 793e
000000e0: 1c6d bab9 703d bc3a c1fc 83bf 4661 f1be
000000f0: 7549 17bf 9677 d4be 475b 1cc0 02f6 c53e
00000100: c00e a5bd 75c9 cbbf 1701 933f 4b73 953f
00000110: 507b bcbf e0e1 ac3f 5a06 f3bd c5ba 1bbf
00000120: 954b a03f e2e7 ed3e 712f c6bb 3283 b2bf
00000130: dee8 d33f aebb aa3e 9a91 f03e d563 9ebf
00000140: 0b2c 1a3e 4143 c6bf ddd4 4dbf 0cb5 4abf
00000150: ec56 49bf 4d53 09c0 a73d 233e 44c5 c1bf
00000160: ee33 e1bf c636 433f 1cb4 36be a2ed cb3e
00000170: 0142 ce3d ec9b 563f 8e79 b43d ce13 90be
00000180: 01ca b13f 7a1a 98bc e13a 483e cc23 893f
00000190: a113 77bf 685b 1ebf 3ed1 1d3f 4271 a4be
000001a0: 2fc8 16be 964a a9be b613 a3be a827 653e
000001b0: 2a43 5f3f e5c6 8bbf 7790 b7be 787b 1abf
000001c0: e150 27bf 416f 5abf 0286 ac3f d4f9 3a3e
000001d0: dce1 483f 365c 503f 0e7b 60be 92ed 4340
000001e0: 2ed0 85be 0b2f e63f 9e9b ab3f e9e3 b83f
000001f0: 93c5 8bbf f9c2 30c0 0006 77bf f435 b93f
00000200: 0a9c e03e 2286 b6bf eb61 3c3f b494 b13f
00000210: 7d85 fdbe 5e4f 07bf 49fc 44bf 3a4b 843f
00000220: 39d6 613f 1354 263f 7c1c ab3e 79ea 9dbf
00000230: 0a92 43be 3d19 573f f3ae 07c0 5802 e1bf
00000240: 01ed 0940 651f 8b3e c21d f13f a4de 88bf
00000250: e734 f5bf 2ddc 04bf a46a 9fbf 48c6 8ebf
00000260: d2c1 163f 8a8a c5bf 3e9e dcbf 2d37 d33f
00000270: be28 0dbf 9fb7 0240 d7cb 7cbf 8eb5 27be
00000280: 8db3 4b3f 5a1a 343d c41a 833d eb14 883d
00000290: 938f 0a3e 5a4f f73f 0a8a 973f 51f2 a1be
000002a0: 37b8 813e 7311 4b3f 4e66 f2bf 26a6 c63d
000002b0: 4353 5abf 5026 e9bf 7e10 dc3f 47a7 bc3e
000002c0: 42ef 07bf a5e7 2740 b1d6 713f 7eda c73e
000002d0: 51bd f93c cb60 c23e bacf 923e f4c9 d5be
000002e0: de3f bdbf 21ba fc3e 3cc2 c43e 3791 943f
000002f0: f3bc 1ebe 684b 793e 3e14 263f cd98 243e
00000300: 1d57 00bd a235 2640 0f80 98bf 2958 d1be
00000310: 3802 c2be 0938 f93e d180 553e 6d61 b73f
00000320: 4a38 243f 9f54 69bf 1af8 5dbe ea6c 533d
00000330: b3bc c13e 1ceb 8c3f f167 91bf 9098 2d40
00000340: ca2f 003f c82a d2bf 90e0 5f3e ccfb 3e3f
00000350: 527c 8a3f 3e73 a83f ee00 f6bf b658 aabf
00000360: 5870 48bf 96d8 c83e c3a6 cdbf 3307 a1be
00000370: aee9 a3bf 8eb0 dd3d 0812 fabe 75a4 35bf
00000380: 6131 2f3e f6cf a73d 0142 5d3d a491 46bf
00000390: d634 9bbf b343 3b3e 766c 05be febd bbbf
000003a0: d067 b8bf ec9f 70bf 146e a1bf 3b7f 013d
000003b0: f03d 653f fa15 7d3e 612e 08c0 841d 9bbd
000003c0: d63a 70be f51c f23e 746e 6ebd d7f0 fcbf
000003d0: 8d07 f9be ab13 e2bd 32ea a2bf 1453 b33c
000003e0: 9fe9 86bf f511 5f3f 43a7 b13f 480d 8b3e
000003f0: 16c9 68bf 5866 a3bd 7544 52be e760 303f
-0.004475393 -0.95601124 -0.35371196 1.2402374 -0.12419881 1.918636 -0.124712296 2.0656254
-0.9198511 -0.6942207 0.35132125 1.956862 -2.2899125 -0.08709475 -0.083340265 -0.41145563
1.2194548 -1.814509 0.35366222 -1.4352686 1.8482358 -0.5155965 0.19416608 -0.09118858
-0.746574 1.2453783 -0.26836762 -0.043633435 0.30565283 1.5363367 0.9959361 -0.5334086
1.3285508 0.6395091 -1.0041243 1.348926 -0.8354808 0.109940015 -0.46719104 1.0093592
-1.1094711 0.85208684 0.4067514 1.9288763 0.65128285 0.4935545 0.11376252 1.1447808
0.6540107 -1.9765408 0.646576 -1.1645504 -0.49887198 0.095478155 -0.68722945 0.24337469
-0.00035557977 0.0014361572 -1.0311509 -0.47144526 -0.5909646 -0.41497487 -2.4430711 0.38664252
-0.08059454 -1.5920855 1.1484708 1.167581 -1.4725132 1.3506432 -0.11866446 -0.6083186
1.2523066 0.46465975 -0.006048136 -1.3946288 1.655544 0.33346313 0.46986085 -1.2374216
0.15055864 -1.5489274 -0.8040293 -0.79182506 -0.7864826 -2.1457093 0.15941487 -1.5138326
-1.7593973 0.7625545 -0.17842144 0.39829737 0.10071183 0.8383167 0.08812247 -0.2814011
1.3889772 -0.018567313 0.1955371 1.0714049 -0.96514326 -0.61858225 0.61647403 -0.3211766
-0.14724801 -0.33064717 -0.31850976 0.22378409 0.8721186 -1.0920073 -0.35852405 -0.6034465
-0.65357786 -0.8532601 1.3478396 0.18259364 0.78469634 0.813907 -0.21921942 3.0613751
-0.2613539 1.7983106 1.3406866 1.4444553 -1.091967 -2.7619002 -0.9649353 1.446959
0.43869048 -1.4259684 0.7358691 1.3873506 -0.49515906 -0.5285548 -0.76947457 1.0335457
0.882175 0.6497204 0.3342017 -1.233718 -0.19098678 0.84022886 -2.120053 -1.757884
2.1550906 0.2717239 1.8837206 -1.0692945 -1.915677 -0.5189846 -1.2454419 -1.1154261
0.58889496 -1.5432904 -1.7235792 1.6501213 -0.5514029 2.0424573 -0.98748535 -0.16377851
0.7957085 0.043970443 0.064015895 0.06644615 0.13531332 1.9321091 1.1839001 -0.31630185
0.25335857 0.793235 -1.8937471 0.09699659 -0.852833 -1.8214817 1.7192533 0.36846372
-0.53099453 2.6235135 0.9446822 0.39033884 0.03048578 0.37964472 0.28674108 -0.4175564
-1.4785116 0.49360755 0.3842944 1.1606816 -0.15501766 0.24345171 0.6487464 0.16073914
-0.031333078 2.5970235 -1.191408 -0.40887573 -0.37892318 0.48675564 0.20849921 1.4326607
0.6414839 -0.91144747 -0.21676674 0.05161754 0.3783928 1.100925 -1.1359845 2.7124367
0.5007292 -1.6419306 0.21863008 0.7460296 1.081919 1.3160169 -1.9219034 -1.3308322
-0.7829642 0.39227742 -1.6066517 -0.31450805 -1.2805688 0.10824691 -0.48841882 -0.70954067
0.1710868 0.08193962 0.054018024 -0.7756598 -1.2125499 0.18287544 -0.13029656 -1.4667356
-1.4406681 -0.9399402 -1.2611718 0.031615477 0.89547634 0.24715415 -2.1278307 -0.07573989
-0.23459944 0.47287717 -0.058210805 -1.9760998 -0.48638573 -0.110389076 -1.2727721 0.0218902
-1.0540045 0.87136775 1.3879169 0.2715857 -0.9093183 -0.07978505 -0.20533927 0.6889786

lstm.weight_ih_l0 f4 [256, 32]
00000000: 9d2e f6bd 6c16 803d 1aae 57bd 0998 3ebc
00000010: 65ca 90bc c4eb ee3d c9bf bdbd d63d 63bd
00000020: bc13 b6bd a0c0 f0bb 27ef a83d ed3b a4bb
00000030: a9ed d13c f2ca 523b c764 613d 7c0d 7ebd
00000040: 2c93 753d 1f64 93bb 34a3 7bbd ad13 233d
00000050: e545 2dbc 9be9 a43d c7af 9f3d a1e3 aebd
00000060: 64f0 5f3d 4968 bf3d bb89 9e3d 73d3 b0bd
00000070: 4d86 bfbd ce02 46bd f384 0c3e e424 a13d
00000080: 7d51 10bd 9f4d be3d 47e0 e33b 5124 043e
00000090: 48e7 1ebc 9ee7 dd3d f4cc c33b 8f48 0c3e
000000a0: 2104 ddbd b0f6 e03c b65d 1dbd 6a17 bbbd
000000b0: 1cdf ed3c 4043 373d e749 9b3d 7f43 a1bd
000000c0: dbee 05bc 90ad 0abd 34ed 5cbd 2606 09bc
000000d0: 36d4 033e 968b bbbd fd0c cb3d 9c55 d43d
000000e0: 87ab 333d f60d 88bd 463b de3d 4a7a ad3d
000000f0: cc8f aabd 18c6 e2bd b880 b63b c9fb a33d
00000100: d33c c13d 5f4f 0fbe 5309 53bd 4663 ccbd
00000110: f349 ce3d 9cd8 6bbd 9af1 673d 9a5e 073d
00000120: bdc1 acbd 00bb 833c db8c f03b 0d28 48bd
00000130: a59a 553d 3d7a 19be def4 fe3c 0de2 9abd
00000140: 6491 dd3d 8e11 86bd 0b84 003e 276f 44bc
00000150: 880d aebd 17cc 183d e33e 37bc 048c ba3d
00000160: ab28 b4bc 8330 cdbd a843 8fbd b182 c03c
00000170: c1b1 c2bd 04c8 9c3c 08ca fb3d ff7a fdbc
00000180: 24e3 1abe 4014 d5bd 34f7 d6bd fd41 553d
00000190: 7cc5 e33d 78ec 34bd 2d70 e83c 03f4 aabd
000001a0: a0f6 26bb 463f d6bd 9f3d a5bd e2dd 263d
000001b0: 337f 053d e3c3 933d 9eaf 473d f6ab f43c
000001c0: 5b00 a1bd ab7f 8e3d c491 f6bc 5194 0dbe
000001d0: 2e06 cebd d9e7 293c cd1f bdbd fcf8 55bd
000001e0: 20cf 843d b8dc db3c 4fb7 a53d 8d26 b13d
000001f0: 920f 57bd 12ad 0b3e b22d a43d b433 7b3d
00000200: a67d ee3d 6ab1 e6bd 3474 8b3c 86c2 08bd
00000210: eca2 b7bd a789 e6bd 8054 633d 054b b7bd
00000220: f61f 02be 7782 55bd 3ae9 a73d 9cf1 093e
00000230: 6de5 f23c b56b 973d 52af c3bd 2cca 18bd
00000240: 58ca 5fbc cf52 1f3d deb6 92bc f020 08be
00000250: 5e9a b1bb d7d3 a0bd ff68 6bbd 7778 77bd
00000260: a643 963c 398c c33d 2473 bcbb 8f3c e6bd
00000270: e23b 883d 0ff1 b2bd 5101 c8bb 02b9 2bbd
00000280: 7170 89bd b1ea 973d 1775 e0bc a079 693d
00000290: 71b9 073d 6842 3ebd a665 773d 66c0 f0bd
000002a0: a0a3 5f3a 2590 053e db45 20bd da4a bebd
000002b0: d2ce bc3d 8e9f b03c dceb 79bd 8065 06bd
000002c0: 3c68 8b3d 6058 ea3c 2a43 16bd ce1b 723d
000002d0: 5309 fcbd 3b54 62bd 29db 1a3d de7e ca3d
000002e0: 8227 353c 3b53 a03d df8e a83c 1c04 953d
000002f0: eade 15bd bfe3 ad3d bbc2 cbbc 97b1 c3bb
00000300: 8f30 d0bd c038 9fbd 7f81 91bd 2ee0 0d3e
00000310: aaea 793c 6a19 94bd 32fa bebd bc29 333d
00000320: ea7b 8cbd 7f30 d13d a3f7 bf3d 86f7 b6bd
00000330: 8492 a5bd eab1 9dbc 251b babd 63db 6c3d
00000340: 7e40 913c eea3 3dbd 832a 82bd 1196 843d
00000350: 00cf 6e3c 3b26 cabd 63a4 e53d 7cfc ff3d
00000360: 99f7 c3bd 9266 883d e977 04be 2a09 8dbb
00000370: c3b1 af3d 9835 843b a4f6 19bb 5a64 aabd
00000380: 8dd7 cc3c 7418 903c 04ec c23d 8fc9 9e3d
00000390: bd27 bf3c 0dce d13d c721 c7bd 4cb2 87bd
000003a0: 160b a53d 1252 4f3b 5f2a 803c a60d 73b9
000003b0: 05cd b93d 0883 e7bd a28d e4b9 47fe fe3b
000003c0: 1117 b33d 60df a53d f5b1 433d c033 38bd
000003d0: 829f 903c 47a1 f6bc 2b49 29bd 8a2a 71bd
000003e0: bb1c 81bd 6ac8 713d 96b3 ea3d 1dec 4ebd
000003f0: de9c afba e6aa e0bd 2b1d a6bd b031 c3bd
-0.120206095 0.06254277 -0.05265627 -0.011632928 -0.017674634 0.116660625 -0.09265096 -0.055478893
-0.08890483 -0.0073471814 0.0824874 -0.0050120265 0.02562602 0.0032164422 0.05502775 -0.06202458
0.059954807 -0.0044980193 -0.06143494 0.039813686 -0.010575746 0.08052369 0.07797199 -0.085395105
0.054672614 0.09346063 0.07741114 -0.08634081 -0.09351788 -0.04834252 0.13722591 0.078683645
-0.035233963 0.09292149 0.006954226 0.12904479 -0.009698696 0.10835193 0.00597536 0.13699554
-0.10791803 0.02746138 -0.038419448 -0.09135325 0.02903705 0.04474187 0.07582455 -0.07874202
-0.008174623 -0.03385693 -0.053937152 -0.008363282 0.12873921 -0.09157483 0.09914587 0.10367891
0.043864753 -0.06643288 0.10851149 0.084705904 -0.08328208 -0.1107294 0.0055695437 0.080070086
0.094354294 -0.13995121 -0.051522564 -0.099798724 0.100726984 -0.05757962 0.056626894 0.033049203
-0.0843539 0.01608038 0.00734101 -0.04886632 0.052149434 -0.14988036 0.031122621 -0.07562647
0.10818747 -0.06546317 0.1255037 -0.011989391 -0.08498675 0.03730401 -0.011184427 0.09108737
-0.021992048 -0.100190185 -0.06995326 0.023499819 -0.0950656 0.019138344 0.12294394 -0.030942438
-0.1512571 -0.10404253 -0.10496369 0.052064884 0.111216515 -0.044170827 0.028373802 -0.08347323
-0.002547659 -0.10461287 -0.08068394 0.040738948 0.03259201 0.07215097 0.048751466 0.029867154
-0.07861396 0.069579445 -0.030098803 -0.1382611 -0.100597724 0.010370218 -0.09234581 -0.052239403
0.064848185 0.026838645 0.08091604 0.08649931 -0.052505083 0.1364024 0.08016528 0.061328605
0.11645059 -0.11264308 0.017023183 -0.033388637 -0.08966622 -0.11256724 0.055500507 -0.08949856
-0.12707505 -0.052126374 0.08198781 0.13471073 0.029650414 0.0739359 -0.09554924 -0.03730218
-0.013659082 0.03889733 -0.017909463 -0.13293815 -0.0054200133 -0.07852905 -0.05747318 -0.06041762
0.018342804 0.0954823 -0.0057510305 -0.112420194 0.06652047 -0.087373845 -0.0061036726 -0.041924484
-0.067108996 0.07417811 -0.027399583 0.057000756 0.033135835 -0.04645005 0.060399674 -0.11755447
0.0008531157 0.13043268 -0.03912912 -0.092916206 0.09219135 0.021560457 -0.06101595 -0.03281164
0.068069905 0.028606594 -0.036685146 0.059108548 -0.12306466 -0.05525611 0.037806664 0.09887479
0.011056783 0.07828375 0.020575939 0.072761744 -0.03658954 0.08490705 -0.024873128 -0.005972098
-0.10165512 -0.07774496 -0.071047775 0.13855049 0.015253702 -0.0723141 -0.09325065 0.043740973
-0.06859572 0.10214328 0.09373405 -0.0893393 -0.08084586 -0.019249875 -0.09087209 0.05782641
0.017730948 -0.046298914 -0.06355765 0.064739354 0.01457572 -0.09870573 0.11212995 0.124993294
-0.0956871 0.06660189 -0.12936367 -0.004304071 0.08578827 0.004034709 -0.0023492957 -0.08319922
0.025005126 0.017589785 0.09517673 0.07753288 0.023334378 0.10244379 -0.097232394 -0.06625804
0.08058755 0.003163461 0.015645204 -0.0002317937 0.090723075 -0.11304289 -0.00043593073 0.007781777
0.08744634 0.08099246 0.047777135 -0.044971228 0.017654184 -0.0301062 -0.041329544 -0.05887846
-0.06304308 0.05902902 0.114600345 -0.050518144 -0.001339819 -0.10970096 -0.08111032 -0.095309615

lstm.weight_hh_l0 f4 [256, 64]
00000000: dfe5 51bc 0eb0 c33c e69d a6bd 7afc e6bd
00000010: eaa1 b83d 3c02 7b3c bd9e cdbd 7b6a 9f3d
00000020: 39f5 a33d f259 9abd 3144 4bbd 4c89 643d
00000030: f882 c43b 5560 d8bd 726f 39bc db90 a0bc
00000040: eae6 45bd 8d53 87bb 4edd 2f3d 392a 883d
00000050: 69ed ecbd eb95 653d fe50 213c 2ada ff3c
00000060: 199e a23d c4c9 aa3c 8116 c4bd 0630 d83d
00000070: 38fb 37bd 187b c4bd abef 0b3e 92a2 0a3d
00000080: fb92 ecbd 3e1c 813c 53d7 1bbd 4d1c 093e
00000090: 79d3 7f3d 8850 9cbd 7f71 4c3d 32cc 003e
000000a0: d9bf 5d3d 6601 7cbc b1f2 e93c a078 d13b
000000b0: a6a7 8d3d bf56 6d3d 7190 b8bc ee7d eebc
000000c0: f46d 14bd aa7a 143e fbb1 3dbd 8ec3 1f3d
000000d0: f149 97bd 9a79 733d dd24 d2bd c142 eb3d
000000e0: bd44 56bc 7ae9 ae3d 6a82 9dbd f239 aa3d
000000f0: 4365 9ebb 8e3a b53d 23af 89bc 7896 12bd
00000100: 269e fa3d 42a5 8e3d 50c4 d1bd 9ee2 f63c
00000110: d8bf ec3d f148 c73d 09f4 e4bd e7f8 45bd
00000120: 92ed acbd 10ba bbbd e66f 623d 11d7 8bbd
00000130: 96f9 c03d 1fba b1bd 5d4e c5bd e9f5 8cbd
00000140: 46c2 cfbd 1a52 953d 411e aabd b7f8 c2bd
00000150: 349a 013c 076b b4bd 0cf7 a53c d6f9 9f3d
00000160: 94dc a53d ac84 ffbc 4add 02bc 336e 80bc
00000170: b13d a23c 0c5d 0e3e cbc4 8bbc a18c 33bd
00000180: cca9 cabd 666e c3bd 326d 6a3d 98e4 98bd
00000190: 91b3 163d b23e f83d cdd8 ffbd ea31 533d
000001a0: ae64 3b3c 993d 313d 3330 853d c8cf 373d
000001b0: a9d3 b53d 55fc 63bd eff1 553d 3bf9 843a
000001c0: a58a c6bc a897 34bc 9830 053e 672c 7a3c
000001d0: 350f 893c 117a 00be acb2 863d 8df6 873d
000001e0: 7f35 a5bd b7d6 dbbc c773 c73b 7f94 00bc
000001f0: c5ee 03be d8d7 6dbd c731 c7bd 6000 2dbd
00000200: bdf5 123d c6dc c23d 912c 053e 5de5 ebbb
00000210: 8b06 b23c f6c5 a03d 9fc6 cabd 0587 0d3e
00000220: 0cbc 623c 9d6c dcbc 6b02 34bd 1372 3a3d
00000230: 34ba 82bd ec70 583d 05f6 cbbd f082 893c
00000240: 86c9 02be 28cd bbbc 287a f6bd da7a b33b
00000250: 8091 82bd 0538 953c 9ae2 d83d 2923 093d
00000260: e267 e43d e18c 753c a609 6abd 66a0 213c
00000270: 992d bfbd 9ce8 03bd 4964 8e3d 7c5a 8c3d
00000280: c663 cbbc 3ae0 01be 1535 7a3d 39f3 56bd
00000290: 3e3e 54bc 598a 803d b372 01be 8694 2c3c
000002a0: 1372 b33c d1e6 bdbd c5d9 b33d d1fb d4bd
000002b0: 4241 263c 77b4 d53d bd08 8cbc 9b81 c63b
000002c0: de3b e53c 10b1 37bd 966e f13d 023f a33d
000002d0: a46f 38bd 6851 1d3c 2ec9 bb3c cd4c 7dbc
000002e0: 313f 67bd c751 e8bd 1570 51bc cfb5 043e
000002f0: aa0f 993d d439 e0bd 26f9 933d 11ac ac3d
00000300: 120f 12bd b534 ffbd 946b b83d 7c4d 533d
00000310: 5fed 2abd 3d2c a5bd 821e 5f3d ab1f 78bd
00000320: db1f 043d 1afd a93d 70af 8dbd 9cac f0bc
00000330: 19c9 623d 0d09 8b3b 4851 bf3d 52c4 103e
00000340: 1a1f 323c 75aa 113d 4e3b 02bc ab0e b23d
00000350: 57c7 bbbd 7acd 72bd 7f99 32bd 2034 b3bc
00000360: f40d 8a3d c7dd 39bd a716 da3b c17d d4bd
00000370: ffe6 893d 43b7 89bd 81d1 5cbd d9ff 4bbc
00000380: 9329 753d 6dd3 cc3d 2a27 4abd 5d0d c8bd
00000390: a4ae 253d 9be8 e23d 11e0 753d 8b81 69bd
000003a0: d963 04be 6ac8 e4bc 56bc 8d3d 2a6b 8bbd
000003b0: 0f4b e7bd fd5a c2bc 667d 04be 39df 9ebd
000003c0: 9a22 aebd 69ef ea3d 7946 99bc f37c d53d
000003d0: 9bf6 c93d c952 97bd efeb d43d 5ca9 4c3d
000003e0: 9505 f1bd b8d9 633d 5764 013d bc89 3bbd
000003f0: 6901 0abd 0de9 863d 3929 1f3c b3d1 bb3c
-0.012811153 0.02388766 -0.081355855 -0.11278625 0.09015258 0.015320357 -0.100400425 0.077839814
0.08005757 -0.07536687 -0.04962558 0.055795 0.005997058 -0.10565249 -0.011318075 -0.019600322
-0.04831592 -0.004129833 0.042935662 0.06648678 -0.1156872 0.056051176 0.00984597 0.031231958
0.07940311 0.020848162 -0.09574605 0.10556035 -0.044917315 -0.09593791 0.13665645 0.033846445
-0.11551472 0.015760537 -0.038047146 0.13389702 0.062457535 -0.076325476 0.049912926 0.12577894
0.05413804 -0.015381193 0.028558107 0.0063925534 0.06916742 0.057944056 -0.022529813 -0.029112782
-0.036237672 0.14499918 -0.046312314 0.039004855 -0.0738715 0.05944214 -0.10260937 0.11487342
-0.013077912 0.08540626 -0.0769089 0.083118334 -0.0048338487 0.08849059 -0.016807145 -0.03578803
0.12237196 0.06965114 -0.10242522 0.030137356 0.11560029 0.09730709 -0.111793585 -0.048333075
-0.084437504 -0.09166348 0.055282496 -0.0682813 0.09422605 -0.08678078 -0.09634087 -0.06882841
-0.101444766 0.0729105 -0.08306552 -0.09520095 0.0079103 -0.08809476 0.020259403 0.07811324
0.080987126 -0.031191193 -0.00798733 -0.015677547 0.019804807 0.13902682 -0.017061612 -0.043835286
-0.098956674 -0.09542541 0.057233043 -0.07465476 0.03679234 0.12121333 -0.12492523 0.051561274
0.011437578 0.043271635 0.06503334 0.04487589 0.088782616 -0.055660564 0.05223268 0.0010145077
-0.024236033 -0.011022486 0.13006818 0.015269375 0.016730884 -0.12546565 0.06577048 0.06638823
-0.08066844 -0.026835782 0.0060868 -0.007847904 -0.12884052 -0.058067173 -0.09726291 -0.042236686
0.035878886 0.095147654 0.13005282 -0.007198973 0.021731636 0.07850258 -0.09901165 0.13821037
0.013838779 -0.02690726 -0.04394762 0.045518946 -0.06383172 0.052842066 -0.09959034 0.016786069
-0.12772188 -0.022924975 -0.12035018 0.0054772915 -0.06375408 0.018215189 0.10590096 0.033480797
0.111526266 0.014987201 -0.057138108 0.009864902 -0.09334869 -0.032204255 0.069527216 0.06853196
-0.02482785 -0.12683192 0.06108578 -0.05247805 -0.012954293 0.06276388 -0.1264141 0.010533458
0.02190498 -0.0927254 0.087817706 -0.10399593 0.010147395 0.104348116 -0.01709401 0.0060579306
0.027982648 -0.044846594 0.11788671 0.07971002 -0.045028344 0.009601928 0.022923078 -0.015460205
-0.05645675 -0.11343723 -0.01278307 0.1295998 0.07473691 -0.1094853 0.07225256 0.084312566
-0.035658903 -0.12461225 0.09004894 0.051587567 -0.04173028 -0.080650784 0.054472454 -0.060577076
0.032256942 0.083002284 -0.06918228 -0.029379182 0.055367563 0.0042430223 0.09341675 0.1413739
0.010871673 0.03556295 -0.00794871 0.08694204 -0.091688804 -0.05927799 -0.043603417 -0.021875441
0.067409426 -0.04537752 0.0066555324 -0.10375548 0.06733512 -0.067244075 -0.053910736 -0.012451136
0.0598541 0.10001264 -0.049353756 -0.09768174 0.040449753 0.11079522 0.06002814 -0.057008307
-0.12928714 -0.027927596 0.06920688 -0.06807549 -0.11293613 -0.023725027 -0.1293846 -0.0775742
-0.085026935 0.11471445 -0.018710362 0.10424223 0.098614894 -0.07388837 0.10396563 0.0499662
-0.11768643 0.055627555 0.031589832 -0.04578565 -0.03369275 0.0658742 0.009714418 0.02292714

lstm.bias_ih_l0 f4 [256]
00000000: 25ad 913c b438 2cbd 08bc b33d d350 5ebd
00000010: e757 2b3d 6f2c 48bd 735b 4bbd 1d23 d33d
00000020: 88c2 683c ce2b 36bd e10c 623d f6bc a8ba
00000030: 1d4e 183d 35af 02bd 9f25 1a3d 3aaf 0bbd
00000040: 0a78 a9bc edf6 eebd fc2a a03d e0ae e7bd
00000050: c967 4d3d 89fb cabd d0d5 de3c 255d 053e
00000060: 79c5 d03c 1269 69bd 581f 6d3d 1f2a f83d
00000070: 2e86 883d e5bd a83c b30f 7cbd fa92 28bd
00000080: 7513 eabc 8bef 52bc 11cb b33b d002 edbd
00000090: 6008 c9bd 0fec e0bd 1943 b93d 9b84 063e
000000a0: d158 233d 8dd7 823d e98d d0bd 46d9 abbd
000000b0: b07f e63b 3e28 8b3d c76e 283d 0fc3 88bd
000000c0: bb18 9c3c 9e4a d6bc ce9e e03c ea53 c1bb
000000d0: b3f6 533c 8cc9 25bd 0fc8 363d caab c0bd
000000e0: f5e9 3cbd 40d1 b0ba 606e 113d 7aef 093d
000000f0: a518 7b3d 598c 93bd 5de5 dfbc 5fd2 cfbd
00000100: e558 91bd 7418 993d 4381 0e3e ef4d 67bd
00000110: aa18 59bd 265a e43d 7b65 f53d ab27 eb3d
00000120: ffef da3d 6e1f f63d 1836 0d3d 6db9 933d
00000130: eab8 003d a15f af3c e7d6 4fbd dac5 36bd
00000140: 2419 49bd 40a7 9abc e9bf e73d 384f 9dbd
00000150: 47c1 d03d 6c41 97bb 269f de3c 992c 893d
00000160: b098 ec3c 4f01 98bd a153 183b 3873 d63d
00000170: 84c1 873d 5f5f 05be 80cf 843d f061 a53c
00000180: dbc3 363c b3e8 b63d d478 b83d f52a ebbd
00000190: fc67 11b9 6c63 c6bd 8986 d03b fff2 69bd
000001a0: 4440 7a3d b738 373d 8eca 4abd a2a6 c53d
000001b0: d1d4 56bc 6b46 ee3b 7e6a b43d c362 563c
000001c0: a2bb 453d d51e 373c 5ff0 593d 3b16 cd3d
000001d0: 0ad5 833d 5a07 b9bb 6d6b 8b3d e4bb 77bd
000001e0: 2330 eb3d ca00 b6bd 6d49 42bd 9023 0b3c
000001f0: eab7 8abd 6d31 3c3c e73f 453d bf52 ee3d
00000200: b73b 5f3c 014c e23d dbca dd3c c4c3 b73d
00000210: 191b 10bc 1431 903d cbf5 bc3d 1da0 bc3d
00000220: 0cda 403c 8434 c23d cd2c 2a3c 7779 f73c
00000230: b518 b03d 0491 f3bd 6305 a9bd 2ec3 0ebe
00000240: 6757 d73b 9779 0fbe c653 aebd d210 d43d
00000250: 181e 46bd 26dc 343d 7acb dfbc 4eed 403c
00000260: 5832 9a3d ecfa f2bd 2074 d438 7bf1 913d
00000270: c128 21bc 98b6 a2bc 5a8c b53d b5e2 543d
00000280: baae 863c 1ec7 b0bd c818 fabd 68d3 f9bd
00000290: b306 2d3d 4715 c83d 9eb8 c1bd 5056 983c
000002a0: f8dc e8bd 02fb c6bb a60c f83d fb5b f0bd
000002b0: 4ea9 ebbd f90b ad3d eb3e 6abd 5764 213d
000002c0: 0011 d5bd 5afa 61bc 68c3 de3d a48a eebb
000002d0: 2c80 af3b 8b76 b43d ee44 9cbd f7c0 e0bd
000002e0: 9047 b6bd 04b8 bcbd ce35 c93d d4d0 88bc
000002f0: 2997 84bd 766e 583d e5e8 91bd 55a9 d23d
00000300: 2092 b1bd 6322 94bd 2a46 91bd 935b f63d
00000310: 8ccc 8c3d 0342 d9bc 5afc c3bb d2d2 853d
00000320: 47c9 43bc a30b 8a3d 3bc6 b53b 4854 c1bb
00000330: 8f45 8e3d 8a3b 793d f405 7bbb 8cc1 d8bd
00000340: 05a9 debc 668e cf3d 4161 80bd f584 a13d
00000350: 708f 04bd de87 97bd 3c14 8f3d 0a0b 033e
00000360: bb4d 6d3d 6499 d73d d5c2 ccbd 84a8 af3d
00000370: 0d66 e5bd 8071 ca3d cedd 11bb 0279 813d
00000380: 9e82 3abd 82c0 f63d 8031 86bd 4df0 1f3d
00000390: 0ffe 283d 4e3b d43c 104a a93b d407 023e
000003a0: b4dc f23d 2515 01bd e672 acbd 95e2 38bd
000003b0: 3381 a2bc 3bdd 94bd 3e15 ed3d b887 af3d
000003c0: 8a18 40bd 6018 87bd bf07 a9bc d3d7 0fbd
000003d0: bd2b e5bc 4abe 35bc 18c4 d83d d728 a93d
000003e0: 8619 133d 45c0 c83d 6786 9b3d 4344 c8bd
000003f0: 28e3 073e 2efe 90bd 5848 dbbd 57aa bf3d
0.017782757 -0.042046264 0.087760985 -0.0542763 0.041831877 -0.0488705 -0.04964776 0.10309432
0.014206536 -0.04447537 0.055188064 -0.0012873698 0.03718387 -0.03190537 0.037633535 -0.034102656
-0.020687122 -0.11668191 0.078206986 -0.11312652 0.050147805 -0.09911258 0.027201563 0.13023813
0.025484787 -0.05698497 0.05789122 0.12117409 0.06666218 0.020598361 -0.06153841 -0.041155793
-0.028573731 -0.012874494 0.005486854 -0.11572802 -0.098160505 -0.109825246 0.09046001 0.13136522
0.039879624 0.06388769 -0.10183317 -0.08391051 0.0070342645 0.06794785 0.04112127 -0.066778295
0.019054761 -0.026158627 0.027419474 -0.005899896 0.012937236 -0.040475413 0.044624384 -0.09407766
-0.046121556 -0.0013490096 0.035505652 0.03367565 0.0613028 -0.072045036 -0.027331049 -0.10147547
-0.070970334 0.07475367 0.13916497 -0.056470808 -0.053002037 0.11150007 0.119822465 0.114821754
0.10690307 0.120177135 0.034475416 0.072131015 0.031426348 0.021407904 -0.050742056 -0.04462228
-0.04909624 -0.01887858 0.11315901 -0.076811254 0.10193115 -0.004615953 0.027175497 0.066979595
0.0288814 -0.074221246 0.0023243206 0.10471195 0.06628707 -0.13024662 0.0648489 0.020188302
0.011155094 0.089311026 0.09007421 -0.11482803 -0.00013867015 -0.09686932 0.006363694 -0.057116505
0.061096445 0.044731822 -0.049509577 0.09650923 -0.013112263 0.007271578 0.08809374 0.01308507
0.048274644 0.0111767845 0.05320775 0.10014006 0.06437118 -0.0056466283 0.06807599 -0.06048192
0.11483791 -0.08886869 -0.047433306 0.0084923655 -0.0677336 0.011486393 0.048156645 0.11636876
0.013625077 0.11049653 0.027074268 0.08972886 -0.008795523 0.07040611 0.09226569 0.09210227
0.011770736 0.09482673 0.010386658 0.030209286 0.085984625 -0.11892894 -0.082529806 -0.13941643
0.0065716985 -0.14011227 -0.08512072 0.10354771 -0.048368543 0.044155262 -0.027318705 0.011775328
0.075291336 -0.11864266 0.00010130578 0.07126137 -0.009836377 -0.019862458 0.088646606 0.051974017
0.016440738 -0.086317286 -0.12211758 -0.12198526 0.042242717 0.09769683 -0.09459041 0.018595845
-0.113702714 -0.006072403 0.121117875 -0.11736294 -0.11506902 0.08449549 -0.05718891 0.039402332
-0.10403633 -0.013792599 0.108771145 -0.007279711 0.0053558555 0.08811673 -0.07630335 -0.10974305
-0.08900368 -0.09214786 0.098247156 -0.01670114 -0.06474144 0.05283972 -0.07124499 0.10286204
-0.08670449 -0.07233121 -0.07093461 0.12029185 0.06874952 -0.026520735 -0.0059810104 0.065343514
-0.011949844 0.06740501 0.0055473126 -0.0058999397 0.06946861 0.060847796 -0.003830311 -0.10583791
-0.027180204 0.10134582 -0.0626855 0.07886688 -0.032363355 -0.073989615 0.06986281 0.1279718
0.057935458 0.10527304 -0.09998099 0.08577064 -0.11201105 0.0988493 -0.002225745 0.063219085
-0.045534723 0.12048437 -0.0655241 0.039047528 0.041257914 0.025907185 0.0051662996 0.12698299
0.11858502 -0.031514306 -0.08420353 -0.04513796 -0.019836998 -0.07268759 0.11576317 0.08570808
-0.046898402 -0.06596446 -0.020633576 -0.035117935 -0.027974958 -0.011092732 0.10584277 0.08259743
0.035913013 0.098022975 0.075939946 -0.09778645 0.13270247 -0.07079731 -0.10707158 0.093586616

lstm.bias_hh_l0 f4 [256]
00000000: e446 f13d e14c b9bd 228f 0f3d 7fe0 af3c
00000010: e94b 87bd 9d53 dcbd 48c4 ec3d e65d f93d
00000020: 567c 3bbd fe2a 053e 6189 ecbd 9faf e83d
00000030: b101 4cbd 0e10 b7bd 6f9a 453d e0ce c03c
00000040: a81d 523b 056a 6fbd e6d1 cd39 fbfb 00be
00000050: 3df8 a53d 2c24 413c 33b4 e83d dfa6 a23d
00000060: 59c2 e23c aeb4 77bd d9d1 8cbb 9629 013e
00000070: da74 cf3d 1565 27bd 1591 143c baf1 99bd
00000080: 99e8 4b3d 53ee 7d3c fd2c c9bd fe40 c93c
00000090: 58f8 2cbc 75c7 203d e44f f53d a9db 213d
000000a0: e46e a6bd e1f8 8c3d 9f81 efbd 7ad6 b53d
000000b0: 0ca0 c43c 0d42 7a3d 2962 75bd c724 34bc
000000c0: bfc8 743d 70d5 09be aa92 a73d 1d91 dc3d
000000d0: 0e68 013d 7d78 e33d 3941 813d 28ce 2cbd
000000e0: 66a2 1cbc 65c3 e83d edf8 883c d594 c0bd
000000f0: 2089 013d 6e96 19bb 3491 863c e3fb 2ebd
00000100: 21c1 04bd 770b 00bc eae9 dabd 5073 033e
00000110: 9de7 a8bd 8eee ae3d e694 abba 8c7a 2c3c
00000120: 0fe7 f03d fdd8 fd3d 75cb 6c3d 38f3 8b3d
00000130: acb7 0b3e c51d afbd d924 e43d 5e82 debd
00000140: c1bd 03bc 6460 db3d 7c9b 863a 3798 0e3d
00000150: 3fe8 963d e953 083e 2f64 b73d 5808 d93d
00000160: 8a19 463d 71f6 da3d 2c98 d9bc 1c6a ef3d
00000170: ef83 fbbc f039 eabd 78c8 b2bc e4c3 d9bd
00000180: ffa1 d73d 5047 0ebd 0abb 8b3d e167 323c
00000190: 0aac d4bd 28ba eabc 0313 c7bd 9224 a63d
000001a0: 817f 5c3a 6ed2 d83d 07cd 103c 3c29 b1bd
000001b0: 1f6d 8c3c e634 da3d a5a2 02bd 4cfc 0d3e
000001c0: 9f18 da3c 54e9 89bd cecd 083e f9cc 6abd
000001d0: f3f5 253d f17a 5e3d f0d3 d33d 248a 60bd
000001e0: 97fe a33c 8451 b5bc 3764 7bbd e4ce 15bd
000001f0: d415 ff3d 06ee 553d 4fa3 c03d 4beb 823d
00000200: 8bff 5abc 65de 3cbc 0612 ecbc 6ff2 21bd
00000210: a97d b0bc 4818 623d a0c3 fa39 234c 1a3d
00000220: 1016 ccbd dcc2 f33d f030 013e e3f9 91bc
00000230: 45e7 1fbd fd41 33bd 179e 413d 7780 cb3d
00000240: 5bb0 87bd e3e5 d23d 8eef fc3c dcde f4bd
00000250: f587 9ebc fac3 883d f16c 13bd 761a c73d
00000260: 75ad e43a 2422 8e3d 020b 6bbd 4925 f03d
00000270: 56dd da3d 7be8 6e3d 0a99 69bc b794 283d
00000280: a6be 3a3d 2088 153b 785b 58bc f4b3 b13d
00000290: 800f c63d 0d7c fa3d 849e 433d 7528 acbd
000002a0: d5a1 be3c 096c 0ebe 4bbb 053e 7588 e9bd
000002b0: 9481 cabd bf7f b23d e19a f9bc 37b0 4c3d
000002c0: cae7 d43d 6d99 99bd 96f9 62bd 226a 6dbd
000002d0: 3b65 fcbc 790f 3dbd ec60 b2bd aba0 5a3d
000002e0: cea9 02be cafa d1bd 01cd e33c 8e6c f03d
000002f0: 5731 87bd 5d48 993d ab26 8ebd c572 8dbd
00000300: 7a05 1cbd 5a4c a13d 2a8d c03d ceec 373d
00000310: 7c2c b43d 41ef 56bd ef02 9ebc 3e63 8fbd
00000320: 5955 4d3d 6b8e 8ebd 44ae 61bd b137 d5ba
00000330: 08ef bbbd 7550 88bc 0b8e a0bd 0037 8dbc
00000340: d69a e63d 2c1a 973d c49c 82bd ed66 003e
00000350: f6dd c73d 3060 dd3d 2658 e0bd 8ea0 fa3c
00000360: 6103 a73d 9546 05bb ca06 10bd 70b8 bfbd
00000370: fb91 89bd 2abb ac3d 644b 4fbc ad4a d8bc
00000380: 4f61 0e3e e016 4abd 4333 f83d fb70 62bd
00000390: 7f5d 253d 01ea eb3d 264b 79bc 62ee a73c
000003a0: 3651 4abd c73d e73d 4aaf ac3d bf39 7d3d
000003b0: 7a60 9dbd 5580 10bc 3687 b1bd d020 cabd
000003c0: 9b29 aa3c 932b e8bd 8ac7 ba3c a95d c1bd
000003d0: 223f 60bd b89d 253c 37e6 733d 4889 e2bc
000003e0: a6e1 523d 0d95 c3bd 4e32 f53d d25f b73c
000003f0: 2e94 8bbd a109 4cbc 13c7 de3c d695 43bd
0.117810994 -0.090478666 0.03504861 0.021469353 -0.066062756 -0.107581355 0.11560875 0.12176113
-0.045772873 0.13004681 -0.115496404 0.11361622 -0.0498063 -0.08938609 0.048242982 0.023536146
0.0032061134 -0.058450717 0.00039257033 -0.12596123 0.08103988 0.011788409 0.11362495 0.079419844
0.027680563 -0.060475044 -0.0042974767 0.1261352 0.101297095 -0.040867884 0.009067793 -0.07516809
0.04978237 0.015498715 -0.09823034 0.024567124 -0.010557257 0.039252717 0.119781286 0.039516125
-0.081266195 0.068834074 -0.11694645 0.08878799 0.024002098 0.061098147 -0.059908066 -0.0109950965
0.05976176 -0.13460326 0.08182271 0.10769866 0.031593375 0.11106966 0.06311268 -0.042188793
-0.009560203 0.113653935 0.01672026 -0.094033875 0.031624913 -0.002343561 0.01642666 -0.042720687
-0.032410745 -0.007815233 -0.10689147 0.12836957 -0.08247302 0.085415944 -0.001309064 0.010527264
0.11762821 0.12394903 0.05781122 0.068335 0.13644284 -0.085506 0.11139841 -0.10864709
-0.008040846 0.107117444 0.0010269727 0.034813132 0.07368516 0.13313259 0.089546554 0.105972946
0.0483642 0.10691536 -0.026561819 0.11690161 -0.03070256 -0.11436832 -0.021824107 -0.10633066
0.10528945 -0.034735978 0.06822784 0.0108890245 -0.10384376 -0.02865322 -0.09720423 0.08112444
0.00084113335 0.10587011 0.008837945 -0.08650443 0.017141877 0.10654621 -0.03189339 0.13865775
0.026623068 -0.06733957 0.13359758 -0.057324383 0.04051776 0.054316465 0.10343158 -0.05481924
0.020018859 -0.022133596 -0.06137487 -0.03657426 0.12455335 0.05222895 0.09406149 0.06392535
-0.01336659 -0.011527632 -0.028817188 -0.039537843 -0.021544294 0.055198938 0.00047829468 0.037670266
-0.099651456 0.11902401 0.12616324 -0.01781935 -0.039038915 -0.043764103 0.047269907 0.09936612
-0.06625434 0.10297754 0.030875947 -0.119565696 -0.019351939 0.066780046 -0.035992566 0.09721844
0.0017446714 0.069401056 -0.057383545 0.117258616 0.10686748 0.05832718 -0.014257679 0.04115745
0.045591973 0.0022816733 -0.013205402 0.086769015 0.09670925 0.12230692 0.047758594 -0.08406154
0.023270527 -0.139084 0.13059728 -0.1140298 -0.09887996 0.08715772 -0.03046936 0.04997274
0.10395773 -0.07499967 -0.055413805 -0.057962544 -0.03080999 -0.046157334 -0.08709893 0.05337588
-0.12760088 -0.10252912 0.027807714 0.11739455 -0.06601208 0.07484505 -0.06940969 -0.06906656
-0.03809116 0.07875891 0.09401925 0.04490357 0.08797547 -0.052474264 -0.019288508 -0.07001351
0.050130222 -0.06960758 -0.055097833 -0.0016267208 -0.09176451 -0.016639927 -0.078395925 -0.01723814
0.11260001 0.07378039 -0.06377557 0.12539263 0.097591326 0.10809362 -0.10954313 0.030594137
0.08154941 -0.002033626 -0.035162725 -0.093613505 -0.06717297 0.08434136 -0.012652252 -0.026402796
0.13904308 -0.04933822 0.121191524 -0.055283528 0.040372368 0.11519242 -0.015215671 0.020499412
-0.049393855 0.1129108 0.08431871 0.06182265 -0.07684417 -0.008819659 -0.086683676 -0.0986954
0.020771792 -0.11336436 0.022800226 -0.094416924 -0.05474771 0.010108404 0.05954572 -0.027653351
0.051484726 -0.095499136 0.119724855 0.022384558 -0.068153724 -0.012453468 0.027194535 -0.047750317

lstm.weight_ih_l0_reverse f4 [256, 32]
00000000: 2afd 23bd 0fa9 ca3d 9679 0ebe d468 9dbd
00000010: 510d 4abd 38e3 ddbd f085 2bbd f138 8e3d
00000020: 0945 28bd 3820 cc3d 78c4 50bc 0e7a 353c
00000030: f75a dbbd 2962 8dbd 7d16 313d 6a63 5c3d
00000040: cfad 8f3c ff2d e63b bda0 de3d f5e8 a5bd
00000050: 8d8a c5bd 2f04 f4bd b711 063d 6d83 033d
00000060: 0fda f0ba f66b 093e b086 a63d 0ccf 87bc
00000070: 7fbb 93bd b229 963d b595 d33c c5e0 ea3c
00000080: 6e4f fdbc cf00 873d e96e f7bd 4508 9abc
00000090: c031 7abc 674d a0bd b82b cb3d 0862 cebd
000000a0: 4733 bf3c 75b2 23bb ac04 f8bd 0224 c43d
000000b0: 4a85 bb3c 8db0 c5bd 90e7 053e 7118 a43c
000000c0: fb73 cb3d 0c0e 9c3d f759 31bc 7048 063d
000000d0: 1196 8fbd 3504 ef3d 8cf7 34bd 6167 90bc
000000e0: b099 edbd 2669 eebd 06f4 643c d590 a5bc
000000f0: 663a 933c 7fa1 dc3d d620 d0bc 9b90 cb3c
00000100: 3176 6c3d 0bd1 8d3d 0a24 2bbc cd08 93bd
00000110: 15d9 3ebd d2d6 d9bd 4c0d 5bbc b77e ed3d
00000120: 986e 4f3d 78f5 17bd 0877 e2bd c0b1 2bbd
00000130: baa0 4c3d 20cf 9bbc 45b6 0dbe 8e3f dabd
00000140: 025b 10bb ce5a 633d c3bb afbc d1d2 e43a
00000150: 8cff 63bd d50c a5bd 5016 fd3c 2930 0abe
00000160: 2142 c4bc 1d2d e3bc aa0f be3d 1b0b 00be
00000170: 32b5 4d3c 3283 db3d 546e 5d3d 5c99 22bd
00000180: 738b 823d d646 9e3d cf42 88bd f860 9c3c
00000190: e042 debd aa0f d23d 74a7 abbd f414 1bbd
000001a0: 612f b1bc adce 26bd 2597 d53b f267 2fbc
000001b0: c13f be3c 5810 21be bdd9 8abd 18f0 fbbc
000001c0: bef2 5d3c 3ba1 cf3d 5d69 0b3e a77d e5bd
000001d0: 5867 583d aacc 72bc ae5c d7bc 440c 85bd
000001e0: 4593 e3bd e0ff d2bc 2f87 aa3d af05 f13d
000001f0: b44f 11bd 5908 033e de21 b03d 4148 86bc
00000200: da70 843d 3d87 533d 4074 23bc 46d4 063e
00000210: 9039 93bd 21da 9c3d b930 88bd 41c9 283d
00000220: acbb a83c 95bb 42bd 912c 6c3c c358 a1bd
00000230: d471 8f3d 9ad6 e83b b472 29bd d43e 453d
00000240: 05bc c13b 88ed 8ebd dd46 41bc d3b9 8a3d
00000250: de91 f33d 88ee 0f3d eb44 c7bc e7ec ccbd
00000260: e765 4e3d f4d8 ab3d acb3 05bd 3a6d 403d
00000270: 3138 2abd 0aa4 fe3d f5fd d03d dbe5 cabd
00000280: 36d5 e63d 50ad 8b3d 1753 fdbd 2e8d 1e3d
00000290: 1600 b53b 0832 a9bd 874b e23d 6ff4 5b3d
000002a0: a129 4c3d 6018 06be 2184 673d 11c0 d03d
000002b0: 36a1 b3bd 03c0 efbc a674 e7bd 6a59 a1bd
000002c0: b169 3fbd b19a b33d f4a3 d53c 6730 d3bd
000002d0: ce92 253c 310f 003d 92bd 6b3d a38a 4abd
000002e0: 3749 e0bd 0e16 14bd e2bf c23c 37d7 df3b
000002f0: 8f83 4bbd bf3b dc3d 2954 9abd 7170 c2bd
00000300: dd5d bb3c 6356 8e3d 847d 8ebd 8704 ce3c
00000310: 52f1 ce3d a904 a2bd 994e df3d f99e a43c
00000320: 7492 8ebd 7ce4 85bd 5ca8 ddbd 51b1 d93d
00000330: 9d52 1abd 8c6a 41bd f041 6e3d 8bd8 f63d
00000340: 3b79 e1bd 53cd 73bd 2022 44bd 2cb4 13bd
00000350: b767 253d 602b f33d 1d5c 02be c0ad 913d
00000360: b474 edbd 6c7c f13c 0a79 e8bd b735 66bc
00000370: d18a 08be dd11 e8bc 9214 603d 725c 80bd
00000380: a218 473c e208 d3bd 2adf b3bd a3c1 f83d
00000390: 3664 cf3c ec40 383c 40b2 ee3d f294 89bd
000003a0: 2ffa 02be 9f39 53bd 1c5d b53d 2d32 cfbd
000003b0: 9d10 febd b18c 95bd 0afc e0bc 1b99 c93d
000003c0: 57fb e7bd 327f e4bd eb11 dcbd 58d3 73bd
000003d0: 3cb3 683d b2d8 ecbc 83ac d73c 5096 fbbc
000003e0: 5a6d 473d b5d4 8b3d b4df a13d 4619 a7bc
000003f0: 425d d03d e64e abbd ba33 e73d ed11 b0bd
-0.040036358 0.098955266 -0.13913569 -0.0768601 -0.049329106 -0.10834354 -0.04187578 0.069444545
-0.041081462 0.09967083 -0.012742154 0.011076463 -0.107107095 -0.06903488 0.043234337 0.053805746
0.017538933 0.007024526 0.10870502 -0.08101074 -0.09645567 -0.119148605 0.032731738 0.03210776
-0.0018375533 0.1342009 0.08131158 -0.01657822 -0.072134964 0.073321715 0.025828222 0.028671632
-0.030921664 0.06591951 -0.12081701 -0.018802771 -0.01527065 -0.07827263 0.09920448 -0.10077292
0.02333988 -0.0024978195 -0.12110266 0.095771804 0.022890706 -0.09652815 0.13076615 0.020031186
0.09934231 0.07619867 -0.010824672 0.032783926 -0.07011045 0.11670724 -0.04418139 -0.01762742
-0.11601579 -0.11641149 0.013974195 -0.020210663 0.017972182 0.107729904 -0.025406282 0.024849227
0.057729904 0.069246374 -0.010445604 -0.07179413 -0.046593744 -0.10636677 -0.013369869 0.115964346
0.05064258 -0.03709933 -0.1105786 -0.041917562 0.04995797 -0.019019663 -0.13839062 -0.10656653
-0.00220269 0.05550652 -0.021451836 0.0017457848 -0.05566363 -0.08059088 0.030894428 -0.13494934
-0.023957314 -0.027731473 0.092803314 -0.12504236 0.012555407 0.10718383 0.054060295 -0.039697036
0.06374254 0.07728355 -0.06653368 0.019089207 -0.10852599 0.10256894 -0.083815485 -0.03786178
-0.021629037 -0.040724445 0.006518262 -0.010705935 0.02322376 -0.15728891 -0.067798115 -0.030754134
0.013546644 0.10138174 0.13614412 -0.11205607 0.05283293 -0.0148193035 -0.02628931 -0.0649648
-0.11112074 -0.025756776 0.083265655 0.11768662 -0.0354764 0.12796153 0.0860021 -0.016391875
0.06466837 0.051642645 -0.009976447 0.13166913 -0.071887136 0.07658792 -0.06649918 0.041207556
0.020597301 -0.047542173 0.014414922 -0.07878258 0.07004133 0.0071056606 -0.041369155 0.04815562
0.0059123063 -0.06978899 -0.01179668 0.067737244 0.11893056 0.03513959 -0.024324855 -0.10006123
0.05039015 0.0839099 -0.03264205 0.046979167 -0.041557495 0.12433632 0.102046885 -0.09907123
0.112711355 0.06820166 -0.12369364 0.03870886 0.005523692 -0.08261496 0.11049562 0.053699907
0.049844388 -0.13095236 0.056522492 0.10192884 -0.08770983 -0.029266363 -0.11301546 -0.078783825
-0.046731655 0.087697394 0.026079156 -0.103119664 0.010105802 0.031264488 0.057553835 -0.04944862
-0.109514646 -0.036153845 0.023773137 0.0068310755 -0.04968601 0.10753583 -0.075355835 -0.09494103
0.022871906 0.06950071 -0.06957534 0.025148643 0.10104622 -0.07911045 0.10903663 0.020095335
-0.069615275 -0.065377206 -0.108231276 0.106295235 -0.037676442 -0.04722075 0.05816835 0.12053021
-0.11009451 -0.059521984 -0.047884107 -0.036060497 0.040382113 0.118735075 -0.12730451 0.07113218
-0.11594525 0.029478274 -0.11351211 -0.014050893 -0.13334204 -0.02832883 0.054707117 -0.062676325
0.012151869 -0.10304429 -0.087827995 0.12146308 0.025316339 0.011245947 0.11655092 -0.06717862
-0.1279075 -0.051568624 0.0885565 -0.10116992 -0.124055125 -0.073022254 -0.027463932 0.09843656
-0.11327236 -0.11157073 -0.10745605 -0.059527725 0.056811556 -0.028911922 0.026327377 -0.030711323
0.04868827 0.0682768 0.07903996 -0.020397794 0.101740375 -0.08364658 0.11289163 -0.08597169

lstm.weight_hh_l0_reverse f4 [256, 64]
00000000: 2db8 b83d fd81 c1bd 8d61 9f3d 5769 b53c
00000010: a785 d03c d7a5 1f3d 0907 173d 74f8 d23d
00000020: ad0e 5fba 6255 dbbc 7880 fa3d 6bd3 b83b
00000030: f9c2 143e 8be7 45bd dd63 a3bc 7ac6 1dbd
00000040: b11a 01be 0c87 0f3d 3691 ae3d 2d45 003e
00000050: 67c1 b9bd bb08 dcbd 1633 0f3e a09f b93c
00000060: 8b89 2fbd cdf4 a33b a3d8 643d 7682 b93d
00000070: 513f 7e3d 62e5 1b3d fab0 febc fc16 343d
00000080: 5194 9abd ac51 343b ecfe 093e d5cd 943c
00000090: 0d9c 17be 2cf2 b0bd 1981 00be 2a90 75bd
000000a0: 0e1d 483d ac1a 2cbd ff9f 0e3c 7423 f4bd
000000b0: 3671 8ebd 149a d5bd 454f c8bd 7e98 b3ba
000000c0: 26fd b53c 3ef3 77bd 763c a1bc 3774 ab3d
000000d0: aa87 c73d 77ca b03c 19f5 053e c14c 103d
000000e0: 6d6e 4b3c 4da0 393c 37fd 573d b66a 23bc
000000f0: 4abe d2bd a18e d83d 9284 84bd 220c 3a3a
00000100: 3fd4 d73c 834e a7bd 30bd 74bd 980b c83c
00000110: 5ef7 663d f5f0 fdb9 70cb 9bbd 7962 2d3c
00000120: 12ad 1b3b 9580 04bd 2f3b fd3d 4923 72bd
00000130: d4a0 d2bd 2a85 7abc 92ab c0bd 6d22 ee3d
00000140: 1496 ba3c 207e f1bd 8a9d 743d 2b24 babd
00000150: 86fa d83d e953 7b3d c535 9e3d ee19 cd3d
00000160: 3ca9 dabd e020 c73c 83a0 f03d 5d5a 8b3d
00000170: f6aa 93bd 0088 a4bd 6e65 bdbd fb56 1d3c
00000180: 6a93 943d 35fa 113d 8783 86bd 382a ea3d
00000190: fbe2 dabd f7ea da3d 1dba 93bd 7957 e63d
000001a0: 5b1d ed3c 5df3 663d 84d0 debd a4a5 af3c
000001b0: fbac 973d c388 cf3d 94fe 1cbd 9a36 52bd
000001c0: 7f2f adbc 30d5 34bd 2f09 79bd b99b a5bd
000001d0: 7ea1 e1bd fdf4 a33c bd59 6b3d 4083 2ebb
000001e0: 41af 0dbd faac 35bd a62e 633d 0138 55bd
000001f0: 5fec 203d 79ed f73c 347a 04bc c6e7 e13d
00000200: f37a cd3b 0cf3 66bd 0bd5 d4bd 6ee5 b23d
00000210: 58eb 0b3e c6aa f23c 1436 44bc ec27 cebd
00000220: 4c23 e4bd 6106 9c3d 199a cc3c e5bb 3e3c
00000230: f2c6 f9bc fbf6 13be 0192 81bd b1af 8d3d
00000240: 1eec d0bd ab97 413d fa0c cf3d 2c4a 1b3c
00000250: c3ee 84bc f036 0ebe 9bd2 05bd bb80 c5bd
00000260: bf21 14bd 04d2 0bbd 7b96 823d f13c e83c
00000270: 9149 a9bd ce23 4f3d b5fb 09be 4e0f eabd
00000280: 40e8 50bc 36fb e2bd 305c 3a3c c2fe 003e
00000290: 7507 12bd a0d5 703d 8acd cabd a87a cf3d
000002a0: ded3 ca3d 3c21 2dbd 0fb4 2fbd 8182 15be
000002b0: 53fb 133d 9773 bb3c fca1 67bd 00da 083e
000002c0: afb6 4dbd d57c d8bd 5509 843d f915 16bd
000002d0: d5b1 de3d 85ca 443d 45db 7c3d 5599 9d3d
000002e0: 6397 c1bd c6cd 843d 430f 81bd 1aaa 77bc
000002f0: be6d fe3d c7a7 743d 35d3 93bd 9d5f 353c
00000300: 3591 e83c a2c0 e3bb 3030 fabc d132 493c
00000310: 61f3 043e 8bec 05bd 1a87 2a3d d413 0abd
00000320: a85a 693d 39f6 3e3d 7aae f73b e716 d7bd
00000330: bf5a aabc 0b65 97bd 8940 ba3d 22e6 663b
00000340: bef1 d9bd 7bc1 443d ba30 2abd 7fe4 d3bd
00000350: d0d2 e3bd e34d c73d fb35 ad3d 8911 c6bd
00000360: bdab f13d 6aa5 f1bd eb59 f03c 4536 63bd
00000370: 0162 1d3d 418f 3fbd c017 0ebe bf3c b13d
00000380: a8dd 89ba 0391 b23d 2acf cc3d 2e53 ca3d
00000390: 3a43 603c 2019 c3bd 9c2d a33d 4636 d33d
000003a0: b1f2 483d 57a3 bdbd fd11 8d3d 3077 cb3d
000003b0: abc1 af3d e4d2 e8bd a8d3 adbd d6ec ef3c
000003c0: 2f92 a2bd 58a1 e5bd 57be e1bd a1a0 4d3d
000003d0: 562d d93d 782c 79bd 16ba d4bd 8060 7fbc
000003e0: 30af c9bc 9563 27bd a8d2 8f3c da5b 40bd
000003f0: 6a4e 91bd df61 01bc 4351 103e 582e aebc
0.09019504 -0.094486214 0.07782278 0.022144957 0.025454355 0.038976517 0.036871944 0.10301295
-0.0008508962 -0.026774112 0.12231535 0.0056404374 0.14527501 -0.04831652 -0.01994508 -0.03851936
-0.12607838 0.0350409 0.085237905 0.12526388 -0.09070092 -0.10743853 0.13984331 0.022659123
-0.04285578 0.0050035478 0.055870663 0.090580866 0.062072102 0.038060553 -0.031090248 0.043967232
-0.0754782 0.00275145 0.13476151 0.018164555 -0.14805622 -0.086399406 -0.12549247 -0.05995194
0.048855834 -0.042017624 0.008705138 -0.11920825 -0.06955187 -0.10429779 -0.097807445 -0.0013702062
0.022215437 -0.06053471 -0.01968215 0.083717756 0.09742673 0.021580918 0.13081779 0.03522945
0.012416464 0.011329723 0.05273172 -0.009974172 -0.10290201 0.10574079 -0.06470598 0.0007097145
0.026346324 -0.08169272 -0.059750736 0.02441959 0.05638825 -0.00048435447 -0.07607162 0.01058256
0.002375428 -0.032349188 0.12364804 -0.05911568 -0.10284582 -0.015290538 -0.094077244 0.1162766
0.022776641 -0.117916346 0.059720553 -0.0908893 0.105946586 0.06135932 0.077250995 0.10014711
-0.1067681 0.024307668 0.11749365 0.06804345 -0.072103426 -0.080337524 -0.09247862 0.009603257
0.072546795 0.035639007 -0.065680556 0.11433834 -0.10687824 0.10689347 -0.07213233 0.11247153
0.028944662 0.056384433 -0.10879615 0.021441288 0.0740604 0.10133507 -0.038328722 -0.051321603
-0.021140812 -0.044148624 -0.060799774 -0.08086342 -0.1101713 0.02001428 0.057458628 -0.0026628524
-0.034590963 -0.044354416 0.05546441 -0.052055363 0.03928792 0.030264603 -0.008085776 0.110305354
0.00627076 -0.05638413 -0.10392197 0.087351665 0.13663995 0.029622447 -0.011975784 -0.10066208
-0.11139545 0.07618404 0.024975823 0.011641477 -0.030490372 -0.14449684 -0.06326676 0.06918276
-0.10201286 0.047263782 0.10109897 0.009478133 -0.016227132 -0.13888144 -0.032671552 -0.09643694
-0.036164995 -0.034135833 0.06376358 0.028349372 -0.08265985 0.050571255 -0.13474925 -0.114287004
-0.012750685 -0.11083071 0.011374518 0.12597182 -0.035651643 0.05879748 -0.09902485 0.10130817
0.09903692 -0.042268023 -0.042896327 -0.14600565 0.036128353 0.022882266 -0.056550965 0.1336441
-0.05022305 -0.10570685 0.064470924 -0.03664205 0.108737625 0.0480447 0.06173255 0.076952614
-0.09452703 0.06484561 -0.06301739 -0.015116239 0.124232754 0.059730317 -0.07218019 0.011070159
0.028389553 -0.006950454 -0.030540556 0.012280182 0.12983467 -0.032696288 0.04163275 -0.033710316
0.056971222 0.046621535 0.007558641 -0.10502415 -0.020795224 -0.07392319 0.0909434 0.0035232385
-0.10641812 0.04803608 -0.041550376 -0.103463165 -0.11124194 0.097316526 0.084575616 -0.09671313
0.118003346 -0.11799128 0.029339751 -0.055471677 0.038423542 -0.046767477 -0.13876247 0.086541645
-0.0010518329 0.08719065 0.10000451 0.098791465 0.013687903 -0.095262766 0.07967684 0.10313086
0.049059574 -0.0925967 0.068881966 0.099348426 0.08581861 -0.11368349 -0.08487636 0.029287737
-0.079380386 -0.112124145 -0.110226326 0.050202016 0.1060435 -0.060833424 -0.103870556 -0.015586972
-0.024619669 -0.040866453 0.017556503 -0.046962596 -0.070950344 -0.007896869 0.14093499 -0.021262333

lstm.bias_ih_l0_reverse f4 [256]
00000000: 1c17 8d3c 660b 88bd 8e9b fa3d 8622 a4bc
00000010: 438a b6bd 061c b03d 229e bc3d 5798 923c
00000020: 753c adbd 03f7 88bd 61ab 56bc 98c2 5e3d
00000030: 52ca d7bd 3e22 aebd d465 cb3d de05 75bc
00000040: 3df5 baba 5e2b 64bd c465 1c3c 012d e1bc
00000050: 6d50 e43d 6ade a73c ae62 e4bc 6653 b43d
00000060: 4bd7 e93d ab2f 6dbd d656 c63d 80cd e2bd
00000070: 048b cbbc 1060 75bd 4e01 fabc ef93 bcbd
00000080: 19cd babd b477 9abd db81 d93d f60a f33d
00000090: 8b37 14bd 5f1f cd3a 7bf3 a23d ae86 aebb
000000a0: c6fa 763d c8cf 84bb 6ac8 77bd fdd3 9f3d
000000b0: ab13 0a3e 1883 50bd a97f e0bc 9f77 c93b
000000c0: 3788 cd3d f774 bd3b 2ac3 9bbd dc24 bfbc
000000d0: 6acf f33b 7c0c 6cbd 5149 313d 4332 f7bd
000000e0: b591 253d ef12 7b3d 34a9 15bb 88d3 313d
000000f0: 5414 a2bc f3b9 7fbd cd2f 253d 7447 a43d
00000100: 15db d1bc 8ea6 783d 038b bfbd 224a 0a3e
00000110: 3ed0 92bd 54f2 bf3c 3242 8f3d c94e 923d
00000120: 407a b9bd 683a cebd 7977 543c 857d bbbd
00000130: 6528 a2bd 18b0 7abd 0372 48bd a761 aa3d
00000140: 9a30 023e 4125 f2bd 770c 233d 9253 1dbc
00000150: 5808 83bd 0bff 9e3d 7776 95bd 627e 8abd
00000160: 4c45 a0bd 9d7e ac3c 36e6 813d cfe2 8bbd
00000170: f448 a2bd a9d5 ae3d fac7 9cbb 3437 d8bd
00000180: 3495 e9bc e6b3 e4bb a507 cb3b fbc9 773d
00000190: d323 0b3e 3eb4 acbd 6b28 2f3c 57c2 8dbc
000001a0: 6218 a7bd cebe 773d c965 243d 8ef1 f93c
000001b0: 79bf a43b e73a 74bd c686 fb3d d7e2 13bd
000001c0: 2381 b7bc 14c4 e73d 3569 dd3d a3a7 dcbd
000001d0: 3147 473d b697 ccbd d83b 893d 29f9 23bd
000001e0: 7753 8e3c e0d4 c33a 1612 dbbd 9800 2dbd
000001f0: 91e9 88bd 226b d23d df1a af3d d097 f6bd
00000200: 8d25 9a3c d9b0 e93c ce7d b6bc e49c c13b
00000210: 32f0 86bd 15d5 dc3c 4369 943d 233d b4bd
00000220: 5c6b a43d 1a53 873d 4d29 babd 2ab7 183b
00000230: ea81 ac3d c402 1dbd ac51 143d 6eba 8aba
00000240: 6b1d e7bc 1f60 583d cce3 e5bd a23f a43d
00000250: 7827 28bd 01fc bfbc 564f 413c 784b f33d
00000260: 3204 073e 5de8 b73d d7d2 58bd 70bd 103d
00000270: f004 bbbd 5638 973c dc65 073e f434 92bd
00000280: f77a 583d 88dd c73d 34c7 f9bc 4eb5 813d
00000290: f787 573d 1006 96bd fdff d6bb bda5 c3bd
000002a0: a979 8b3c 8846 82bd 53e9 dab9 355b 383d
000002b0: 25ab 5b3d 05e1 763d 9a35 57bd 1d45 e0bb
000002c0: 2cfd ae3c 2f6e c9bd 7c2b dd3c 6c6b 3bbd
000002d0: 5abe 9fbc c19b d5bd 1419 0b3d b76d cfbd
000002e0: 848d 88bd 85f0 e8bd ae98 ef3d 182d 173d
000002f0: 75df 943d 034c debc 676f e53d 6a37 48bc
00000300: 4a10 08bd 7e36 cd3d 0f2b 5ebd 3967 d139
00000310: 6d59 da3c 1a27 85bc f679 29bd 8893 b23d
00000320: 57d4 3f3d 347a b3bd e914 7c3c f449 653d
00000330: 4568 3b3d 9f11 00be 1247 0f3e 2f8f 343d
00000340: e714 b5bd b4f9 953d 1d77 b23d 9a6b e23c
00000350: 8144 aebd 3f11 bbbd 7fcd e2bc 86ed 8cbd
00000360: a7b9 a3bc fd81 e93d c908 f93c ec05 cf3d
00000370: 3781 6c3d 3190 9dbd a357 773d 4ca3 68bd
00000380: 860c 103d b0a1 743d 7733 41bd f9dc 04bd
00000390: 14f3 ed3d 870f ccbd b58b 9bbd 4ab9 3e3d
000003a0: 92d4 e03d fa59 953d 730c f63d 2624 903c
000003b0: b205 a9bd 184e 2b3d f3a7 ad3c a638 ca3d
000003c0: 0558 41bd f55e d03d b5c7 46bd d323 873d
000003d0: 3a67 d03d 337c a5bd 9905 b63d 23c8 fd3c
000003e0: 0b8f a13d d4cf cabd 6b7b d3bd 2bc0 863b
000003f0: bdf1 f5bc 6921 303d bb51 493d 6fec 8e3c
0.017222933 -0.06642799 0.12236701 -0.020035993 -0.0891309 0.08599095 0.09209849 0.017894907
-0.08458797 -0.06687739 -0.013102383 0.054384798 -0.105366364 -0.08502625 0.099315315 -0.014955012
-0.001426376 -0.05570542 0.009545747 -0.02748728 0.111481525 0.020491797 -0.027879085 0.088049695
0.11418017 -0.057906788 0.096845314 -0.11074352 -0.024846561 -0.059906065 -0.0305182 -0.092079036
-0.091211505 -0.07542363 0.10620471 0.11867325 -0.036185782 0.0015649608 0.079565965 -0.0053261137
0.06029775 -0.00405309 -0.060493864 0.078041054 0.13484065 -0.05090627 -0.027404623 0.006148293
0.100357465 0.0057817656 -0.07605584 -0.023333006 0.007440497 -0.057629094 0.04328281 -0.120701335
0.04042216 0.061297353 -0.0022836449 0.043414623 -0.019785084 -0.062433194 0.04032879 0.08021441
-0.025617162 0.060705714 -0.09352686 0.13504842 -0.07168625 0.02343098 0.06995048 0.07143933
-0.090565205 -0.10069734 0.012967938 -0.091548 -0.07917861 -0.061203092 -0.048936855 0.08319407
0.12713853 -0.11823512 0.03980681 -0.009602444 -0.06398076 0.07763489 -0.07297986 -0.06762387
-0.07825717 0.021056468 0.063427374 -0.0683037 -0.07924071 0.08536846 -0.0047845813 -0.10557404
-0.028513528 -0.0069794534 0.0061959797 0.060495358 0.13587885 -0.08432816 0.010690789 -0.017304583
-0.081589475 0.0604847 0.040136132 0.03051069 0.005027708 -0.059626486 0.12281565 -0.036105003
-0.022400444 0.11316696 0.10811082 -0.10774162 0.048651878 -0.09989874 0.067008674 -0.04003254
0.017373784 0.0014940761 -0.10696809 -0.042236894 -0.06685174 0.1027434 0.08550047 -0.12040675
0.018816734 0.02852671 -0.022276785 0.0059085954 -0.06588782 0.026957074 0.072466396 -0.088007234
0.0802829 0.06607647 -0.09089909 0.0023302534 0.08423217 -0.038332716 0.0362107 -0.0010584125
-0.02821227 0.052826043 -0.112250894 0.080199495 -0.041053265 -0.023435595 0.0117987 0.11879629
0.13185194 0.08979867 -0.052935448 0.03533691 -0.09131801 0.01845948 0.1322245 -0.07139006
0.052851643 0.097590506 -0.030490495 0.06333409 0.0526199 -0.07325375 -0.006561278 -0.095530964
0.017025786 -0.06361109 -0.0004175404 0.045008857 0.053630013 0.06027319 -0.052541353 -0.0068441764
0.021360956 -0.09835469 0.026998274 -0.045756742 -0.019499946 -0.10430098 0.033959463 -0.10128348
-0.06667617 -0.113740005 0.11699043 0.03690824 0.072691835 -0.027135855 0.11202889 -0.012220243
-0.03321866 0.10020159 -0.054240283 0.00039940493 0.02665397 -0.016253997 -0.041376077 0.087195456
0.046833362 -0.08763543 0.015385845 0.05597873 0.045753736 -0.12506722 0.13991955 0.044081863
-0.088418774 0.07323018 0.08714125 0.027639199 -0.0850916 -0.09134149 -0.027685879 -0.068812415
-0.019985987 0.114017464 0.030399697 0.101085514 0.057740416 -0.07693518 0.06038631 -0.056796357
0.035168193 0.05972451 -0.04716822 -0.0324373 0.11618629 -0.09963899 -0.075950064 0.046563424
0.109780446 0.07292552 0.12014093 0.017595362 -0.082530394 0.041822523 0.021198248 0.09874086
-0.047203083 0.101743616 -0.0485303 0.0659863 0.10175939 -0.0808033 0.088877864 0.030979222
0.078886114 -0.09902921 -0.103262745 0.0041122637 -0.030022496 0.043000612 0.04915021 0.017446725
