SecPPIS/output/model_epoch_3.pth (torch, 222997 bytes, 12 tensors)

embedding.weight f4 [8, 32]
00000000: 88ae d3bc 0b10 78bf 182a b5be b3ac 9f3f
00000010: 8b5e f5bd 54da f53f 2984 02be 765c 0440
00000020: 3100 6bbf 1837 32bf 5d61 b43e 2bb8 fa3f
00000030: d0b4 12c0 feb9 b5bd f2b5 a5bd 8628 d3be
00000040: cbb0 9d3f 8196 e8bf a096 b33e 22e9 b7bf
00000050: 1b75 ed3f d66f 04bf a6b5 463e 7579 bfbd
00000060: 377e 3fbf 3689 9f3f ca25 88be f77e 63bd
00000070: 26fb 9c3e a1dc c53f e47e 7f3f e681 08bf
00000080: 0098 a73f 414b 1f3f 3849 82bf ea80 ae3f
00000090: 6741 56bf 61d6 023e 638b f7be fe59 833f
000000a0: 4c18 90bf 06a3 553f 5c96 d73e 940d f93f
000000b0: 8581 223f 579a f33e 7e58 ca3d 1f4e 903f
000000c0: 1395 2b3f 44df febf a96a 293f fd0c 97bf
000000d0: 6b32 f7be fa83 a03d 417a 2bbf f581 683e
000000e0: fd0e 8ebc de5d 913c f726 86bf 1afc fabe
000000f0: 8edc 12bf 4412 ccbe 4e45 1bc0 2229 bd3e
00000100: 535b dbbd 8c1e cfbf 1df7 8f3f 1b83 983f
00000110: 60d0 bbbf 2c24 b03f 25d0 12be 8365 15bf
00000120: 0828 9d3f 7d2b e13e c79f a13c 3a5a afbf
00000130: 3ea8 d03f c450 9d3e 78fd e53e e8a5 a1bf
00000140: c45b 333e 5351 c9bf 1cd9 47bf 4eeb 50bf
00000150: 1cfc 42bf a0f2 0ac0 9b1b 3e3e 7d1d c5bf
00000160: 3532 e4bf 7f50 493f b827 50be a113 be3e
00000170: bed6 013e 6208 5d3f 40b5 e83d 3749 9dbe
00000180: 25c3 ae3f 9ec2 25bd a6d2 373e 8055 8b3f
00000190: f0d6 79bf c408 19bf 55c9 183f 6797 99be
000001a0: 8243 28be 47ce b3be e61f 99be ba5c 793e
000001b0: d1f8 593f 6d7e 8ebf 0f0c babe 5ee2 1fbf
000001c0: eb4e 22bf 5bfa 5ebf 83af ae3f 1bd9 273e
000001d0: 59b7 4d3f 0639 4b3f 8a20 4abe 1f6b 4240
000001e0: a559 8fbe da7c e83f d5dd a83f 19d5 b53f
000001f0: 0dfa 88bf 656f 2fc0 a2cd 71bf d18b b63f
00000200: 9441 d43e 739e b9bf da45 373f 4c2a b43f
00000210: a5d2 fcbe 7482 01bf 3389 4abf 922f 873f
00000220: 524c 5c3f 07d0 203f e6af b63e 4322 9bbf
00000230: b9b6 5abe b233 513f 3096 08c0 bcec e3bf
00000240: 7752 0b40 1a5c 803e 4488 f33f 7691 8bbf
00000250: 5d6a f2bf 8494 0abf ae78 9cbf 4fb8 91bf
00000260: eb4d 113f 53d3 c2bf ce3f dfbf ed22 d03f
00000270: bc4d 07bf 6c26 0440 2f1c 77bf b5e5 3ebe
00000280: 7154 4a3f 3c23 1d3d 637b 763d 6689 923d
00000290: 691a 063e d1f2 f73f eead 963f 51de 9ebe
000002a0: 5a0f 7d3e ec8f 493f adfd f1bf 5e28 d23d
000002b0: b797 5bbf d9fe e9bf 573a db3f 33ba b93e
000002c0: 35fa 06bf 42a0 2740 6124 733f 4057 c53e
000002d0: 4274 123d 3f28 bf3e 96ba 953e 6c28 d9be
000002e0: dc16 bebf df0c 003f 65d4 c13e f585 933f
000002f0: a1c5 18be dade 7e3e b6ae 273f 3b25 1f3e
00000300: abda 69bd 1db6 2440 4a1d 9bbf 9d10 c6be
00000310: 76ba bebe 309d 023f a1a5 3f3e af6f ba3f
00000320: 28c6 1e3f 8639 6fbf f838 46be bbbf 983d
00000330: b69e b53e 6dcd 893f 0be1 92bf 6811 2c40
00000340: c742 063f fded d4bf 8f83 753e ca4d 393f
00000350: 9778 8d3f 6477 a53f efe4 f2bf 6880 adbf
00000360: 6949 4ebf 9019 d43e 088b d0bf 98f2 adbe
00000370: 0bcb a0bf e4e0 063e eaee edbe e2d4 3bbf
00000380: f7b7 133e f71e 673d b3a8 043d 8bb2 40bf
00000390: a9d3 9bbf 400d 553e 63ab 1dbe b699 b8bf
000003a0: b666 bbbf 6ae1 76bf 1828 9ebf 3f2e 653d
000003b0: 81c8 5e3f 28e2 623e 9bf3 08c0 8e32 cfbd
000003c0: 6376 57be 411c e63e 510e 14bd 93f9 ffbf
000003d0: 1ba0 ecbe 516a 0abe 5597 9fbf 987d 8cbb
000003e0: a9fd 89bf f002 653f 5c90 ae3f c02c 7a3e
000003f0: a823 62bf f905 5fbd 3455 38be ddd6 293f
-0.025840059 -0.9689948 -0.35383677 1.2474579 -0.11980923 1.9207253 -0.12745728 2.0681434
-0.9179717 -0.69615316 0.35230532 1.9587454 -2.292286 -0.08873366 -0.08091344 -0.41241854
1.2319578 -1.817093 0.35075855 -1.4368021 1.8551363 -0.5173315 0.19405231 -0.09349338
-0.74801964 1.2463748 -0.2659133 -0.055541005 0.3066036 1.5457956 0.99802995 -0.5332321
1.3093262 0.62224203 -1.0178595 1.3633091 -0.83693546 0.12777092 -0.4834853 1.0261838
-1.1257415 0.8345188 0.42106903 1.9457269 0.6347888 0.4757869 0.0988016 1.1273841
0.67024344 -1.9911885 0.66178375 -1.1800839 -0.48280653 0.078376725 -0.6698342 0.22705825
-0.017341131 0.017744955 -1.0480641 -0.49020463 -0.5736779 -0.39857686 -2.426105 0.36945444
-0.10710778 -1.6181197 1.1247288 1.191501 -1.4672966 1.3761039 -0.14337213 -0.5835802
1.2277842 0.4397849 0.019729508 -1.369941 1.6301343 0.30725682 0.44919944 -1.2628756
0.17515475 -1.5727943 -0.7806566 -0.81609046 -0.7616594 -2.1710587 0.18565218 -1.5399624
-1.7827822 0.7863845 -0.20327652 0.3712435 0.12679574 0.86340916 0.11362696 -0.3071992
1.3653303 -0.040468805 0.1795145 1.0885468 -0.97593594 -0.59779 0.5968221 -0.29998323
-0.16432002 -0.35118315 -0.2990715 0.24351779 0.8514529 -1.1132332 -0.36337325 -0.62454784
-0.6340167 -0.8710076 1.3647312 0.16391413 0.8035789 0.79383886 -0.19738975 3.0377882
-0.2799808 1.8163102 1.3192698 1.4205657 -1.070131 -2.741174 -0.94454396 1.4261419
0.41456282 -1.450148 0.7159096 1.4075408 -0.4937946 -0.5058968 -0.791156 1.0561392
0.86053956 0.62817425 0.35681075 -1.2119831 -0.21358766 0.81719506 -2.1341667 -1.7806621
2.1769083 0.25070268 1.902596 -1.0903766 -1.893871 -0.54132867 -1.2224329 -1.1384372
0.5675952 -1.5220741 -1.7441347 1.6260659 -0.5285299 2.064845 -0.9652738 -0.18642314
0.790351 0.03836368 0.060176264 0.07155113 0.13096012 1.9370977 1.1771829 -0.3102899
0.24712887 0.7873523 -1.8905541 0.10261606 -0.85778373 -1.8280898 1.7127179 0.3627487
-0.52725536 2.6191564 0.94977385 0.3854313 0.035755403 0.37335393 0.29243916 -0.42413652
-1.4850726 0.5001964 0.37857357 1.1525255 -0.1491914 0.24889699 0.6550096 0.15541546
-0.057093304 2.5736153 -1.2118313 -0.3868455 -0.37251633 0.510211 0.18715526 1.4565333
0.6202111 -0.9344715 -0.1935767 0.07458445 0.3547265 1.0765816 -1.1474928 2.6885624
0.52445644 -1.6635128 0.23975967 0.7238432 1.1052426 1.292706 -1.8976115 -1.3554811
-0.80580765 0.41425753 -1.6292429 -0.33974147 -1.2561964 0.13171726 -0.4647134 -0.7337171
0.14425646 0.056426015 0.032387447 -0.75272435 -1.2173969 0.20805836 -0.1539741 -1.4421909
-1.464072 -0.96437705 -1.2355986 0.055952307 0.87024695 0.22156584 -2.1398685 -0.101170644
-0.21041255 0.4494343 -0.036146466 -1.9998039 -0.462159 -0.13517119 -1.2468058 -0.004287433
-1.0780536 0.8945761 1.3637805 0.24431133 -0.8833566 -0.054449055 -0.18001252 0.6634348

lstm.weight_ih_l0 f4 [256, 32]
00000000: 2a3c e6bd d829 873d 82e3 4fbd 0f12 6cbc
00000010: ca81 e9bc 07f7 eb3d b14f a0bd fc99 6fbd
00000020: b9f3 b4bd b2dc 27bc cd4d 973d e953 debb
00000030: 4a65 e63c bfb9 02bc 475f 353d 653d 71bd
00000040: 37a6 633d c08a 55bb 0491 81bd 570b 2b3d
00000050: fb64 28bc e976 af3d b429 943d 3b8e 8ebd
00000060: 4287 573d 4cbf c43d 50a0 be3d f66f 99bd
00000070: 2ad1 d0bd 9947 5bbd 9633 0c3e f5d6 ac3d
00000080: a3c3 40bd cd0c b03d c02d c43b cc69 083e
00000090: 1a59 213b 3ecc e53d 28ec e9bb c032 103e
000000a0: d844 e4bd 86a3 e83c 79b9 f2bc dc4d b3bd
000000b0: 1c5d c93c 0449 423d 60a5 ca3d ce84 b3bd
000000c0: ead9 69bb b3d1 15bd f1bb 64bd 072d 4dbc
000000d0: b3f4 053e bd56 cebd fdeb e83d ac44 b03d
000000e0: 290b 303d 8868 87bd dd10 cb3d 22ad 883d
000000f0: be48 91bd df11 d6bd 9ddf 223c 92c0 963d
00000100: ea4e d93d cdec 0abe 4af2 6dbd bd57 c7bd
00000110: 880d c93d 4ef6 68bd dd3e 5d3d 5a4f 133d
00000120: a521 a7bd b66c 933c 11f9 593c 1906 44bd
00000130: e5e8 553d f2e0 06be ead5 473d d155 81bd
00000140: 390e e23d 191c 8dbd 92b0 043e 1234 2bbc
00000150: b766 acbd b3ae 243d 85c8 b3bc 4aa8 9b3d
00000160: 1f2c b7bc 9641 cebd f93f abbd 9dab 683c
00000170: 2b4e ccbd 6e3e a13c f1f2 f33d 2cfa 0dbd
00000180: 3dc7 0bbe fe81 d1bd c0a1 ddbd fbb9 5c3d
00000190: d3bd cb3d 616c 33bd e95f f93c c001 a9bd
000001a0: 8686 34bb 465b d8bd 6751 a6bd eca6 293d
000001b0: 83ea 073d f6d1 983d eff4 183d cefd 093d
000001c0: 0e70 9fbd a0fc 893d bcfc c6bc 4c2a 0ebe
000001d0: 928f ccbd 49cb 4f3c 35b4 d2bd 5938 31bd
000001e0: aa5c 803d 04a7 eb3c 3165 9d3d 0075 cd3d
000001f0: c721 77bd 4f72 0a3e a1e7 9e3d f091 803d
00000200: ba2f d43d 1a61 efbd 3f27 9e3b d530 d0bc
00000210: 5d80 8dbd ff4a d7bd fdb8 223d c044 a3bd
00000220: b288 05be 642e 52bd e3b1 c63d cfd0 113e
00000230: 6b46 b23c 8874 be3d 8ec8 8cbd ab05 f0bc
00000240: 141a 7bbb 90c5 f93c 5571 83bc 2836 0dbe
00000250: 827f 8639 c1c3 b2bd cda1 4ebd b6cb a4bd
00000260: 2395 823c 2d21 c33d fb35 c9bc 328e 07be
00000270: f710 a33d a52e 9dbd adfe e3ba bc33 63bd
00000280: ba32 b7bd d463 933d de9c a2bc 9ebb 3c3d
00000290: 3396 623d 43d0 26bd 644e 433d f375 ecbd
000002a0: ceb9 383c 4956 fb3d 7bfb 20bd 2be4 cbbd
000002b0: b809 b03d db0c 3a3d 4dd9 98bd 4213 f5bc
000002c0: d42c 973d 6b4d 0f3d 7cf2 6bbd 5393 7a3d
000002d0: 7e0a fbbd 3617 8bbd f63a 253d 51f6 993d
000002e0: 3cc3 eb3b 89c6 8b3d 1068 ba3a 34ee 4e3d
000002f0: f66a 91bc 3e5d cd3d 15b1 15bc a947 cbbc
00000300: 095c bbbd 9474 9bbd 4fd6 9ebd 5c02 0f3e
00000310: 6017 25ba 034b 90bd 57f5 d5bd 5095 383d
00000320: 3a3a 95bd 9589 cd3d 5959 b83d f2df b2bd
00000330: a60f a5bd 26c2 873a bc95 e0bd 9018 883d
00000340: 8371 ab3c dfa8 48bd d100 79bd 9c5c 753d
00000350: d687 643c fc53 cebd 4c58 bd3d 113a e13d
00000360: 413d cdbd 47cc 893d 1969 0dbe abb0 59bc
00000370: 49fe 9c3d 1efb e53b cc6f c1bb a2e1 adbd
00000380: de7c 263d f35c b33c 0e44 b23d 3b69 a33d
00000390: 14f1 133c 0b9e d33d a8f3 cfbd 7b54 83bd
000003a0: 7a8d a13d 6429 053b bb8e 813c c539 e03a
000003b0: 10e9 ba3d d190 bbbd 5679 a2bc 1fdf a03c
000003c0: 7f81 b73d 1b69 9e3d b037 603d fe20 3fbd
000003d0: f73c 973c 2e33 d7bc 72cf 78bd bedb 7bbd
000003e0: b8fd 86bd dcbb 783d e0c5 d33d c1ac 4dbd
000003f0: 0a06 56bc 7734 e1bd c455 b0bd d00d c3bd
-0.11241944 0.06599778 -0.050754078 -0.014408602 -0.028504271 0.11521726 -0.078277 -0.05849646
-0.08835549 -0.010245489 0.07387886 -0.006784905 0.02812447 -0.007978856 0.044280317 -0.05889644
0.055578437 -0.0032583922 -0.06326488 0.04175886 -0.010277982 0.08567602 0.07234517 -0.06960722
0.052619226 0.096067995 0.09307921 -0.07492058 -0.10196145 -0.053535078 0.13691553 0.08439437
-0.047061574 0.085961916 0.005986899 0.13321608 0.002461976 0.11220597 -0.0071387477 0.1408186
-0.111459434 0.028398287 -0.029629456 -0.08755085 0.02458053 0.047432914 0.09894824 -0.08765565
-0.0035682865 -0.036576938 -0.055843297 -0.012522942 0.13081627 -0.10075138 0.11373136 0.08606848
0.042979393 -0.06611735 0.09915326 0.066736475 -0.070939526 -0.104526274 0.009941009 0.073609486
0.10610755 -0.13566895 -0.058092393 -0.097335316 0.09817034 -0.05687552 0.05401503 0.035964347
-0.08160714 0.017996173 0.013304011 -0.047857378 0.05222406 -0.13171747 0.04878799 -0.06315196
0.11037869 -0.06890125 0.12957981 -0.010449426 -0.08418029 0.04020567 -0.021946201 0.07600458
-0.022359906 -0.10071103 -0.08361811 0.014201072 -0.09975847 0.01968309 0.11911572 -0.03466241
-0.13650222 -0.10229872 -0.10821867 0.053888302 0.099483155 -0.04380453 0.030441241 -0.08252287
-0.0027546003 -0.10564284 -0.08120995 0.041418955 0.033182632 0.07461922 0.037342962 0.033689313
-0.077850446 0.067376375 -0.024290435 -0.13883322 -0.09988321 0.012682744 -0.10288278 -0.043266628
0.06267674 0.028766163 0.07685316 0.100320816 -0.060334947 0.13520168 0.077590235 0.06277835
0.103606656 -0.116884425 0.004826456 -0.02541391 -0.06909249 -0.10512351 0.0397272 -0.079720974
-0.13040426 -0.051313773 0.09701898 0.1423981 0.021762094 0.0929957 -0.0687419 -0.029299578
-0.0038315104 0.030489713 -0.016045252 -0.1379019 0.00025653472 -0.08728743 -0.050447274 -0.08046667
0.015940255 0.09527812 -0.024561873 -0.13237837 0.0796222 -0.07674912 -0.0017394625 -0.05546926
-0.08945222 0.07196775 -0.01985019 0.046077363 0.055319022 -0.040725958 0.04768218 -0.115459345
0.011274768 0.12272317 -0.03930233 -0.09955629 0.08595604 0.045422416 -0.07463322 -0.02991641
0.07381597 0.03498594 -0.057604298 0.061175656 -0.122578606 -0.067915365 0.040339433 0.07517684
0.0071949046 0.06824977 0.0014221687 0.050520137 -0.017751198 0.1002755 -0.009136458 -0.024814444
-0.09148414 -0.07590595 -0.0775572 0.13965744 -0.00062977336 -0.07045557 -0.104471855 0.04506427
-0.072864965 0.10036007 0.09001417 -0.087341204 -0.08059625 0.0010357543 -0.109660596 0.0664531
0.02092815 -0.048989173 -0.060791794 0.059902772 0.013948401 -0.100746125 0.09245357 0.109974034
-0.10021449 0.06728416 -0.13809623 -0.01328675 0.076656885 0.007018461 -0.00590322 -0.08490302
0.040646426 0.021894908 0.08704387 0.079790555 0.0090296455 0.10332879 -0.101538956 -0.06412598
0.07888313 0.002031886 0.01581513 0.001710706 0.091264844 -0.09158481 -0.019833248 0.019637642
0.08960246 0.07734891 0.054740608 -0.046662323 0.018461687 -0.026269522 -0.06074471 -0.06148886
-0.06591362 0.06072603 0.10340476 -0.05021358 -0.013062963 -0.10996335 -0.086101085 -0.09524119

lstm.weight_hh_l0 f4 [256, 64]
00000000: 29a0 61bc e251 033d 7217 b4bd ead7 dbbd
00000010: b5cf a53d 9245 9c3b a9bc c4bd 1357 9b3d
00000020: bdb8 ad3d 7cb6 a1bd 64b7 5abd e4e1 4c3d
00000030: 2dec 1d3c 8439 d1bd d403 92bc dd30 edbc
00000040: 86ea 19bd 046f 64bc 6c99 383d 8a2c 8d3d
00000050: 3885 ebbd d6cf 963d 84a9 8a3b 78b0 163d
00000060: 24c8 993d d635 be3c 63fd babd 98cc d13d
00000070: 87e9 12bd 3ba9 bebd a06e 0a3e 7164 053d
00000080: 43ea e3bd 2db0 b53c ae03 35bd 660b 003e
00000090: 4161 843d f5a1 a4bd 3c73 6d3d cddf f53d
000000a0: d8b1 713d 947f 0cbd 2d7f f33c 935e 243c
000000b0: 8e7e 8f3d c002 6e3d 28c1 9cbc d992 01bd
000000c0: 94d5 f0bc 5bb6 0b3e 6d65 4cbd f7ff 233d
000000d0: 349f 8bbd c634 853d dce8 c6bd 8fee d83d
000000e0: 0811 eabb b0df ae3d 9bed a9bd a7f2 9d3d
000000f0: a63b 0cba 26ca b63d 2687 8fbb 4144 0cbd
00000100: 8466 fd3d 6a60 963d 793e d6bd 7cc1 073d
00000110: 1e42 e43d 214f bf3d 510e e4bd 9e06 47bd
00000120: 3ce5 a8bd b70a bdbd 2767 5a3d bc14 92bd
00000130: 3e1e c03d 8ebd b0bd 70c6 cdbd 2614 9bbd
00000140: fcea bfbd 2cda 863d db1a aabd 85ea bdbd
00000150: d1a6 d63b 5a5e 9ebd 1bbd 9c3c 00f3 a13d
00000160: ed0c a03d 3aaf 06bd 393e d5bb 7558 8bbc
00000170: f20d 8d3c fef7 0a3e 9615 82bc 8fdc 29bd
00000180: f2ae c7bd 5d13 babd 43b8 693d 69ae 9dbd
00000190: 1f04 103d b5f4 f43d 5195 f6bd 9a65 4a3d
000001a0: 419a 633c 68e7 fb3c 048a 913d 7a5d 3d3d
000001b0: 9156 b13d 8cc7 5abd 1c80 513d ce79 d6b9
000001c0: cdf3 b1bc e951 44bc 5e9f 033e 7518 393c
000001d0: 5bea 9a3c e998 fbbd 4c23 8d3d ae04 653d
000001e0: 558d 9fbd 5100 b9bc 4a58 483b 8c4c 24bc
000001f0: 4607 03be 5ce9 64bd b1c4 b2bd f966 34bd
00000200: dfc4 133d 6415 cd3d ab7c 023e c6d7 76bb
00000210: 91e6 8d3c 504a 883d e39b c7bd ec79 0d3e
00000220: 8346 823c 9511 e0bc deea 3bbd 3f71 2a3d
00000230: d0e4 83bd 3ac2 563d 73fd d5bd b86c 3b3c
00000240: ef17 f5bd 28ad 02bd 35ca f6bd 7513 55bb
00000250: 5e06 87bd e395 053d 8bbe d43d 85f6 103d
00000260: 354d dd3d aafe 2d3c 8275 62bd 4c28 153c
00000270: f65a bcbd 08b6 07bd 0e71 923d 253d 8b3d
00000280: df49 b9bc 1619 f7bd 05eb 6d3d bd1a 60bd
00000290: ae45 5dbc 626e 763d 035c fabd 336d 023c
000002a0: 573d c93c 6b71 d8bd 08b0 c13d 01d5 cfbd
000002b0: 7132 043c dc3a d93d e14b 91bc d490 af3b
000002c0: e333 ee3c 9376 42bd 8d2c ef3d be9b 973d
000002d0: fdb2 2ebd 7770 8c3c 97e5 dd3c 1b61 9bbc
000002e0: 0063 54bd c871 dbbd 0e92 8fbc 5e0c 023e
000002f0: f7b8 a53d 1300 dbbd 5166 a93d 2ac6 a63d
00000300: f991 e1bc c715 febd a613 ba3d 21d6 4f3d
00000310: 1afd 2fbd 4862 b0bd 489e 593d e997 6dbd
00000320: 9c77 003d 6511 af3d ffea 89bd 0893 eabc
00000330: 0cce 513d 39bb 1cba 0781 bc3d c6e0 093e
00000340: a1bd ac3c d674 fb3c 1865 33bc 72da c63d
00000350: 63a0 c7bd be92 54bd bbed 2fbd 87ac c2bc
00000360: 5134 8a3d 7911 66bd 8f3f ca3b b7ee d0bd
00000370: 052b 823d be26 89bd 12c3 46bd 282f e3bb
00000380: e8ff 723d 67df d13d ada1 32bd 19d3 d0bd
00000390: 4672 113d efb9 e93d 4abb 7b3d 8b4e 68bd
000003a0: 1f70 05be dcbd 1abd 9a0d ae3d e030 8ebd
000003b0: 80da f2bd 9090 6ebc 3927 09be bd64 9abd
000003c0: 814f b4bd c90f e53d 2526 93bc a96d c23d
000003d0: 833f c73d 5c46 9cbd 294e d73d 8254 153d
000003e0: 83ce f0bd ecea 883d e1d3 f73c e126 3cbd
000003f0: 4ceb 1ebd af25 913d a529 9e3c 8230 833c
-0.013771095 0.03206051 -0.08793534 -0.10734542 0.080962576 0.0047690356 -0.096062966 0.075849675
0.08482502 -0.07896134 -0.05339755 0.050020114 0.009638828 -0.10216048 -0.017824091 -0.028953964
-0.037577175 -0.013942484 0.04506819 0.06893261 -0.11500019 0.0736386 0.0042316336 0.036789387
0.07508877 0.02321903 -0.09130361 0.10244101 -0.03586724 -0.09309622 0.13518763 0.03256649
-0.11128666 0.022178734 -0.044192962 0.12504348 0.06463862 -0.08038703 0.057971224 0.12005577
0.059007496 -0.034301355 0.029723728 0.010032314 0.0700656 0.05810809 -0.019135073 -0.031634185
-0.029398717 0.13643782 -0.049901415 0.04003903 -0.06817475 0.06504206 -0.09712383 0.105923764
-0.0071431436 0.08538759 -0.08297273 0.07712298 -0.00053494645 0.089252755 -0.0043801246 -0.03424478
0.12373069 0.07342608 -0.104611345 0.033143505 0.11145423 0.093412645 -0.11135543 -0.048590295
-0.08246848 -0.09230559 0.05332103 -0.07132861 0.09380768 -0.08629905 -0.100476146 -0.075722024
-0.093709916 0.06584582 -0.083059035 -0.09273247 0.006550648 -0.0773284 0.019133141 0.07907677
0.078149654 -0.032881953 -0.0065076617 -0.017009953 0.017218564 0.13571164 -0.015879434 -0.041470107
-0.09750165 -0.090857245 0.05706049 -0.07699282 0.03516018 0.11960737 -0.120401986 0.0494133
0.0138917575 0.030749992 0.071064025 0.046231724 0.08659089 -0.05341296 0.051147565 -0.00040908012
-0.021722699 -0.0119824195 0.12853763 0.011297335 0.018910578 -0.12285025 0.06891498 0.055912666
-0.07790629 -0.022583159 0.0030570203 -0.010028016 -0.12795743 -0.05588661 -0.08728922 -0.044043515
0.036076423 0.100138456 0.1274287 -0.0037665232 0.017321857 0.06654799 -0.0974653 0.13816041
0.015902763 -0.027352134 -0.045878284 0.041611906 -0.06440127 0.052431323 -0.10448732 0.011439495
-0.119674556 -0.031903416 -0.12050287 -0.0032512818 -0.06593011 0.032613646 0.10387906 0.03539135
0.10805742 0.010619799 -0.055287845 0.009103846 -0.09197037 -0.033132583 0.0715047 0.06798772
-0.022618232 -0.12065332 0.05808546 -0.054713 -0.013505382 0.060163863 -0.12224581 0.007960605
0.024565382 -0.10568508 0.094574034 -0.10148049 0.008068667 0.1060693 -0.017736377 0.005357841
0.029077476 -0.047476362 0.11678419 0.07402752 -0.042651165 0.017143471 0.027087016 -0.018967202
-0.051852226 -0.107150614 -0.017525699 0.1270003 0.0809192 -0.106933735 0.082714684 0.081432655
-0.027535425 -0.124064974 0.09085779 0.05074132 -0.042965986 -0.08612496 0.053129464 -0.0580062
0.03136407 0.085482396 -0.06734275 -0.028634563 0.051221892 -0.0005978826 0.092042975 0.1346465
0.021086516 0.03069536 -0.010949396 0.09709634 -0.09747388 -0.051897757 -0.042951327 -0.023763908
0.0674826 -0.056169007 0.0061721276 -0.10201781 0.063558616 -0.066968426 -0.048525877 -0.0069331117
0.059326082 0.10247689 -0.043611217 -0.10196514 0.03550937 0.11412417 0.06145791 -0.05671553
-0.13031052 -0.03777872 0.08498688 -0.06942916 -0.11858082 -0.014560834 -0.13393869 -0.075387456
-0.08804227 0.111846514 -0.017962525 0.09493572 0.09728911 -0.076306075 0.10512955 0.036457546
-0.11758139 0.06685433 0.030252399 -0.045935515 -0.038798615 0.07087266 0.019306967 0.016014341

lstm.bias_ih_l0 f4 [256]
00000000: cc33 913c b70e 29bd 61a7 b73d 2ae4 51bd
00000010: 039f 3c3d f1a3 6abd 5861 37bd 5c5a dc3d
00000020: 42dd 8b3c 098f 26bd f8cf 803d 4e17 7bba
00000030: 1795 183d eee4 d4bc 86cf 2a3d e1bc 03bd
00000040: 356b bcbc 07ca fdbd 1615 b43d ed11 ebbd
00000050: 6aeb 503d 3fef e0bd 47b1 fe3c 81a4 083e
00000060: fcf4 e53c b8aa 52bd 7f68 883d d8fc 013e
00000070: f739 6a3d b2a9 d03c c7c5 7cbd f6d5 1cbd
00000080: 9ea7 cdbc 09b8 5abc 677d 0f3c 4f99 e7bd
00000090: 1d5a bfbd 40da d9bd 6206 c63d a515 073e
000000a0: 9734 453d 11ca 673d 1ef8 cabd 77cd 94bd
000000b0: 56d2 643c 5fcf 9c3d 2d6e 353d 8b72 85bd
000000c0: f11a 983c d8d2 bcbc f767 ea3c 189c f2ba
000000d0: ea69 9d3c 5e88 45bd 7a90 383d b823 b4bd
000000e0: 4842 36bd 4504 893b 40e8 1b3d 5887 173d
000000f0: 2ee1 813d 5c4c 87bd 5052 f1bc ea68 c6bd
00000100: 4997 8fbd cf04 903d 5f69 0e3e 0fe8 64bd
00000110: bf07 43bd e4e4 c53d 041b fb3d bed1 f13d
00000120: 6c38 df3d 673f f83d 2537 1f3d 3ded 903d
00000130: 2fbb 073d 8a5b be3c 27dc 4ebd cc81 2fbd
00000140: 4dfb 48bd 8350 d0bc 475e f63d 8142 bcbd
00000150: 9962 d23d b6a3 b6bc aa29 ff3c 845a 8a3d
00000160: 3231 043d cd02 8cbd 410b f23b 8702 e03d
00000170: 258d 883d d305 01be 1f7a 823d 45ad ab3c
00000180: 03f8 523c 7fa1 ad3d 950a b83d 41ee e5bd
00000190: 047e 2e3b c7c2 c4bd 7ca7 223c ba47 64bd
000001a0: e2a9 853d 4448 213d 32a0 5fbd d010 d73d
000001b0: 1cff 0fbc 2c98 773c ec55 ba3d e248 723c
000001c0: 164d 4d3d c8e0 663c 52ac 5e3d 7bcd d73d
000001d0: 76b9 8c3d b46d 8cbc 0539 8e3d 4a4c 84bd
000001e0: cab8 ee3d 16ab a8bd a1f0 3fbd aab0 273c
000001f0: bdb7 94bd 4f96 9a3c 37e4 3d3d 1ef5 fe3d
00000200: 6273 893c 04f9 cf3d 9026 e33c ae9f 943d
00000210: 103f 243c ba8a aa3d 1293 a93d 36ba df3d
00000220: ecba b63b f4a5 c43d eb4e 9a3c 9674 193d
00000230: e02e a73d 3b1f f4bd 36bf 88bd 87e4 06be
00000240: cd8b 55bb 7aba 01be 1991 c9bd 7a2b e53d
00000250: ac85 43bd 29bb f83c f140 3cbc f1ce 033c
00000260: b056 b73d 1c4f febd a3a3 61bc e694 9f3d
00000270: 8794 97bc 057f 4abc c944 b23d 6184 833d
00000280: b4c4 f83b 5120 d5bd 5df1 e6bd 5ce5 eabd
00000290: 00b5 283d b366 d33d 3cae d7bd dd8c a63c
000002a0: d3e9 ffbd 9b4d 693c 8d2c f73d af1b 0cbe
000002b0: caec f6bd 9d48 c33d 9f42 80bd 6002 2e3d
000002c0: fa5b e1bd 175c 86bb 2151 e53d 5545 41bc
000002d0: 4bc4 8ebb 8b6d 8f3d f477 b4bd 1fe5 ddbd
000002e0: dbcc ccbd c909 bbbd 11ff e63d ad05 dfbb
000002f0: 355e a3bd ae91 7a3d 1d69 b7bd 887b b73d
00000300: 9d73 aebd 9c4b a1bd 8aae 8ebd 3b5d f03d
00000310: 399b 893d 5e7e 18bd fb42 04bc a73b 823d
00000320: d8be 62bc b753 8d3d 2dd8 a43b 5f7d 1bbc
00000330: 5ab9 893d 88ce 803d b587 cabb 29ba d6bd
00000340: 00f2 e2bc 58c6 c63d 7746 76bd 7e64 963d
00000350: 604c 09bd e0b5 b7bd 0343 9b3d 4673 023e
00000360: f95d 623d 6d6b e13d 20db cfbd e254 b23d
00000370: e803 e1bd 3bf4 d23d 65b9 c1bb 6d02 853d
00000380: 8f60 41bd 0dcc f43d 92b3 86bd ae00 2b3d
00000390: cb49 383d 0a41 cd3c 51eb 093c a0b4 053e
000003a0: d454 f23d 2fc4 21bd 335b b7bd 3baa 28bd
000003b0: a6d5 93bc 09d2 90bd cb72 f43d 972d ac3d
000003c0: d5ed 44bd c3df 80bd 2d0a a4bc ef77 04bd
000003d0: 6ee1 dfbc 5056 b1bc 260a d33d 2775 b23d
000003e0: 61e9 173d 6f1d d33d feb1 963d 53e8 c6bd
000003f0: 43d7 033e bf49 85bd f2a6 debd 5b2f d63d
0.017724894 -0.0412738 0.08967472 -0.051242985 0.046050083 -0.057285253 -0.04477057 0.10759422
0.017073277 -0.040663753 0.06289667 -0.0009578363 0.03725156 -0.025988068 0.041701816 -0.03216255
-0.023000339 -0.12392049 0.08793084 -0.114780284 0.05100576 -0.109831326 0.031090392 0.13344003
0.02807092 -0.05143234 0.06660556 0.12694108 0.057184186 0.025471542 -0.061712053 -0.038289987
-0.02510434 -0.013349541 0.008757926 -0.11308538 -0.093433596 -0.10637331 0.09669186 0.1319185
0.048145857 0.05658919 -0.09910606 -0.07265752 0.013966164 0.076567404 0.044294525 -0.06515988
0.018567534 -0.023049757 0.028614027 -0.0018509654 0.019215543 -0.048225753 0.04505966 -0.08795875
-0.044496804 0.004181417 0.038063288 0.03699431 0.06341778 -0.06606361 -0.029458195 -0.096879795
-0.07011277 0.07032167 0.13907383 -0.05588537 -0.04761481 0.09662798 0.12261012 0.11807583
0.108994335 0.12121468 0.03887095 0.070764996 0.033137497 0.023237009 -0.050502922 -0.042848393
-0.049067784 -0.025429016 0.12029701 -0.09192372 0.10272712 -0.02229486 0.031147797 0.06755546
0.03227348 -0.06836472 0.0073865955 0.10937982 0.06667546 -0.12599878 0.06370949 0.020956645
0.012876513 0.084780686 0.08986393 -0.11227084 0.0026625404 -0.09607463 0.009927627 -0.055732466
0.06526543 0.03937556 -0.054596134 0.105012536 -0.00878885 0.015111964 0.090984195 0.014787884
0.050122343 0.014091678 0.054363556 0.10537239 0.06871311 -0.017142154 0.06944469 -0.064598635
0.116563395 -0.08235757 -0.04686034 0.010234991 -0.07261608 0.0188705 0.04636022 0.12449096
0.016778652 0.10154918 0.027728349 0.07257019 0.010024801 0.08327241 0.082800046 0.10924189
0.005576482 0.096019655 0.01883646 0.0374647 0.081632376 -0.11920019 -0.066770956 -0.13173114
-0.0032584548 -0.12668791 -0.09842128 0.11189933 -0.0477349 0.030362682 -0.011490093 0.008044944
0.08952081 -0.12417433 -0.013771924 0.07792072 -0.01850344 -0.012359385 0.08704526 0.06421734
0.007591808 -0.104065545 -0.11276505 -0.11469528 0.04118824 0.10322323 -0.105312794 0.02033084
-0.1249577 0.014239694 0.12069044 -0.13682435 -0.12056883 0.09535334 -0.06262707 0.042482734
-0.11003871 -0.0041003334 0.11197115 -0.011796315 -0.004356896 0.070033155 -0.08811942 -0.10834717
-0.100000106 -0.09132726 0.11279119 -0.0068060965 -0.07976953 0.061174087 -0.08955596 0.089591086
-0.08518145 -0.078757495 -0.069668844 0.11736532 0.067190595 -0.03722989 -0.00807261 0.06359034
-0.013839446 0.06900733 0.005030653 -0.00949034 0.06724806 0.06289393 -0.0061807283 -0.10484726
-0.027703285 0.097058 -0.060125794 0.07343386 -0.033520103 -0.08970237 0.07581141 0.12739286
0.0552654 0.11006818 -0.10149217 0.08707596 -0.10987073 0.103004895 -0.0059119933 0.06494603
-0.047211226 0.11952982 -0.06577219 0.041748695 0.04499225 0.025055427 0.00841792 0.13057184
0.11832586 -0.039493736 -0.08952942 -0.04117797 -0.018046211 -0.07071311 0.119359575 0.08407133
-0.048078377 -0.06292679 -0.020024383 -0.03234094 -0.027329173 -0.021647602 0.1030467 0.08713751
0.0370878 0.103083484 0.07358168 -0.09712281 0.12875085 -0.065082066 -0.10871686 0.10458251

lstm.bias_hh_l0 f4 [256]
00000000: 8d28 f13d e4b7 b7bd d865 173d d1b9 c83c
00000010: b450 7dbd 608f edbd 58c1 f63d 914a 013e
00000020: 57be 2fbd 3112 093e d9bf dcbd 635c e93d
00000030: b7ba 4bbd aff1 aabd 5644 563d 94b3 d03c
00000040: 6411 6a3a 1e88 86bd 51bf 253c 82ad 02be
00000050: 11ba a73d 8334 8c3a 13ab f03d 9b35 a93d
00000060: dcf1 f73c 54f6 60bd 64bb 903b 5f11 073e
00000070: a90b bc3d 306f 13bd beb8 113c 3813 94bd
00000080: 831e 5a3d d625 763c 017a c2bd 04e7 de3c
00000090: 580c bfbb 13eb 2e3d 9709 013e cd1f 243d
000000a0: 0081 95bd b70c 7c3d d4eb e9bd 49e2 cc3d
000000b0: 4a69 fd3c 28c8 8e3d c362 68bd b5a0 19bc
000000c0: dcc9 723d 75a6 06be f304 aa3d eddb e43d
000000d0: 561f 1b3d 1699 d33d 6f25 823d 03be 13bd
000000e0: bc03 02bc f016 f43d abec 9d3c e7c8 b9bd
000000f0: d532 0a3d 1369 6e3b 8048 6a3c f828 1cbd
00000100: eb3d 01bd 99a8 48bc af19 dbbd c80c 043e
00000110: 26df 9dbd 4c79 903d 80cd c13a 28cb 613c
00000120: 7c2f f53d f3f8 ff3d 83cc 7e3d 0827 893d
00000130: 4178 0d3e cb5e abbd 3ba2 e43d 58e0 dabd
00000140: 6346 03bc 12f6 cd3d 5dc6 053c 5163 a13c
00000150: 9189 983d fe72 ec3d cc86 bf3d 4336 da3d
00000160: 64fe 533d f3f4 e63d d01f b0bc 6bf9 f83d
00000170: 6555 f8bc d586 e1bd f71d bcbc 1031 d8bd
00000180: 8228 db3d b9d5 20bd cb4c 8b3d 714d 5c3c
00000190: 64ef cebd 8f37 e4bc 7dc6 bfbd 33fa a83d
000001a0: ed2b a43b 37da cd3d fed9 753b 0ebf 9fbd
000001b0: fbd7 af3c 8543 ea3d 9497 edbc aeba 0f3e
000001c0: 883b e93c 16f1 83bd cbfc 093e 755e 55bd
000001d0: c9be 373d 0265 2f3d 88a1 d63d d466 71bd
000001e0: 3321 b23c 70f5 7fbc 6b0b 79bd 9fab 0ebd
000001f0: 0116 f53d d02c 743d 75f5 bc3d ac8d 933d
00000200: 7f54 27bc 29bb a7bc 51b6 e6bc 973a 68bd
00000210: b484 32bb cc65 8b3d a63f 13bc 5180 603d
00000220: a3c5 d8bd 4c34 f63d 00d8 093e 5814 2dbc
00000230: f0ba 31bd 695e 34bd 3815 813d cb3d db3d
00000240: 2dd2 9bbd 1f64 ee3d 3cfa 8f3c 34c4 e3bd
00000250: 1c57 99bc 6009 593d e12e a5bc aa76 bf3d
00000260: 32dc 823c f8cd 823d 14ef 91bd b4c8 fd3d
00000270: 491d c93d 02d2 863d c3ea 81bc c1ba 5a3d
00000280: e07f 163d a467 7dbc 5280 7cbb 00a2 c03d
00000290: a8e6 c33d bde6 023e 48b3 173d d09a a8bd
000002a0: eadc 443c ad3e f3bd 3c4b 053e edb1 08be
000002b0: 10c5 d5bd 63bc c83d c413 13bd 404e 593d
000002c0: d09c c83d e3bf 85bd 25de 55bd 23ea 7fbd
000002d0: 2dfb 25bd bd90 83bd f293 cabd 5958 603d
000002e0: 72ec 0dbe 8f4c d0bd 0679 2d3d 3458 023e
000002f0: 63f8 a5bd f259 aa3d e3a6 b3bd 92a0 a8bd
00000300: 77c8 15bd 2123 943d ca24 c33d 21f0 2b3d
00000310: 29fb b03d 4d66 81bd 5725 afbc 69fa 92bd
00000320: f697 453d 5746 8bbd 06cc 63bd 62f4 aabb
00000330: 3d7b c0bd d81a 6fbc 555e a5bd 7419 85bc
00000340: 9588 e53d 1e52 8e3d 7cbd 7abd 60ad f53d
00000350: 7d7f c53d 2e32 bd3d 5f29 d4bd 6ae2 f53c
00000360: 7e8b a13d c7fa 343b 6237 16bd 120c bdbd
00000370: d62f 85bd e53d b53d 50d8 85bc f624 cabc
00000380: d1a9 0c3e d2ff 4dbd 32b1 f73d 9a60 57bd
00000390: 3ba9 343d 6f2b ea3d de04 44bc b554 c53c
000003a0: f760 4bbd 40e6 d63d fdc6 a13d 0db9 863d
000003b0: 96b5 99bd 8a4d e0bb a929 aabd f17a cdbd
000003c0: 0a7f a03c f6f2 e1bd 1cc5 bf3c b5ad bbbd
000003d0: f699 5dbd 9013 eab9 5472 683d 0758 bdbc
000003e0: 81b1 573d e337 b9bd e55d f03d 8ecf bc3c
000003f0: f0ab 93bd 58cc dcbb ad4c d13c cf8b 16bd
0.117753126 -0.08970621 0.03696236 0.024502667 -0.061844543 -0.11599612 0.12048596 0.12626101
-0.04290613 0.13385846 -0.107787795 0.113945745 -0.049738612 -0.08346879 0.052311264 0.025476255
0.0008928983 -0.06568931 0.010116414 -0.127615 0.08189786 0.0010696802 0.1175138 0.082621776
0.030266695 -0.054922417 0.00441687 0.1319022 0.091819115 -0.03599471 0.008894144 -0.07230228
0.053251754 0.015023669 -0.09495927 0.027209766 -0.005830329 0.042704653 0.12601314 0.04006939
-0.072999954 0.061535563 -0.11421934 0.10004098 0.030933995 0.069717705 -0.05673481 -0.009376694
0.05927454 -0.13149436 0.08301725 0.1117476 0.03787168 0.10331933 0.06354796 -0.03606988
-0.007935461 0.119184375 0.019277891 -0.09071522 0.033739883 0.0036378547 0.014299512 -0.03812501
-0.03155319 -0.012247228 -0.10698258 0.128955 -0.07708578 0.070543855 0.0014785975 0.013781346
0.119719476 0.12498655 0.062206756 0.06696898 0.13815404 -0.0836769 0.111637555 -0.106873214
-0.008012387 0.100567 0.008164969 0.019700678 0.07448114 0.115453705 0.09351882 0.10654881
0.051756278 0.11277189 -0.021499544 0.12156948 -0.030314157 -0.11012045 -0.022963507 -0.10556233
0.107010856 -0.03926632 0.068017565 0.013446198 -0.10104254 -0.027858524 -0.093640305 0.08250847
0.005010119 0.10051387 0.0037513967 -0.07800113 0.021465292 0.114386596 -0.029002942 0.14036056
0.02847077 -0.06442468 0.13475339 -0.052092034 0.04485968 0.042820938 0.104800284 -0.058935955
0.021744346 -0.015622482 -0.060801905 -0.03483164 0.119670875 0.05961305 0.09226505 0.07204756
-0.0102130165 -0.020474987 -0.028163107 -0.0566965 -0.0027239742 0.068065256 -0.008987343 0.054809872
-0.10584571 0.120216936 0.13461304 -0.010563932 -0.043391168 -0.04403535 0.06302875 0.107051454
-0.07608447 0.1164019 0.017575376 -0.11121407 -0.018718295 0.052987456 -0.020163955 0.09348805
0.015974138 0.06386942 -0.07125679 0.12391797 0.09820039 0.065830246 -0.015859013 0.05340076
0.036743045 -0.015466604 -0.0038528633 0.09405899 0.095654786 0.12783332 0.03703621 -0.08232653
0.012015561 -0.11877189 0.13016981 -0.13349123 -0.10437977 0.09801557 -0.03590752 0.05305314
0.097955346 -0.0653074 -0.052213807 -0.06247915 -0.040522743 -0.06424091 -0.098914996 0.054771755
-0.13859728 -0.101708524 0.042351745 0.1272896 -0.08104017 0.08317937 -0.087720655 -0.08233751
-0.03656813 0.07233263 0.09528501 0.04197705 0.08641655 -0.063183405 -0.02138011 -0.07176668
0.048240624 -0.06800526 -0.055614494 -0.005217121 -0.09398506 -0.014593802 -0.08074633 -0.016247489
0.112076916 0.06949256 -0.061215863 0.11995959 0.09643457 0.09238087 -0.103594534 0.03001519
0.07887934 0.0027615295 -0.03667391 -0.09230818 -0.065032646 0.08849696 -0.016338497 -0.024675827
0.13736655 -0.050292797 0.12094344 -0.05258236 0.044106703 0.114340656 -0.011964051 0.024088243
-0.04965302 0.104931355 0.07899282 0.065782644 -0.07505338 -0.006845181 -0.08308727 -0.10033215
0.019591827 -0.11032669 0.023409419 -0.09163991 -0.054101907 -0.00044646533 0.056749657 -0.023113264
0.052659515 -0.09043863 0.11736659 0.023048189 -0.07210529 -0.006738227 0.025549257 -0.036754426

lstm.weight_ih_l0_reverse f4 [256, 32]
00000000: 12c2 57bd d526 c73d 8ee9 0cbe d838 9dbd
00000010: c129 01bd 125d debd 99fd 41bd 7fa7 8e3d
00000020: df7b 25bd 6727 d23d 3afd 0ebc f31d 343c
00000030: 41b7 dcbd 91cf 8bbd 7984 893d 5a8a 4f3d
00000040: 6a72 933c 201b 033c a575 d93d 62dd a4bd
00000050: 8f57 c7bd cc17 f9bd a332 2d3d 2e3d bc3c
00000060: 2fe7 803a cde1 063e 83ec 9c3d 06bd d4bc
00000070: dd24 86bd 84fb 983d 00ea d83c b5fd da3c
00000080: eef2 4fbc c794 773d ba48 ebbd 1ac0 5dbc
00000090: fa3f fbbc 62d7 a1bd e134 b83d 5b6e cebd
000000a0: f092 b63c 1b07 233b f598 f1bd cef7 c43d
000000b0: 7f7d c53c 574a d9bd e53a fb3d c30e 0c3c
000000c0: 7c34 cf3d 3436 993d 009b c0b9 cb7d f33c
000000d0: f2a8 94bd 67de e43d 240e 37bd 5085 24bb
000000e0: ca2b ecbd d3f3 edbd 825c 6a3c d587 8cba
000000f0: 3532 623c 3f5b da3d 261d 00bd aeb9 fd3c
00000100: de8e 9a3d 2f67 873d 748c 65bc c43f 89bd
00000110: e9cc 3bbd 6ff2 d3bd fe38 5bbc cb7a f53d
00000120: ee85 493d 493c 1cbd 3597 d3bd cde3 1dbd
00000130: d703 403d 93e0 f8bc 059d e7bd 82d9 e0bd
00000140: a802 583a 096d 523d ac3c 82bc 3c1e 6d39
00000150: 2ba7 55bd 373d aabd c1dc 243d cf9e f2bd
00000160: 49d5 d3bc a0d1 c8bc eaab ae3d 6b88 f6bd
00000170: ffb9 8a3c 3857 df3d 4158 653d cb6f 2ebd
00000180: b0e1 2c3d af70 9b3d 62e7 8bbd bcb8 9a3c
00000190: a702 b8bd 0cdb d83d 7668 bdbd a4a4 0dbd
000001a0: 82fd 9ebc b5b2 33bd 7c82 303c f7f0 2abc
000001b0: f33f a33c 3d66 0abe 0e98 9abd 188c edbc
000001c0: 8901 913c 81f3 cc3d f2d6 043e 9569 e7bd
000001d0: 9a68 603d 8e3f a1bc 886d e7bc bfb1 b0bd
000001e0: 7211 e9bd dcd4 dcbc 1f5b 8d3d 2004 d03d
000001f0: 0b8a e3bc b104 0a3e 7ed4 bc3d efa1 d5bc
00000200: ff75 773d b2fd 523d e16a 9abc 7859 0b3e
00000210: 87de 70bd d01e a43d 131a a3bd 0d77 413d
00000220: a5f9 a43c b850 35bd aa47 d33c cd33 99bd
00000230: 70a1 873d 3177 dd3c 6653 8dbc 8faa 713d
00000240: 0305 483c 9108 99bd ecb2 2bbc a3d4 863d
00000250: 8762 f73d d00f fc3c 034d ccbc de3a f6bd
00000260: 6d37 503d 3e92 a63d 97ba 4abd bb5d f03c
00000270: 8645 08bd 4f4d 063e 43de cf3d 3a5e dfbd
00000280: 129f fc3d 66d7 913d 4428 02be 5047 1d3d
00000290: b7dc 56bb 1117 aabd 2ef9 d43d 45b6 5b3d
000002a0: 63fe 4a3d 1816 05be b44c 623d 085f d03d
000002b0: 56c5 b0bd 555e 0ebc 9a9c 04be 4a2a 91bd
000002c0: b746 3cbd d290 b23d 8e3d e03c c2c5 d4bd
000002d0: a228 0c3c 94be 043d 31fa 293d 177d 88bd
000002e0: a778 e1bd 7bad 19bd 04b4 843c 20fc 46b9
000002f0: d770 67bd 20e5 dc3d a08f a2bd 8e05 c3bd
00000300: 828c 14bb 935d 8d3d 3af0 6ebd 024d 763c
00000310: b3c5 003e 2bc9 a7bd eba7 db3d 4dd4 713c
00000320: f3bc 7fbd 842b 76bd 043a e0bd 1d7b cc3d
00000330: 6cc7 17bd 6397 16bd 6dad ac3d a872 f13d
00000340: e37a ebbd df4c 4bbd ffea 8abd 35bb f1bc
00000350: af7e 113d 5a25 e83d 24d5 dabd e9dc 413d
00000360: f595 ddbd 9359 9f3c d450 e3bd cce0 19bd
00000370: eee1 ebbd 40bb c8bc 488d 813d c8c0 91bd
00000380: 4911 b83c 6776 e4bd 2d6e acbd f651 013e
00000390: 6aa5 a23c 4eb1 543c 757f ce3d ce13 87bd
000003a0: ee82 08be 9e07 3dbd ab25 c33d c2b4 c8bd
000003b0: 7014 01be 8b44 a0bd f9c4 1ebc 3e47 ae3d
000003c0: 4ef4 e0bd 633a e7bd 0cc6 d6bd 13cd 85bd
000003d0: f78b 623d b1dd 21bd 9aa1 233d c28e dfbc
000003e0: 8f20 4b3d 6454 8a3d dae1 a03d bab4 ccbc
000003f0: d8df e43d 1c75 a3bd 944e e43d 4cc2 aebd
-0.052675314 0.097242035 -0.13760969 -0.07676858 -0.03153396 -0.108575955 -0.04736099 0.06965541
-0.040401336 0.10261422 -0.008727366 0.010993469 -0.107771404 -0.068266995 0.0671472 0.05066905
0.017998893 0.008002073 0.10618142 -0.08050038 -0.09733497 -0.12162742 0.04228462 0.022978391
0.0009834523 0.13172074 0.076622985 -0.02596904 -0.0655 0.07469848 0.026478767 0.026732305
-0.012692196 0.06044462 -0.11488481 -0.01353457 -0.030670155 -0.07902409 0.08994461 -0.100796424
0.022286862 0.0024876061 -0.11796752 0.096175775 0.024107693 -0.10609882 0.122670926 0.008548441
0.101174325 0.074810416 -0.00036736578 0.029723069 -0.07258786 0.111752324 -0.04469122 -0.0025103875
-0.115317896 -0.116187714 0.014304282 -0.0010721633 0.013805916 0.10661935 -0.031277798 0.030972328
0.07546781 0.066114776 -0.014010537 -0.067016155 -0.045849714 -0.10348975 -0.013380287 0.119863115
0.04919999 -0.03814343 -0.10331575 -0.038547326 0.046878662 -0.030380523 -0.11309246 -0.10978986
0.0008240142 0.051373515 -0.015898071 0.00022613344 -0.052161377 -0.08312457 0.04024959 -0.118466966
-0.025858538 -0.02451402 0.08528884 -0.120377384 0.016934393 0.109053075 0.05599237 -0.042587083
0.04220742 0.07589852 -0.06831242 0.018886916 -0.08984881 0.10588655 -0.0924844 -0.03458084
-0.019407991 -0.0438716 0.010773297 -0.010433427 0.019927954 -0.13515563 -0.075485334 -0.028997466
0.017700927 0.10007382 0.1297262 -0.11299435 0.054787256 -0.019683626 -0.02825047 -0.086276524
-0.113802806 -0.026956968 0.069021456 0.10157037 -0.027775785 0.13478352 0.09220217 -0.026078193
0.060415264 0.051511474 -0.018849792 0.13608348 -0.05880597 0.080136895 -0.07963958 0.047232676
0.020138571 -0.044266433 0.025791008 -0.07480583 0.06622589 0.027034374 -0.017251682 0.059000548
0.012208226 -0.07472337 -0.01047967 0.06583526 0.120793395 0.030769259 -0.024939066 -0.12022947
0.05083411 0.08133362 -0.049494352 0.02934157 -0.033269428 0.13115428 0.10149815 -0.10906644
0.12335028 0.07121162 -0.12710673 0.038398087 -0.0032785365 -0.08305181 0.1039909 0.053640623
0.04955901 -0.1299671 0.05524893 0.10174376 -0.08631389 -0.008689483 -0.12950364 -0.07088144
-0.045965876 0.087190285 0.027373102 -0.10389282 0.0085546095 0.032408312 0.041498367 -0.06664484
-0.11009341 -0.03751896 0.01619912 -0.00018976675 -0.056504097 0.107858896 -0.079375505 -0.09522544
-0.0022666757 0.069026135 -0.058334567 0.0150330085 0.12575416 -0.081926666 0.10725387 0.014760089
-0.062436055 -0.060100093 -0.109485656 0.099844195 -0.037055418 -0.036765467 0.08431516 0.11789447
-0.11498048 -0.049633857 -0.06783103 -0.029508213 0.035521206 0.11335249 -0.106851846 0.047329817
-0.10819618 0.019451892 -0.11099401 -0.0375679 -0.11517702 -0.02450335 0.063257754 -0.07116848
0.02246918 -0.11155396 -0.08419452 0.12628922 0.019854266 0.012981726 0.10082904 -0.06595574
-0.13331196 -0.046149842 0.09528669 -0.09800102 -0.12605453 -0.078255735 -0.009690517 0.08509682
-0.109840974 -0.11290433 -0.10486993 -0.065332554 0.055309262 -0.039518062 0.039949037 -0.027289752
0.049591597 0.067543775 0.07855578 -0.02498852 0.11175507 -0.07981321 0.111478 -0.08533153

lstm.weight_hh_l0_reverse f4 [256, 64]
00000000: 90d3 ab3d 75b7 c7bd 8b61 ae3d 0be6 e33c
00000010: 49fb a33c c40b 0f3d 48e4 253d a541 c73d
00000020: f82c 743b 9b2a acbc d36d ef3d 0a42 b5bb
00000030: 5a4d 0d3e 3a3e 0abd dc2c dabc ec1d 32bd
00000040: af88 f3bd cd90 303d 1061 963d 8785 f13d
00000050: da34 a8bd e945 d1bd ac70 093e 6ba3 863c
00000060: e929 49bd e453 fc3a 6463 4f3d 5811 b63d
00000070: a335 893d a493 013d bb8a e4bc aba0 473d
00000080: e16e 89bd 1f3b 69ba 4772 023e 318d 5a3c
00000090: 330b 10be 5666 abbd fe0f f8bd 6259 62bd
000000a0: deb1 233d f9fa 1ebd 98c8 933c a696 e2bd
000000b0: 1057 84bd 52e5 cabd 1bc0 bdbd 0126 49bc
000000c0: c1ef ce3c 3c77 5cbd 0d4b 65bc aabe a23d
000000d0: e7c6 bb3d c06c c23c 5a76 003e f2d5 fa3c
000000e0: a196 973c 4cfc 733c 101a 3f3d 9bf0 acbb
000000f0: e030 dcbd e219 c93d 108b 93bd fce3 933b
00000100: 95ad 723c 9e63 b5bd 222c 4bbd d776 023d
00000110: 5e2e 523d 6816 40bb c8df 96bd 1c12 513b
00000120: 92cf 023c 3caf c9bc f2e4 ed3d 2a43 8fbd
00000130: 1415 e8bd 63cf d03b c545 d2bd a0e4 e13d
00000140: df8c 093d 9406 dfbd d7b3 2d3d 30c8 d3bd
00000150: 1483 f03d d9e0 8b3d eec8 913d dc9a bc3d
00000160: c4d7 ebbd 64bf 863c 7a76 e13d 2400 683d
00000170: 3f63 88bd a5b4 b6bd af89 b7bd 670b 1c3c
00000180: aad0 b73d 9543 c43c fbb6 9abd bcee e33d
00000190: 50a4 c6bd bc87 d83d 0e39 8abd 78dd ef3d
000001a0: 2b25 9f3c a64c 613d 1fd3 c4bd 61c6 0e3d
000001b0: 9480 9f3d 3d94 dc3d 9099 05bd ca26 88bd
000001c0: 017b 8ebc ea11 fbbc 8539 60bd f4dc b7bd
000001d0: b8b6 f2bd 80eb a23c 7f63 523d 4c02 86bc
000001e0: 4618 d4bc b4cf 29bd 9dc9 463d bfcb 3abd
000001f0: 2fd9 133d 3832 af3c 12e7 92bc 9af6 e73d
00000200: 53e8 ea3a 00fe 53bd d9ce cfbd 8abb b73d
00000210: 1a55 0a3e 8563 fb3c ab29 2f3b 7285 d5bd
00000220: 908e e8bd 5250 9e3d ab9f b93c e2fd 373c
00000230: 70bf 06bd 85cd f4bd 28dd 87bd 94f4 8a3d
00000240: c4e9 c5bd 9c2f 823d 66a5 c03d e449 c73b
00000250: 999e 46bc 8086 0dbe dc08 08bd f1e2 c4bd
00000260: 1a61 13bd e561 32bd bc3e 7a3d bf52 a03c
00000270: c8c3 a5bd d85b 413d bcaf fbbd d3ce cabd
00000280: 4dab bfbb 99d8 e5bd 78ba 193c eb12 013e
00000290: 5c94 01bd e5d8 7e3d 9601 cebd 6d8e d03d
000002a0: 84c8 c93d 6843 2abd 3c35 1bbd 88a6 0ebe
000002b0: 6950 133d 5452 cf3c d5ed 68bd e85e 023e
000002c0: f5a3 7cbd 2565 e9bd 6728 7d3d 612a ffbc
000002d0: eb95 d63d 3d7e 4d3d 307b 803d 6193 903d
000002e0: f108 bbbd b3bb 7f3d aab5 84bd c700 67bc
000002f0: b17e ea3d b0c5 703d fdb1 99bd 2691 9f3c
00000300: 9878 cf3c 8bd3 cbbb d15d e7bc 7766 593c
00000310: a93f 033e 2d1c 06bd 5c4e 4a3d 9dec 19bd
00000320: 1377 653d ba3c 403d a5e7 953b cc45 dbbd
00000330: 23ab a0bc 9276 84bd e8d4 b53d 9543 fe3a
00000340: b612 d1bd 7af1 823d 2d55 45bd 5a78 d5bd
00000350: 07e4 dcbd 393b c73d 4dd1 aa3d 8ba5 bdbd
00000360: 6b4b f73d 7678 fabd 9e86 e03c 562d 59bd
00000370: 0371 233d 769a 48bd bc1f 0abe 75d9 bd3d
00000380: b1e3 643b 5277 bb3d 47d7 ca3d 5933 ca3d
00000390: 347e 853c 07a9 bdbd c7c4 9f3d 1f72 d53d
000003a0: a2d3 3c3d 0e86 b7bd 22cd 933d 1bc5 d63d
000003b0: 757e ae3d 3e17 e5bd ca64 adbd 8293 d33c
000003c0: ae7c a2bd 8ad6 ecbd ad51 e6bd b883 723d
000003d0: 2e90 d23d c4e2 58bd 5e00 d5bd a461 c5bb
000003e0: 5c4b b2bc bbfe 2dbd c355 843c f363 38bd
000003f0: 1856 9bbd 32e1 8ebb 554f 0f3e 9810 a4bc
0.08389962 -0.097517885 0.085146986 0.027819654 0.020017283 0.03492333 0.04050091 0.097293176
0.0037258249 -0.02101641 0.11690869 -0.005531554 0.13799039 -0.03375075 -0.026632719 -0.043485567
-0.11891305 0.043106843 0.07342732 0.117930464 -0.08213206 -0.102184124 0.13421887 0.016435346
-0.049112234 0.0019251076 0.050631896 0.08890027 0.066996835 0.03163494 -0.027898183 0.04873721
-0.067106016 -0.00088970544 0.12738906 0.013339327 -0.14066772 -0.083691284 -0.12112425 -0.055261023
0.03996455 -0.038813565 0.018039986 -0.1106389 -0.06461918 -0.09907021 -0.09265157 -0.012277127
0.025260808 -0.05382465 -0.013994944 0.079465225 0.09168797 0.023733497 0.12545148 0.030619595
0.018504443 0.014891695 0.046655715 -0.005277706 -0.1075151 0.0981939 -0.072042584 0.004513262
0.014811893 -0.08856891 -0.049602635 0.031851616 0.05131375 -0.002931023 -0.07366902 0.0031901663
0.007984059 -0.024619691 0.116159335 -0.069952324 -0.11332145 0.0063723787 -0.10267214 0.11029935
0.03358161 -0.108899266 0.042407837 -0.10340917 0.11743751 0.06829996 0.071184024 0.092092246
-0.115157634 0.016448684 0.11008926 0.05664076 -0.06659555 -0.08921174 -0.08961808 0.009524203
0.089753464 0.023958007 -0.07554432 0.11129519 -0.09699309 0.10572764 -0.067491636 0.11712164
0.019426903 0.05500474 -0.09610581 0.034857158 0.07788196 0.10770462 -0.03261715 -0.066480234
-0.017392637 -0.03064819 -0.054742355 -0.0897769 -0.11851257 0.019887686 0.051364418 -0.016358517
-0.02589048 -0.041457847 0.048532117 -0.045604464 0.036095794 0.02138625 -0.017932449 0.113263324
0.0017922021 -0.051755905 -0.10146875 0.08971317 0.13509026 0.030687103 0.0026727717 -0.10425843
-0.11355317 0.07730164 0.022659143 0.011229964 -0.032897413 -0.11953262 -0.06633979 0.06784931
-0.09663728 0.06356737 0.09406547 0.0060818065 -0.012122774 -0.13820839 -0.033211574 -0.09613598
-0.035981275 -0.04355039 0.061094984 0.019570706 -0.08093983 0.04720673 -0.12289378 -0.0990273
-0.005849278 -0.11222953 0.0093828365 0.12604873 -0.031635627 0.062218565 -0.10058896 0.101834156
0.098526984 -0.04156819 -0.037892565 -0.13930714 0.035965357 0.025307812 -0.05686744 0.12731516
-0.0616798 -0.11396245 0.06180611 -0.031148138 0.10477813 0.05016922 0.06273496 0.0705936
-0.09132565 0.062434863 -0.06479962 -0.014099306 0.11449946 0.05878228 -0.07504652 0.019478392
0.025326058 -0.0062202862 -0.028242977 0.013269058 0.12817253 -0.032741714 0.049391136 -0.037579168
0.05602176 0.046932913 0.0045747333 -0.10706672 -0.019612854 -0.06467928 0.08878499 0.0019398803
-0.10208647 0.06393714 -0.048176933 -0.10423346 -0.1078568 0.09728093 0.08340702 -0.092600904
0.12074932 -0.12230007 0.02740794 -0.05302175 0.0399027 -0.04897543 -0.13488668 0.09269992
0.0034925754 0.09153618 0.09904342 0.09873075 0.01629553 -0.09260755 0.07801204 0.104221575
0.046100266 -0.08961116 0.0721686 0.10486814 0.085202135 -0.11186074 -0.084664896 0.025827173
-0.07933937 -0.115643576 -0.11246047 0.059207648 0.10281406 -0.052950636 -0.10400461 -0.0060236026
-0.02176445 -0.042479258 0.016154176 -0.045017194 -0.075847805 -0.0043603415 0.13995107 -0.020027444

lstm.bias_ih_l0_reverse f4 [256]
00000000: dca9 723c 1d5d 81bd b11d 003e 6ae6 a0bc
00000010: 25d5 b2bd 49c7 b23d 60e5 a23d 637b 9c3c
00000020: 9c3d a0bd f3e5 85bd e02f 24bc fdbc 5d3d
00000030: 0f24 d8bd 9006 bcbd ce6f c83d bed1 76bc
00000040: 1cee 2abb 1203 84bd 28f1 1a3c ac46 d2bc
00000050: bc42 dc3d aa8c c83c cb9a cdbc 4624 b23d
00000060: 76ec e63d d76d 6ebd 1928 c43d ff92 debd
00000070: 8efd a6bc 0908 5dbd e4a4 f4bc 46d0 cebd
00000080: 5242 c0bd ec59 9ebd f435 d83d cec5 f83d
00000090: dd95 1abd d87f b03b 6a95 a93d 57eb afbb
000000a0: 2a28 6d3d fed8 163b 5a47 87bd 2b07 913d
000000b0: b723 0d3e 8e74 4bbd e2eb c7bc db34 8b3a
000000c0: da93 e63d 1508 4c3c c39e 95bd 2704 c8bc
000000d0: d588 e83b 29a2 66bd 1f33 363d 128a fcbd
000000e0: ad30 213d b4ec 7e3d 6aff f9ba 1e80 2f3d
000000f0: 641e c2bc 1a23 7abd c9d6 193d 8bff a63d
00000100: 3f90 f9bc b07d 7a3d ef52 c0bd 29de 093e
00000110: 7202 8dbd 2de6 c93c c4fd 733d 71d6 903d
00000120: e86c acbd 99e3 ccbd e86a 563c 5dd6 b4bd
00000130: 0415 a7bd 60fe 9ebd 3d15 4ebd 665d a73d
00000140: ca12 003e 6724 02be 6c7b f63c 3590 63bc
00000150: 0b3e 8fbd 80d9 a43d 0539 94bd 3883 8ebd
00000160: 596e a3bd 48d7 8c3c 549b 7c3d 0505 85bd
00000170: 33a9 9dbd 9b35 af3d 5f8b 7abb 11f3 e2bd
00000180: 9159 15bd ebaa 2fbc f61c c33b fe39 813d
00000190: ec27 0a3e 5078 a5bd 5e59 5b3c c6db 97bc
000001a0: 0c83 b1bd b886 883d 6c96 063d bc70 ac3c
000001b0: 9ff0 893b 7158 74bd 30a1 fd3d 42f2 37bd
000001c0: f4d4 35bc 0f97 f73d 0cce e13d 0a8a e5bd
000001d0: f1cc 483d d1d8 c7bd 6412 8e3d 26aa 3cbd
000001e0: 7ab0 643c 7e94 4c3b e771 ddbd d731 33bd
000001f0: ac6b 93bd 6841 d13d 8b0c a43d 37d0 f5bd
00000200: f8fe a53c 98fc 093d 0f60 08bd ac55 37bb
00000210: 63ba 77bd fef6 f73c 89b0 7a3d d04e 9fbd
00000220: 2c8e 9b3d 2f2a 683d 4c39 b5bd 6a0e 8d3c
00000230: 24f5 b63d 4946 37bd 1150 623d 59b9 533c
00000240: 7f4b 1fbd 5165 403d 0453 c2bd 376c c43d
00000250: b95e 6abd 7e33 25bd 12ab 673c 7d6d f63d
00000260: c023 0c3e 891e b33d 51aa 3dbd 6b1b e53c
00000270: c575 d2bd 7032 233d 287f 023e 598d 94bd
00000280: 3301 3d3d 514b c33d b133 9ebc 45ae 9c3d
00000290: 1d1e 283d aef5 a0bd 2fe9 1abc 02ab c3bd
000002a0: b8a1 c03c 1859 a9bd 9fb9 5abb 3f2b 023d
000002b0: 79dd 3c3d dac2 653d 3dee 7ebd f274 2dbb
000002c0: e3d7 753c 158f e3bd 9002 c33c f00e 34bd
000002d0: dfba edba 56f0 e2bd 80b4 2e3d fb01 cfbd
000002e0: 0170 95bd d347 f0bd 7774 f53d 7df0 f33c
000002f0: 577c b03d 520d b4bc 9902 f43d c10a a4bc
00000300: 1e55 1dbd 6352 d33d 44f9 68bd aa75 5abb
00000310: f6ea bd3c 1a04 8dbc bd41 60bd 3e52 af3d
00000320: bab8 5a3d 093d adbd 7c31 2c3c b7df 5a3d
00000330: cfa6 373d d937 0abe dd1e 0b3e e1fa 2b3d
00000340: 955b bfbd 2ab6 823d 89e0 9d3d 709f bb3c
00000350: 6098 b4bd b614 b8bd b38b f4bc 3da3 8cbd
00000360: a416 b2bc 4003 e53d 829b dc3c 52b2 d33d
00000370: 5303 653d 592a a2bd 1ed5 793d 8f69 8cbd
00000380: 47e6 de3c 477d 653d 3333 49bd 102b 06bd
00000390: d982 e43d 99bc c4bd 97b9 8dbd 586f 333d
000003a0: d5a9 d13d 75f6 9f3d af1a e83d 9081 133c
000003b0: 3b18 acbd 1356 273d dcbc a43c b662 b93d
000003c0: fdec 16bd 1745 de3d 585d 37bd ec1c 903d
000003d0: de81 c93d 7f38 a3bd ce6c b93d f91b e53c
000003e0: a496 9f3d 6076 c9bd a129 dbbd 63c7 2e3b
000003f0: 80bb 03bd 78ae 203d bd0a 413d d31b a03c
0.014811005 -0.06316588 0.12511326 -0.01964112 -0.0873206 0.08729417 0.07953906 0.019101804
-0.07824251 -0.06538 -0.01002118 0.05413531 -0.10553753 -0.09180939 0.0978695 -0.015064655
-0.0026081866 -0.06445898 0.00945691 -0.025668465 0.10754916 0.024481136 -0.025098225 0.08698325
0.1127557 -0.05821022 0.095779605 -0.10867881 -0.020384576 -0.05396274 -0.029863782 -0.10098319
-0.093876496 -0.07731995 0.10557166 0.12147103 -0.037740577 0.005386334 0.082804516 -0.005368631
0.05789963 0.002301752 -0.06605406 0.07081445 0.13783155 -0.049671702 -0.02440447 0.001062061
0.11258669 0.012453099 -0.07305672 -0.024416042 0.00709639 -0.05630699 0.044482347 -0.12331022
0.03935306 0.062237456 -0.0019073312 0.04284679 -0.023696132 -0.06106863 0.03755835 0.0815421
-0.03046429 0.06115502 -0.09390818 0.13463654 -0.06885232 0.02464589 0.05956818 0.070721515
-0.0841921 -0.10004348 0.013087012 -0.08829949 -0.08158305 -0.07763362 -0.050313223 0.08172111
0.12507167 -0.12709199 0.030088149 -0.013889362 -0.06994256 0.08049297 -0.07237438 -0.06958622
-0.079800315 0.017192498 0.06167157 -0.06495098 -0.07698288 0.08555146 -0.0038230044 -0.110815175
-0.03646237 -0.010721902 0.00595438 0.06309889 0.13491791 -0.080795884 0.013388006 -0.018537413
-0.08667573 0.066663206 0.032858297 0.02104985 0.0042095925 -0.059654657 0.1238426 -0.04490877
-0.011098135 0.12089359 0.110256284 -0.112079695 0.049023572 -0.09758151 0.069371015 -0.046060704
0.013958091 0.0031216438 -0.10812741 -0.043748703 -0.07198271 0.102175534 0.08010205 -0.120026045
0.02026318 0.033688158 -0.033294734 -0.0027974648 -0.060480487 0.030269142 0.061203513 -0.07778704
0.075954765 0.056680854 -0.08848819 0.017218787 0.089334756 -0.044744764 0.05525214 0.012922608
-0.038890358 0.046971623 -0.0948849 0.09590953 -0.05721924 -0.04033231 0.014139907 0.12032602
0.13685513 0.087460585 -0.046305005 0.027967175 -0.10276369 0.039843023 0.12743819 -0.072535224
0.04614372 0.0953585 -0.019311758 0.07650427 0.041044343 -0.0785936 -0.009455009 -0.095541015
0.023514614 -0.082689464 -0.00333748 0.031779524 0.04610965 0.056094028 -0.06223892 -0.002646741
0.015005085 -0.11111275 0.023804933 -0.043959558 -0.0018137357 -0.11080997 0.042652607 -0.101077996
-0.07296754 -0.117324494 0.119851045 0.02977776 0.08617466 -0.021979008 0.11914558 -0.02002466
-0.038411252 0.103184484 -0.056878343 -0.0033334293 0.023183327 -0.01721387 -0.054750193 0.08560608
0.053398825 -0.08458907 0.010509845 0.053436007 0.044836815 -0.13497867 0.13585992 0.041987304
-0.0934364 0.06382401 0.07708842 0.022903174 -0.08818126 -0.08988325 -0.02985177 -0.06867073
-0.021739312 0.111822605 0.02692962 0.10336746 0.055911373 -0.079182334 0.06099426 -0.06856071
0.027209414 0.056027677 -0.049121093 -0.03275591 0.1115777 -0.09606285 -0.06920164 0.043807358
0.10237471 0.0781068 0.113332145 0.009003058 -0.08403059 0.04085357 0.020109586 0.09052031
-0.036847103 0.108530216 -0.044766754 0.070367664 0.09839223 -0.0796976 0.09053956 0.02796744
0.07792404 -0.09837031 -0.107012995 0.0026669137 -0.032161236 0.039228886 0.04712938 0.019544518
